gesture_recognition/training/models/hand_gesture_model_20250706_113237.pth (torch, 235588 bytes, 8 tensors)

network.0.weight f4 [256, 63]
00000000: bd58 b03d 8ed7 e6bc d766 923c f24e 19bd
00000010: 3794 bdbd 55c0 0a3f 5f7a a43c 7a1a a33c
00000020: 5fc2 e13e 9b09 fabd 5147 8c3c d794 b23e
00000030: 8a55 e8bd bcc1 1f3e 202a c73e 910f 2d3d
00000040: 1144 04bd 4127 7d3e 5fc3 753d f60b 833d
00000050: 5d1a 5f3e 033d ba3d 86c2 ed3d 8911 da3e
00000060: 2aea dc3d 15be 4d3c 8232 ab3e 5f75 adba
00000070: f1f9 b83c 54b5 c1bc 9296 3abd acee 78bd
00000080: 7d5c 5ebc bec1 ce3c 8d82 f43d c6a2 173e
00000090: fdc9 33bd 3e77 3abc 79ec 1b3e 1888 8abd
000000a0: 1b33 2b3d 2eb3 97be 1d77 f5bd 6c86 a83d
000000b0: d91a 17bd cbcf 953d af0f a1bd e308 cebd
000000c0: bdd7 84bc 787a 40be 39e7 57be f4dd a53d
000000d0: bcf5 d6bd 1fc5 b7be fa9b dd3d b29f 683c
000000e0: 3797 8abe c9ef 49bd 4937 803e f60b 75be
000000f0: 2e53 31bd 1de5 ad3e bdbd 70be 524a e3bb
00000100: baae d83d 7f2d d3bd 4c77 80bd 8478 6dbd
00000110: a6ac a73e cb25 893d ba12 303d 0057 623e
00000120: 30e7 0cbe 69a2 e73d a179 e43d 8355 00be
00000130: d7ae ba3d 33a4 fd3d 7698 52bd a3dd 30bc
00000140: 614a bcbd 479d e53c e2d0 3b3d 1d34 86bd
00000150: 390e 09bd 273b 003e 3654 533d c1de d83c
00000160: 3274 2a3d 5697 ce3d 3fc0 bd3d 0241 4ebd
00000170: a501 1ebd 11fa c93c 7d44 743d 59d2 b7bd
00000180: 63c9 ccbd c4b8 e93d a22d b8bc a047 98bd
00000190: 8f8f 2c3d e57d 263e c535 063c 7653 123d
000001a0: 2ac4 273d 84ff 7c3c 531d b63d 1ec3 673e
000001b0: f024 dcbd 7186 003d 9874 693e 70e1 1bbe
000001c0: e882 563d 99dd 793e fad0 b53d 1f38 69bd
000001d0: d458 d9bd f647 903d 31b3 14be e684 8b3d
000001e0: f832 8b3b 4db3 debd aba0 8b3e 1a26 8ebd
000001f0: 0576 84be ddb6 9c3e d86a a8bc 8065 d03b
00000200: 48ac aebc 2e6a bbbd a8d6 c7bc e838 a23c
00000210: fa9a a5bd 5417 ed3d cc9a 943d aad6 66bd
00000220: 7e2b b6bd 5eed c73d aa11 af3d b64f 20bd
00000230: 86b0 3ebd 8093 7c3b c0c2 d5ba 7078 fdbd
00000240: d85e 6d3d b05d f03c 82bc bd3d 3862 963d
00000250: 3c19 543d 205f 17bb e402 bfbd 50a6 b1bb
00000260: 02b0 82bd 34c3 a13d d4a6 c4bd 3abd ed3d
00000270: d02c d43d c462 3e3d 8009 c0ba 92f2 70bd
00000280: de12 813d 8eab 04bd 6259 8abd 0cb0 0abd
00000290: 54d4 a83d 5ade f7bd 5e30 95bd 68f4 9e3c
000002a0: 022c 2ebd 609b 1cbc 0a7f 56bd d67e 07bd
000002b0: ecf5 c23d 9e3d 92bd 8625 a3bd e8be d4bd
000002c0: 3855 a0bd 5080 623c 106f 7f3d 2022 db3c
000002d0: 96b1 ec3d 90ca 0a3d a690 febd c008 973b
000002e0: 30a6 9dbb 78be a4bc 2862 ecbc 4ab7 0abd
000002f0: bcfa 8fbd f69a cd3c 4dde b03c a7a3 cfbc
00000300: d8dc 91ba 8237 a1bd 3349 493d a9da 30bc
00000310: 96a6 09be 74a6 8abd 653f 8f3b 5bd1 0ebb
00000320: c2b3 c43d 8621 80bd 0aae c23d 8c08 96bd
00000330: 3bff 8fbd 773e 483d 332f b43d 22dc 0ebd
00000340: 6b4e 38bb 0435 58bc 06bc 39bd fb1c 343d
00000350: be48 593c 2965 b93d 4549 c9bd c44a 89bd
00000360: 267a e53d 83dc b7bc bb7a e33b 3e47 94bd
00000370: fa21 07be 325b 07bc e3b8 ebbd b116 a6bd
00000380: 4b48 b13d 3ef4 aa3d 1a08 b63d 20ed 8d3d
00000390: 0b90 61bd 252d a23c 5cab b93d 3d89 c3bb
000003a0: 80b1 f4bd 63d3 2ebd 1481 d73d ec5a 4bbd
000003b0: 38c6 763d 569b 47ba 0a2e 153b da80 69bd
000003c0: 14c9 b03d 3dc6 323c 1888 afbd 0297 c13d
000003d0: cfc9 a2bd dca5 fa3b b3b4 9bbd e12e da3a
000003e0: 03bc 563d 2e3b 32bd dc29 36bc bf81 103e
000003f0: 4d22 61bc f2b8 6a3d 7539 06bd 1f2f c23d
0.086106755 -0.028178956 0.017871303 -0.037428804 -0.09256785 0.54199725 0.020077882 0.019910086
0.44093606 -0.12208863 0.01712385 0.3487918 -0.1134444 0.15601248 0.38899326 0.042251173
-0.032291476 0.24722005 0.060000774 0.06398766 0.217874 0.09093668 0.11609368 0.42591503
0.10786851 0.012557526 0.33436972 -0.0013233832 0.022580119 -0.023646034 -0.04555375 -0.06077449
-0.013571856 0.025238868 0.11938963 0.14808187 -0.043893803 -0.011380969 0.15226926 -0.06764239
0.041796785 -0.2962889 -0.1198561 0.08228764 -0.03689084 0.07315024 -0.078643195 -0.10060289
-0.016216153 -0.18796718 -0.21084298 0.08098975 -0.10496089 -0.3589258 0.10820766 0.014198231
-0.27068493 -0.049300943 0.2504218 -0.23930344 -0.043292217 0.33963862 -0.2350988 -0.00693635
0.105802014 -0.10311412 -0.06272754 -0.05797626 0.32748908 0.066966616 0.04298661 0.221035
-0.13760066 0.11310274 0.111560114 -0.1253262 0.09115379 0.12384834 -0.05141493 -0.01079503
-0.09193874 0.028029097 0.045853503 -0.065529086 -0.03346083 0.12522565 0.05159398 0.026473405
0.04161472 0.10087459 0.09265184 -0.050354965 -0.038575787 0.024655374 0.059635628 -0.089756675
-0.09999349 0.11412194 -0.022482697 -0.074355364 0.042129096 0.16258962 0.008191531 0.035724126
0.04095856 0.015441779 0.08892312 0.22633025 -0.10749233 0.031378213 0.22798383 -0.15222716
0.052370936 0.24400939 0.0887775 -0.056938287 -0.10612646 0.070449755 -0.14521481 0.06812458
0.0042480193 -0.10874043 0.27271017 -0.06940861 -0.25871292 0.30608264 -0.02055876 0.006359756
-0.021322384 -0.091511115 -0.024394348 0.019802526 -0.080862 0.11576715 0.07256088 -0.056357063
-0.08895014 0.09762071 0.08548291 -0.03913852 -0.046555065 0.0038540065 -0.001630865 -0.12376487
0.05795178 0.029341549 0.09264471 0.073429525 0.051781878 -0.002309747 -0.09326723 -0.0054214373
-0.06381227 0.0789856 -0.096021324 0.11608358 0.1036011 0.04648091 -0.0014651269 -0.058825083
0.06302427 -0.03239017 -0.0675533 -0.033859298 0.082436234 -0.12102957 -0.07284616 0.019403651
-0.042522438 -0.009558529 -0.052367248 -0.033079945 0.09519562 -0.07140659 -0.079661414 -0.10387975
-0.07828754 0.013824537 0.062361777 0.02674967 0.11557309 0.033884585 -0.12429933 0.0046091974
-0.004811071 -0.020110354 -0.028855398 -0.033866204 -0.07030246 0.025098305 0.021590376 -0.02534659
-0.0011128439 -0.078719154 0.049142074 -0.01079432 -0.13442454 -0.0677003 0.004371571 -0.0021792266
0.096045986 -0.06256394 0.095058516 -0.07325849 -0.07031103 0.048887696 0.08798065 -0.034877904
-0.0028122913 -0.013196234 -0.04534533 0.04397295 0.013261972 0.09052498 -0.09828428 -0.067037135
0.112049386 -0.022444015 0.006942121 -0.07240151 -0.13196555 -0.008261489 -0.11509874 -0.08109797
0.08656367 0.08347367 0.08888264 0.06929994 -0.05506901 0.019796917 0.09065887 -0.005967288
-0.11947918 -0.042682063 0.105226666 -0.049647257 0.06024763 -0.00076143944 0.0022763037 -0.057007648
0.086321026 0.0109115215 -0.0857088 0.094526306 -0.07948648 0.0076491665 -0.07602825 0.0016646051
0.052425396 -0.04351347 -0.0111183785 0.14111994 -0.013741088 0.057305284 -0.03276964 0.09481644

network.0.bias f4 [256]
00000000: 8e6d 6fbe 0938 363e 00f5 41ba 83b0 f73c
00000010: e2c4 4cbd f8d0 833c 86de 173d 96d8 a9bd
00000020: 500d 373d 2efb f2bd afaa acbd f05a f73d
00000030: d4ab 07bd beb9 05be 3441 5f3c a1a6 0bbd
00000040: d4d8 80bb f7f7 303d 329b 3c3e 44dd 093e
00000050: c0f9 87bc 731d 893d 56c9 19bc 212a 1f3e
00000060: 983d ddbc 0326 22be efd4 133e 9e0e 12be
00000070: a604 193e 6fb1 a1bc 8393 4a3e 7dc1 babd
00000080: 206c 1fbe b4d2 21bd 5951 f63d 68c7 453d
00000090: 002c 32ba 5975 233e a211 9b3d 1d60 be3d
000000a0: a703 033c f6d0 323e ea51 253d f802 c3bd
000000b0: 46f8 d7bb 08aa 05bc 3508 c3bd 973a 6cbe
000000c0: e060 0ebc 9e44 8fbd 67a7 233d cfe5 e9bc
000000d0: 66b7 eebd 5514 69bd 0725 103b b811 9abd
000000e0: d81d 76bc 0691 4fbd 0bec 0ebd e2d4 5e3d
000000f0: 42b0 5abd c2c7 c6bd 862c 323d da13 fdbd
00000100: 49fe a33d 1acc 87bd e082 eb3d c43e 133d
00000110: 0bfd 12ba 5f5e 31bb 7256 fe3d 9357 9abd
00000120: 7b0c ec3d b4d4 683d 2bc5 0dbe 3bbd f8bd
00000130: 5ac4 6cbd 8525 1fbd 36a1 bbbd 2a6d 103d
00000140: c17e 92bd b6a8 f83b d905 60bc 2022 e33b
00000150: 6583 e03d 9935 a6bd f70d b83d 884a 4abd
00000160: 1e0e fbbd 5049 7cbc 2c82 233c 1e26 443e
00000170: 4705 083e 12e1 1cba 981d 31be 2491 1cbe
00000180: ee26 3b3d 5151 123e e0a5 9dbc c4ad 8bbc
00000190: e0ae 18bd 6bce 8c3d 7851 1dbd b1ac 2e3e
000001a0: 854c 28be 80da de3d e54d bdbd 2350 afbd
000001b0: 0e34 3ebd 9523 b03d 4f6e 383d 6aa9 c03d
000001c0: a052 d5bd 2c95 0bbe d8de 69bc 283f c7bd
000001d0: 98c6 48be 7096 513d 5b97 5cbe 4061 4f3e
000001e0: 9e9c 6cbd 2dce a6bd 5350 6e3d 7212 98bd
000001f0: 7174 fe3d b8d9 2abb 3745 8cbd 4d84 e43d
00000200: 9bf8 20bc d5e2 fa3d bd37 813b 7d37 e23d
00000210: b529 953d 8f03 c43d 60ac 9c3d 25de c0bc
00000220: 778c 8b3d c429 de3d f9d3 38be 355a 193e
00000230: daa9 c5bd 98ed 423d 98d2 75bd bef7 f3bd
00000240: f2a8 bcbd fe19 8ebd 3b65 80bd 8baa bebd
00000250: 35d0 91bc 7c81 cebc cad8 a6bd 2441 a2bd
00000260: bf29 6abc b0d6 1fbc 6432 5ebd 44e4 393e
00000270: 997c 0ebd c06e d1bd c3c0 2dbc 6069 49bd
00000280: 5327 86bd 3d01 9a3d 1709 0b3e 1f7d b83c
00000290: 70e2 edbd 9838 3f3e 584d a6bc 763c f03d
000002a0: 90e7 57bc c91a 81bd 9d8f aebd 9c73 d3bd
000002b0: 66c6 d33d f0a7 763d e07e d73d 99f3 90bd
000002c0: 4564 c2bd 6c41 99bd 8472 2d3e f540 19be
000002d0: be4a 84bd e5ed 553d d496 093d 947d 29bb
000002e0: 3c0b 0dbc 6b60 fabc ce9a ec3b 8b40 cfbd
000002f0: 63c8 843d f0c3 1ebc 02d6 3abd 6ed1 6c3c
00000300: c37e 133e 98fb a1bd 21e0 88bd f361 dd3c
00000310: 9177 b93d 5065 85bd 69c2 373d 4c97 e43d
00000320: 7202 80bd 885c 9dbd 695e 103e ac6e 5c3c
00000330: cc8a 93bd bd51 40be 3e46 d63b f77f 2a3e
00000340: 2a4a 61bd bf09 873d 0269 553d cb8f f13b
00000350: 70af 023d 89c8 43bc b20c bb3d 7de4 8abd
00000360: b9e5 e73d c65f 2e3d dee4 3e3d ced6 3f3e
00000370: bd2d 9fbc 4801 bcbd d1a4 f6bd 48c4 1f3e
00000380: 6265 a1bd 68a8 e9bd 4f98 14bd d130 0fbd
00000390: 973c 19be ccdf dbbd 595e 9a3d 5f42 4e3e
000003a0: 83dc ecbd 5d29 f1bd 5859 173e 339e a6bd
000003b0: 0e0d 2c3d 2bab efbc 3e42 01bd 7a49 cf3d
000003c0: 1ff8 003e 6251 3cbd 5c8e 843d de6d 893d
000003d0: 5e63 8cbd 0b01 b5bd cc52 0bbe 6b3e 433d
000003e0: b868 9ebd 807c eebd cb68 8f3d 0dbb f0bd
000003f0: 9452 77bd ad36 3e3e 72a0 87bd 50e3 64bc
-0.23381636 0.17794813 -0.00073988736 0.030235535 -0.04999245 0.016090855 0.03707745 -0.082932636
0.04469043 -0.11864315 -0.08430993 0.12077892 -0.033122852 -0.13059136 0.0136263855 -0.034094457
-0.003932098 0.043205228 0.18418577 0.13463312 -0.016598582 0.0669507 -0.009386381 0.15543415
-0.02700691 -0.15834813 0.14436696 -0.14263389 0.1494318 -0.019737927 0.19782834 -0.09118936
-0.1556859 -0.039507583 0.120272346 0.04828587 -0.00067967176 0.15962733 0.075717226 0.09295676
0.007996476 0.17462525 0.040361322 -0.095220506 -0.006590876 -0.008158214 -0.0952305 -0.23069225
-0.008690089 -0.069955096 0.03995457 -0.028551964 -0.11656074 -0.056904156 0.0021994726 -0.07522911
-0.015021764 -0.050675415 -0.034893077 0.05440224 -0.05339075 -0.097060695 0.043499492 -0.12357302
0.080074854 -0.06630726 0.11499572 0.03594853 -0.00056071643 -0.0027064306 0.12418832 -0.07536235
0.11525818 0.056843475 -0.13844745 -0.12145468 -0.057804443 -0.03885414 -0.09161608 0.035260357
-0.07153083 0.0075884713 -0.013673269 0.0069315583 0.109625615 -0.08115692 0.089870386 -0.049387485
-0.12258552 -0.015398338 0.009979766 0.19155166 0.13283263 -0.0005984466 -0.17296445 -0.15289742
0.045691423 0.14288832 -0.019244134 -0.017050631 -0.03727615 0.068753086 -0.038407773 0.17058064
-0.1643544 0.10881519 -0.09243373 -0.08560207 -0.046436362 0.08600537 0.045027073 0.09407313
-0.1041615 -0.13631123 -0.0142743215 -0.09728843 -0.19607008 0.05116886 -0.21542113 0.20251942
-0.05776655 -0.08144794 0.058182072 -0.07425393 0.12424553 -0.0026069712 -0.06849139 0.11158047
-0.009824897 0.12250296 0.003943412 0.1104574 0.072833456 0.09570991 0.076500654 -0.023543427
0.06813901 0.1084781 -0.18049611 0.14975818 -0.09651537 0.04758987 -0.06001529 -0.119124874
-0.09211911 -0.06938551 -0.06269308 -0.09309872 -0.017799476 -0.025208227 -0.08146818 -0.07922581
-0.01429218 -0.009755775 -0.054247275 0.18153483 -0.034786794 -0.10226202 -0.01060504 -0.04917276
-0.06550469 0.075197674 0.13577686 0.0225206 -0.11615455 0.18673933 -0.020300552 0.11730282
-0.013177767 -0.06303937 -0.08523486 -0.10324785 0.10340576 0.06021875 0.10522246 -0.070777126
-0.09491781 -0.07483181 0.16938215 -0.14966185 -0.064595684 0.052228827 0.033591107 -0.0025862204
-0.0086086355 -0.030563554 0.0072206026 -0.101197325 0.06483533 -0.00969027 -0.04561425 0.014454229
0.14403825 -0.07909316 -0.06683374 0.027024245 0.090560086 -0.065134645 0.04486314 0.1116167
-0.062504664 -0.076836646 0.14098515 0.013454121 -0.07204208 -0.1878118 0.0065391352 0.16650377
-0.05500237 0.06593656 0.052102096 0.007371878 0.03190559 -0.011949667 0.09133281 -0.06781862
0.11323113 0.042571805 0.046604984 0.18734285 -0.01943099 -0.09179932 -0.12043155 0.15602219
-0.07880665 -0.11409074 -0.036278065 -0.034958664 -0.1496452 -0.10736045 0.07537527 0.20142506
-0.11565497 -0.117754675 0.14780176 -0.08135643 0.042004637 -0.029256424 -0.031557314 0.101214364
0.1259465 -0.04597605 0.064724654 0.06710409 -0.0685489 -0.088380896 -0.13605803 0.04766695
-0.07734817 -0.1164484 0.070024095 -0.11754427 -0.060381487 0.18575545 -0.066223994 -0.013970211

network.3.weight f4 [128, 256]
00000000: b0d2 a03b aeac 20bd d026 f4bc fa85 5bbd
00000010: a2bc 13bc 78c9 293c 47ac 4f3d d273 6a3d
00000020: d67f 0d3d 3de3 503d 0004 f2ba 8e9e 8abd
00000030: 82c1 243d 5497 423d e686 133d 90f6 85bc
00000040: 4d98 3a3d 0ef6 89ba 1426 afba 439f 16bd
00000050: ed65 7cbd 13d1 643c 0c6e b33c 2ad1 cebc
00000060: 243f e2bc 4666 8bbd e6bf b6bc 1430 abbc
00000070: 940d 18bc 2d77 6e3c 5cce 433d f752 1a3d
00000080: 9945 d73b 1bf9 953c 7b78 e4bc 008e 5cbd
00000090: 4e72 7abd 8888 95bd be97 2c3d 04bd c9bc
000000a0: 3cbb 6abd c65b 043d c02b 833c b438 213d
000000b0: 646c 69bd 517c 77bd e353 4ebd b3b1 17bd
000000c0: d083 5d3d 007b 4f3a c8eb 983c 1e6b cfbc
000000d0: c488 bfbc 90f6 19bd 8048 273b 86ac 643d
000000e0: dc68 423d dc7d 45bd 736f 4d3d 2052 32bc
000000f0: f444 86bc 2a48 13bd b218 07bd f0f0 d73c
00000100: 2049 16bd 6617 763d 2625 2dbd 5c04 033d
00000110: 286d 2d3c 1b99 363d 3946 0cbd 1cfe 603d
00000120: 2406 5ebd 7cc2 95bc a849 2f3c 531e 80bd
00000130: 3294 743d 6990 d0bc 57d9 90bd a8c1 53bd
00000140: 5624 78bd 126c 69bc 0319 d3bc 4089 04bb
00000150: 8800 63bd 845d f23c a74c b53c f062 e73c
00000160: a8de 42bc caa1 8cbd f6a8 37bd a9bd 183d
00000170: 805d 40bd f9c6 26bc c14c 543d 99f3 1dbd
00000180: 4a50 1dbd fd1b 35bd b538 123d ca48 3b3d
00000190: f6d0 203b 1a49 17bd 009d 8abb c54c 4abc
000001a0: 2c70 65bd 84ab 1f3d 101e c63c eae2 e03c
000001b0: 18db dcbc 0d3d 29bd c284 663c 11de 56bd
000001c0: ea7d b8bc 7290 263d 5810 73bc 88d1 21bd
000001d0: 12f1 abbc 2e78 1e3d a0e3 15bd 3b59 40bd
000001e0: a8e7 19bd bfd7 6cbd 54de 143d 7db4 403d
000001f0: 32a8 55bd 8ff6 163d f481 1d3d 5a80 4dbd
00000200: acb8 67bd 985a 7e3c 1ec3 bbbc a5e8 46bd
00000210: 40a0 843c 0157 b83c e057 78bb 2eda bfbc
00000220: 1956 6ebc 3542 48bb 3106 36bd 92d4 373d
00000230: 4874 363d fcfd ffbc 50d3 163d 9482 a0bc
00000240: 10bb ef3c 90b4 7dbd 3fa9 753c 00f1 f73a
00000250: fd9d 4e3d 2ea5 22bd a0f9 a73c e5eb 3abd
00000260: 065a 413c 1cfc a0bc eeda 053d 956c dfbb
00000270: 2b20 bebc 1846 fd3c 46bc 63bd a822 4dbc
00000280: 87dc 213d 51f0 223d ed16 343c c4b1 213d
00000290: 00e6 ab3b 5082 2b3c 18e3 41bc 4c21 aebc
000002a0: c4ea b8bc df03 6c3c 14de 8a3c fffa 0bbd
000002b0: 400f 333b e0f7 6c3b eccf 18bd 0aca 15bd
000002c0: 7bfa 0abd 58b8 32bc 70c0 85bd 00a2 a939
000002d0: 154e 3a3d b854 05bc 8826 6ebd 00e8 e1ba
000002e0: f1c5 85bd c78d 22bd 74dc 5cbd 4a03 91bc
000002f0: a3b5 093d 086e 47bd be5c d43c 6a6e 47bd
00000300: 023c 2f3c af90 883c 621c 573d f944 a0bc
00000310: 8aeb 61bb 60b7 323b d800 d4ba 4f6d 8dbc
00000320: d8f3 c9bc 20ea 8fbb 1834 1dbc 8259 8abc
00000330: 6c8d b6ba 6bbc e83c 8e29 85bd a594 12bd
00000340: 1c5c f7bc e1cf f03c 9920 063d 3b20 bbbc
00000350: bc02 b53c b6ed 4d3d a807 f93c 0c6f e43c
00000360: c3b7 b2bb 58b1 ae3c 68e4 0d3d 0872 173d
00000370: 90d8 2b3b 0072 de3c 42fe 5e3d 067a 373d
00000380: e869 a13c dc1b d53c 2821 443c 651c a43c
00000390: fa86 66bd 1bea 6ebd e516 88bd 261d 59bd
000003a0: d0e5 1b3d 364b 3bbd ecb6 4bbd 1552 343d
000003b0: 581b 49bd 0768 cbbb 9854 7a3b 92f2 513d
000003c0: 8b55 87bd e879 2f3d 5c8d 963c 28df 4bbd
000003d0: 389e 87bd 36c4 503d 9b3e c1b9 5afc 4fbd
000003e0: 9a1b 11bd 02d2 febb e84b a43c c0fe 8abb
000003f0: 8037 a6bb 5886 c0bc bcf6 a43c e86f 003c
0.0049079284 -0.03922718 -0.029803663 -0.053594567 -0.009017142 0.010362975 0.050701406 0.05723936
0.034545742 0.05099796 -0.0018464327 -0.06768523 0.040223606 0.0475076 0.03601732 -0.016352922
0.0455554 -0.00105256 -0.0013362789 -0.036772978 -0.06162064 0.013965863 0.02190306 -0.025246222
-0.027617998 -0.068066165 -0.022308301 -0.020896949 -0.009280581 0.014554781 0.04780422 0.037676778
0.006569576 0.01830726 -0.02788948 -0.05384636 -0.061144166 -0.07301432 0.0421369 -0.024626262
-0.057307467 0.032314084 0.016012073 0.039360717 -0.056988135 -0.06042129 -0.05037297 -0.0370347
0.054080784 0.0007914752 0.018667117 -0.025319632 -0.023380645 -0.037588656 0.002552539 0.055828594
0.047463283 -0.048215732 0.050155114 -0.010883838 -0.016390301 -0.035957493 -0.032982536 0.026360005
-0.03669083 0.06008091 -0.042271756 0.03198658 0.010585107 0.044579607 -0.034246657 0.054929838
-0.054205075 -0.018281214 0.010698713 -0.06255784 0.059711643 -0.025459485 -0.07072704 -0.051698357
-0.060581528 -0.014246957 -0.025768762 -0.002022341 -0.05542043 0.029585607 0.022131277 0.02824542
-0.011893906 -0.06866796 -0.044838868 0.03729025 -0.04696417 -0.010179275 0.05183101 -0.03856239
-0.038406648 -0.044216145 0.03569861 0.045723714 0.0024538613 -0.03693495 -0.0042301416 -0.012347405
-0.05601518 0.03898193 0.024184257 0.027451951 -0.02695994 -0.04131799 0.014069738 -0.052457873
-0.022520978 0.040665098 -0.01483544 -0.039506465 -0.020988975 0.03868883 -0.036594033 -0.046960097
-0.03757444 -0.05782294 0.03634484 0.047047127 -0.052162357 0.03685623 0.03845401 -0.050171234
-0.0565726 0.015524529 -0.022920188 -0.04856171 0.016189694 0.022502424 -0.0037894174 -0.023419466
-0.0145468945 -0.003055704 -0.0444395 0.044880457 0.04454449 -0.031249039 0.036822617 -0.019593515
0.029264003 -0.061939776 0.014993965 0.0018916428 0.050443638 -0.03970831 0.020504773 -0.045635123
0.011801248 -0.019651465 0.03267949 -0.006818364 -0.023208698 0.030917212 -0.055599473 -0.01252047
0.039516952 0.039779965 0.010991794 0.03947617 0.005245924 0.010468081 -0.0118339285 -0.021256112
-0.022572882 0.01440522 0.016951598 -0.034174915 0.0027322322 0.0036158487 -0.037307665 -0.036569633
-0.033930283 -0.010908209 -0.06530845 0.0003235489 0.04548462 -0.008137874 -0.058142215 -0.0017235279
-0.06531895 -0.03968599 -0.053921178 -0.017701764 0.033620488 -0.04868892 0.02592313 -0.048689283
0.010695459 0.016670553 0.052517302 -0.019564139 -0.0034472668 0.0027269945 -0.0016174568 -0.017264036
-0.024652407 -0.0043919235 -0.00959494 -0.016888384 -0.0013927645 0.028410157 -0.065020666 -0.03578629
-0.030195288 0.029396 0.03274593 -0.022842517 0.02209603 0.050275527 0.030399159 0.027884983
-0.005454035 0.021324798 0.034641653 0.036973983 0.002622161 0.027153969 0.054441698 0.044794105
0.01970382 0.026014261 0.011970796 0.02003307 -0.056281067 -0.05832873 -0.06644992 -0.053006314
0.038060963 -0.045726024 -0.049734995 0.044023592 -0.049098343 -0.0062074694 0.0038197394 0.051256724
-0.06608113 0.04284087 0.018377952 -0.049773365 -0.06621975 0.05096837 -0.00036858473 -0.05077777
-0.035426714 -0.0077764997 0.020055726 -0.0042417943 -0.005072534 -0.02350156 0.020137183 0.0078391805

network.3.bias f4 [128]
00000000: 7656 26bd 593b 14bc b859 b5bd 9c83 59bd
00000010: d84a d1bc 9e80 bf3c 5c03 213d bfa7 08bd
00000020: c894 a8bd 3956 67bd ea53 8abc 857e 793d
00000030: 0a21 33bd 37c6 863d 17be 0dbd f383 fcbc
00000040: f00d 33bd 27bf b33c 4f3b 9c3d ced1 103d
00000050: 63cd 583d 7747 35bd 8f9d 2cbd 277a b33d
00000060: e17a 95bd 850e 83bc 0573 7fbc 9ad8 ab3d
00000070: 2643 093d 90f6 283d 12ce 72bd 82e0 26bd
00000080: 9550 bf3d c950 ec3d 400a 05bd edbf 033e
00000090: 5a49 4abd 3bb2 583d 2da6 89bc 044f 193e
000000a0: a806 9bbd 9bd8 58bc 0859 b1bd dcdd 5abd
000000b0: 885c 8abc 2c09 aebd fe55 cc3d d798 a9bd
000000c0: 5c3a bf3d f3bc d13d d8e6 d13c 203a 74bc
000000d0: a652 0abd 1c2f bc3a 396b 063c a46b a13c
000000e0: 179f 69bc 28c6 b13d cb71 83bd 88c0 29bd
000000f0: f49b 0d3d 20a2 cf3d 4f96 893c d0b2 f43d
00000100: dbc3 5f3d c62b bcba 7723 073d cab9 34bd
00000110: 294b a8bd 1679 833d 09d4 6bbd aea3 c5bc
00000120: b9e2 f6bb eedb 9c3c 6a2c 9dbd 4c84 bbbc
00000130: 6018 7b3c 006d 57bc 7f01 883c c4c8 2fbd
00000140: 1c55 8ebd 9c46 bcbd 7378 963c e43d cd3d
00000150: 6d80 aa3d 6868 6fbd ea80 a53d 816a 203e
00000160: 9226 333d 6e8e bc3d e678 143d 934a bf3d
00000170: 042d 47bb fc1f 803c 4e2b 47bd a706 dc3b
00000180: 35c1 97bc 62eb 9cbd cdcd b9bc a810 50bd
00000190: 0b78 163d a01d 1c3d 640f 513d b83b ffbd
000001a0: ea65 cd3d 45af a5bd 4962 88bd 0c83 413d
000001b0: 8e4f b93c 4709 32bd c3b8 b1bd 0c24 5e38
000001c0: 0de8 d83c dc99 e4bc 8024 533d 9b39 903b
000001d0: 38f7 0f3d 89eb 47bd 3d57 403d 7964 b73d
000001e0: 84e3 38bd 0b5d ff3d 6570 853d 6c40 c43d
000001f0: 57c8 073d 14a3 fd3d 3298 d63d 7ac9 113e
-0.0406098 -0.009047353 -0.08855003 -0.053104028 -0.025548384 0.02337676 0.039309844 -0.0333631
-0.08231503 -0.056478713 -0.016885716 0.060911674 -0.04373268 0.06580775 -0.034605112 -0.030824637
-0.043714464 0.021941734 0.076285 0.035356335 0.052930247 -0.044257607 -0.042142447 0.08763533
-0.07298828 -0.015998134 -0.015591388 0.08390923 0.033511303 0.041250765 -0.059278555 -0.04074145
0.09341542 0.11538846 -0.03248048 0.12866183 -0.04938636 0.05290435 -0.016802872 0.14971548
-0.07569629 -0.0132352365 -0.086595595 -0.053434238 -0.016889825 -0.08497843 0.09977339 -0.08281105
0.09337303 0.10241117 0.02562277 -0.014906436 -0.033770226 0.0014357301 0.008204275 0.019704647
-0.014259121 0.086803734 -0.06418189 -0.041443378 0.034572557 0.10138345 0.016795306 0.11948168
0.05463014 -0.0014356307 0.032992806 -0.044122495 -0.08217461 0.0641958 -0.05757526 -0.0241259
-0.0075343517 0.01914784 -0.07674487 -0.022890233 0.015325636 -0.013148546 0.016602276 -0.042916074
-0.06949827 -0.09193155 0.018367982 0.1002157 0.083252765 -0.05844918 0.08081229 0.15665628
0.043737955 0.09206854 0.03624811 0.09340396 -0.0030391822 0.015640251 -0.048625283 0.00671466
-0.018524745 -0.07662083 -0.022681141 -0.050797135 0.036735576 0.03811419 0.05104007 -0.12462562
0.10029204 -0.08090071 -0.066593714 0.047244117 0.022620942 -0.04346588 -0.086778186 5.2962496e-05
0.026477838 -0.027905397 0.05154848 0.0044013984 0.035147876 -0.04880861 0.046958197 0.089547105
-0.04513885 0.124689184 0.06515578 0.095826 0.033150043 0.1238462 0.10478248 0.14237013

network.6.weight f4 [64, 128]
00000000: 077d 90bd a0a1 aa3d 8e6f 6cbd 6ee1 8cbd
00000010: fd44 d3bc 24c4 8ebd 5c33 443e d970 d73d
00000020: 5385 9e3d f9f9 eb3d c59a 21bd 14b5 1a3e
00000030: 0e6c 1abd 3ae4 263d b9ce 21be 3ccb bbbd
00000040: 4c3e 92bd a8d1 c7bd dc7f 9d3d 5838 143d
00000050: 2325 c4ba cb25 98bc edd9 5fbd 587b 563d
00000060: 4318 993b 75e5 013d 6c1b c8bd 880c 2a3e
00000070: 0ebe a63d f2c9 dfbd 9f6d 9e3d 60fe 103d
00000080: 3fe7 453e ce0c 793d 9b59 fabd a4fc 433c
00000090: a6de 5cbc 5234 e0bd e0c7 7e3d b09f 72be
000000a0: 0bda 9fbc 8869 c4bd edb9 d8bd 125f 563d
000000b0: dd25 61bd e7d9 0bbd ba1a 55bd ff9e efbc
000000c0: 3007 d9bb a085 fb3d bf5b e5bd 3d71 2bbc
000000d0: 4558 2abe 2436 b6bd 6f12 7a3d 3053 20be
000000e0: 30bd 2bbe 4fcc f2bc 3a1c a5bc 3afd bb3d
000000f0: 430e 493e a38c 903b 92d5 06bd 7750 4ebd
00000100: 31af 73be 6078 973c e6fb e13d 0321 59bb
00000110: 662f 1dbd 4b2a 05be 5c75 ff37 9c51 1c3a
00000120: 3cdf 073d ab31 18be 76f2 00be dcd8 d43b
00000130: 2d70 75bd d20b 803d 7909 89bd 4395 76bd
00000140: 5c54 96bc 3693 aabd c2bd d73d cbe8 e8bd
00000150: f596 df3c 3c11 91bc 6341 ccbd fae5 023c
00000160: c879 afbc 95be 36be 5853 b93d 9723 4ebd
00000170: 7934 edbb 71bc c5bd 4e3b 51bd 02ec 963c
00000180: 43d4 183d 20d7 753d 3706 90bd c676 0cbe
00000190: c570 8a3d 0e56 bebc 7c19 433c 46db d2bd
000001a0: b2df 0d3e abe5 31bd 67f1 2abd 5ab4 b2bd
000001b0: 1ca7 0dbe ab67 e4bb 4bc4 2fbe 92a5 403d
000001c0: 146d 21be ce4d 8cbc 5668 8cbd a94b c63b
000001d0: 9f69 8bbc 55cf e13c 0a4f 523e e2c9 87be
000001e0: 9373 e43c 41b9 623d f973 0cbe 7f88 053e
000001f0: 0370 27bc 52ec c2bc a51e b63d 4d73 ed3d
00000200: 344f f73c 6ffc 92bc bdc4 4c3d 441f b2bd
00000210: f041 f93b ef91 bcbd 2190 ff3d c64b 033e
00000220: 9ae8 ef3d b192 1dbb 1eb2 0b3d a6b1 473e
00000230: f2a3 243e c74e 563e 6d88 bebd f5d1 c2bd
00000240: ebb9 223c d852 d6be 4854 203e 5135 e1bc
00000250: 3c8a 5dbb 2c40 223c 957d d83c 6e2a 3dbe
00000260: 9b60 323e 66bf bc3d 6031 90bd 4118 383e
00000270: 4fe0 00bd e19e 0abe 969a 873d 0f3e 30bd
00000280: dc98 ba3d 13f7 c9bd aef0 163d e257 06be
00000290: 0745 7f3d a033 f0bd 1420 703d d7c8 56be
000002a0: d0cb edbc f083 8ebd 42e6 e33d e1ec d5bc
000002b0: 2483 a6bc 76fc 4fbd a2d9 89be 820e 393e
000002c0: 9832 08be d5dc e13d 1b23 fb3c 3a2e 223d
000002d0: 9f5f 71be 3a91 acbc d90a f03d 7399 9fbc
000002e0: e5d1 49bd 6527 34be 247a 473e 3865 4f3e
000002f0: 320e 143e 7633 2d3d 68b2 a83d 72a4 76bd
00000300: d87f 3abe 89ab bcbc 97d5 a23b c865 8b3d
00000310: 0ab4 6f3e 9aeb c5bd a59e 66bc 55c4 653d
00000320: 3c07 773d 75e0 0abe 665c 80bb 78dc 11bb
00000330: 224f 53bd 810a 4dbd f517 f0bc ea5a 103d
00000340: 66a2 143b 4606 dc3d 3d46 a53d 7dbc 14be
00000350: 0f74 193e d284 47bd a3c1 383d a168 cebd
00000360: 09c0 8dbd b149 27be 36c5 593d 1aa2 c23c
00000370: d1e5 453d 38db e3bd bae0 4cbd 0aa7 073d
00000380: f749 0a3e c13a 543d 54e8 3abd 5e69 133d
00000390: 7b40 813d ccad 493c e0b8 153c 01a1 023e
000003a0: e6fd 8a3e 9fa1 2b3e a412 3e3c e5f4 dfbc
000003b0: 7526 3a3d e68a 5d3b 8c4c e83c f3de dbbc
000003c0: 5545 67be 396a 163d 7749 febc a07b 6c3d
000003d0: 99de 2f3d e406 88bd e661 483e 643f cabd
000003e0: 1ec9 34bd fecc 39be ac84 36bd ef97 b53d
000003f0: 9177 a7bd af65 623c 2a17 5dbe 7882 3c3e
-0.07055097 0.08331609 -0.057723574 -0.06878935 -0.025789732 -0.069710046 0.19160217 0.10519571
0.07740273 0.11522288 -0.03945424 0.15108138 -0.037700705 0.040744998 -0.15801515 -0.09169623
-0.071407884 -0.09756786 0.07690403 0.036186546 -0.0014964681 -0.018572709 -0.05465119 0.052363724
0.0046720817 0.031712968 -0.09770855 0.16606343 0.08141719 -0.1092719 0.07735752 0.03539884
0.19326495 0.060803227 -0.12224122 0.01196209 -0.013480818 -0.10947479 0.062202334 -0.23693728
-0.01951315 -0.09590441 -0.105823375 0.05233676 -0.05496775 -0.034143355 -0.05202744 -0.02925062
-0.0066231713 0.12281346 -0.1119914 -0.01046401 -0.16635235 -0.08897045 0.061052736 -0.15656734
-0.16771388 -0.029638438 -0.020155061 0.091791585 0.19634347 0.0044112965 -0.03291852 -0.050369706
-0.23797299 0.018490016 0.11034374 -0.0033131249 -0.03837528 -0.13004415 3.0453019e-05 0.00059630885
0.033171877 -0.14862697 -0.12592492 0.006495578 -0.059921432 0.062522545 -0.0669126 -0.06020094
-0.018350773 -0.083288595 0.1053424 -0.11372527 0.027293662 -0.017708413 -0.09973409 0.007989401
-0.021420375 -0.17846139 0.090491 -0.05032691 -0.0072389212 -0.09655083 -0.051081948 0.018423084
0.037311804 0.060019612 -0.070324354 -0.13717183 0.0675979 -0.023234393 0.011907931 -0.10295729
0.13854864 -0.04343192 -0.041734125 -0.087258056 -0.13833278 -0.006970366 -0.17164724 0.0470329
-0.15764266 -0.017126944 -0.06855838 0.0060515 -0.017018137 0.027564684 0.20537964 -0.26521212
0.027887141 0.055352453 -0.13716115 0.1304035 -0.010219577 -0.023794327 0.08892564 0.115942575
0.030189134 -0.017942635 0.04999231 -0.0869737 0.0076067373 -0.09207522 0.12478662 0.12821874
0.11714287 -0.0024043734 0.034105413 0.19501361 0.16078165 0.20928489 -0.09303365 -0.095127024
0.009932022 -0.4186008 0.15657151 -0.027491244 -0.0033804318 0.009902995 0.02642707 -0.18473217
0.17419665 0.09216194 -0.070406675 0.17978002 -0.031463917 -0.1353717 0.06621282 -0.043027934
0.09111187 -0.09861579 0.036850624 -0.13119462 0.06232169 -0.11728597 0.058624342 -0.20975052
-0.02902785 -0.06958759 0.111279026 -0.02611393 -0.020326205 -0.050777875 -0.26923853 0.1807194
-0.1330055 0.110284485 0.030656388 0.039594866 -0.23571633 -0.021065343 0.11720819 -0.01948235
-0.049272437 -0.17593153 0.19480187 0.20253456 0.1445854 0.042285405 0.08237153 -0.06021542
-0.18212831 -0.023031013 0.0049693095 0.068065226 0.23408523 -0.09664078 -0.01407591 0.05609544
0.060309634 -0.13562186 -0.0039172648 -0.0022256654 -0.05158914 -0.050058845 -0.029308299 0.035242952
0.0022679805 0.10743384 0.080700375 -0.14525028 0.14985679 -0.04871065 0.04510654 -0.1007855
-0.069213934 -0.16336705 0.05316659 0.023758937 0.048314873 -0.11125797 -0.050019003 0.033118285
0.13504778 0.051813845 -0.04563172 0.035989158 0.06311127 0.012309503 0.009138316 0.1275673
0.27146834 0.16760872 0.011601124 -0.027338454 0.04544683 0.0033804714 0.028356813 -0.026839709
-0.22585042 0.036722396 -0.03104089 0.057735085 0.042936895 -0.06641939 0.19568595 -0.09875372
-0.044137113 -0.18144605 -0.04456012 0.0886687 -0.08177102 0.013818189 -0.21590868 0.18409145

network.6.bias f4 [64]
00000000: d446 853d a676 b9bd 5073 113d 9a19 d9bc
00000010: 944c 373d ac3e c33d 7211 4b3d eaab 553c
00000020: 87ac 4fbb 6251 8f3c 81d5 e13d 0aee 563a
00000030: 24c6 21bc aba5 37bd 7f2f 963d 8674 2abd
00000040: 82b1 55bd 3bbe f43b 9fd9 023d 082b b2bd
00000050: f5e5 2abd 38dc f63c 0ebb d73d 3ef8 b7bd
00000060: 8e28 50bd 92bc 8b3d 2248 853d f81e 833d
00000070: 41c9 9fbd d602 a6bd 555b d73d 8383 ffbc
00000080: 2bc6 e03d a0d6 ad3d 9d0f 8b3c cb49 8fbd
00000090: 23a2 5bbd d841 7ebd 85de cdbd 154d 353d
000000a0: afe1 413c 1f87 133d 91c3 debd 867d 913d
000000b0: 7302 a1bb 1098 ddbd 6921 b13d 52ae 56bd
000000c0: 54ec 76bc ee9f e93c 59c8 bf3d 17e7 24bd
000000d0: 3d03 11bd 2a26 c73d 8ea2 823d 87bd 653d
000000e0: 664f 863d 9076 3c3d d9c4 c93c 83c7 d83d
000000f0: 69b2 f7bc 8e10 bc3c 30f5 00be 9b4a a4bc
0.0650765 -0.090558335 0.03551036 -0.026501466 0.044750765 0.09533438 0.049577184 0.013041476
-0.0031688528 0.017494861 0.11027051 0.0008198923 -0.009873901 -0.044835728 0.07333278 -0.04161503
-0.052171238 0.0074689663 0.03194582 -0.08699614 -0.04172321 0.030134305 0.10533725 -0.08982895
-0.050819926 0.06823076 0.06507899 0.06402391 -0.07802058 -0.0810601 0.10515467 -0.03119064
0.109752975 0.08488202 0.016975218 -0.06996497 -0.053621422 -0.062074512 -0.10052208 0.044262964
0.011833592 0.036017533 -0.10877145 0.0710402 -0.004913622 -0.10820019 0.086489506 -0.05241234
-0.015070993 0.028518643 0.09364385 -0.040259447 -0.03540348 0.09724076 0.06378661 0.05608895
0.06558113 0.046011508 0.024629997 0.10584929 -0.03023644 0.022957113 -0.12593532 -0.020055106

network.7.weight f4 [6, 64]
00000000: 91e2 193e 82c1 463d 1677 773e 44a1 933e
00000010: 7177 a43d 1f58 603e 3b5a ddbd 9b64 69be
00000020: 58cb a5bd cf61 8e3e 1c66 833d 1759 1ebe
00000030: cd06 4bbe 4f26 4ebe 0c9e 573e fbff bcbd
00000040: 4281 81be ddf0 803e c4aa 4d3d 9f39 83be
00000050: bd58 c53c e7df ba3e a9c0 8b3e 1341 60be
00000060: 58e6 083e ceea 8b3e 7e42 9b3e 6cbc b7bd
00000070: 3c45 d33d aeaf 8bbe 6b67 3f3d 2987 5b3e
00000080: ec24 5b3e 5f70 873e 1ee0 4f3e 3eb5 2bbe
00000090: 14ac 1b3e 81e8 c0bd 646d 25bd 88e9 a0bd
000000a0: e833 3fbd 775e afbd aa24 e6bd 71ff 163e
000000b0: 554d 04bd a5ce 17be ede0 333e 1ffc 913e
000000c0: 4048 86be 9918 883e 0833 09be 374a f53d
000000d0: 1a69 75be af95 89bd b1e4 1a3e 1ad9 9bbd
000000e0: c807 11bd df28 8a3e 5a6f 163e 6bac b63d
000000f0: 8b1e 93be 8277 fe3d 20dd 82bc 4111 73be
00000100: 72bd 693e 56dc 3e3d 4231 cebc 088b 5c3e
00000110: d7f6 b4bd d2e1 d1be 11b0 dabe cf41 fcbc
00000120: 4419 cabe 3472 1cbd de63 ae3d d2a1 903c
00000130: b1c6 7e3e 235c 2abe e2f0 afbd 1a3d ab3e
00000140: cca6 16be 7e80 49bd bd1a e33c dc16 43be
00000150: 2e5a 163e 6166 273e a3ea 423e dcec c63d
00000160: 26ea cfbd bf5c 853e 8ce8 29be 39a9 b2bd
00000170: df92 813e c5a0 11be e9fa 813c 7e7d 9d3e
00000180: b48c dabd f380 d13c 613b a13e db48 71be
00000190: ed69 113e de2b b23e feea 8b3e 7cd6 41be
000001a0: d24f 703e e4ea 3e3d 183d 983e eba3 343e
000001b0: ee19 813c 289e d83d 4a92 ca3d c148 5a3e
000001c0: dedc 433d da7a 9b3e 48c3 65be 35dd 8f3e
000001d0: 3685 e8bd 94fa 7abe d1e8 3ebe 65c2 f3bd
000001e0: 540a 8dbd 5159 e3bd 3173 f8bd 53a2 fabd
000001f0: 7cf6 073e cd61 47be 7a0e 313e 5822 6ebe
00000200: 781f 593e 5591 813e 6afd cbbd a21d eebc
00000210: 4e25 36bd 49ca 493e ddd6 ba3d 675c 873e
00000220: 5785 833d 687f 49be d519 2dbe 3726 0b3e
00000230: 2c75 b63d 3ba8 c1bd fbe5 75be 6b94 9ebe
00000240: 656a 973d c7c9 04be 2639 9e3e 74de e43d
00000250: 54dd 34be be74 5fbd 0a17 a7bc fe6a 273e
00000260: 5eb8 9fbe 18c3 d9bd 1f07 9abd c369 55be
00000270: 1106 35be d10c ecbd c893 e7bd a346 7fbe
00000280: 8a1d 133d 4d20 c1bd f10f 0ebe 3798 99be
00000290: 0e2c e63c 9720 0bbe 5a0a 02be 34c7 65be
000002a0: 7f2a af3d 4819 ff3d 6be6 723d 9f4c 3bbe
000002b0: fe93 c13d 6868 db3d 250b eebd 54fd 90bd
000002c0: ccd3 75be 248c 073d ad84 ccbd 2a35 07be
000002d0: 1f64 78bd c1de 40be 2c41 473d 098f 3a3e
000002e0: 3745 4fbe 119c 5ebc e2fd 9cbd 708c 27be
000002f0: f6c6 3abe 5b8a 87bd 8d93 35bd ef69 d13d
00000300: ae84 6ebe c50d f1bc e502 80bd df2e 06be
00000310: bf42 f7bb ca93 1cbe 6cb4 f83b 6940 37be
00000320: a409 9b3d c3b3 a2bd d29e 93bd 640f 243e
00000330: 1c3d 153e 12cd 5e3e 01fe 10be 95ed 483e
00000340: bf0a 4c3e 4ce5 13bd f1be 1fbe 3673 05bb
00000350: e026 7cbd b369 3dbe 2628 99bd e95d fa3d
00000360: b94d 523e 41e5 26be a5db 5ebe 0dd9 5e3e
00000370: ddad 07be c6ac 7e3e 2383 60be 7aae 0c3e
00000380: 5f81 d5bd e307 63be 98c0 963d a66d 233e
00000390: 64bb 52be f946 0a3e 4dcd 2a3d 078e d93c
000003a0: b285 1ebe 7723 433e bbd8 2e3e d8b3 1dbe
000003b0: 184a d73d 6783 18be f880 c3bd 0ba3 7abe
000003c0: 576f 3a3e 17f6 aabd 70fd 9abb 457f 63be
000003d0: 8e18 b43d 0f18 abbc b30d 1dbe 3bca e13d
000003e0: 9a9a 98bd e482 65bd 2524 b4bd 8e65 133e
000003f0: 977a b73d d3a1 6fbc cfeb a63d d792 653d
0.15027834 0.048524387 0.24166521 0.28833973 0.08030594 0.21908616 -0.10808226 -0.22792284
-0.08095425 0.27808997 0.0641596 -0.15463673 -0.19826813 -0.20131801 0.21056384 -0.09228512
-0.25293928 0.25183764 0.050211683 -0.256299 0.024090165 0.3649895 0.27295426 -0.21899824
0.13369119 0.2732758 0.30324167 -0.089714855 0.1031594 -0.2728247 0.046729486 0.21438278
0.21400803 0.2645292 0.20300338 -0.16768357 0.15202361 -0.094193466 -0.040387526 -0.078570426
-0.04668036 -0.085629396 -0.11237462 0.1474588 -0.032300312 -0.14824922 0.17566271 0.28512666
-0.26226997 0.26581267 -0.13398373 0.11977046 -0.23965874 -0.06718003 0.15126301 -0.07609768
-0.03540781 0.26984307 0.14690915 0.08919605 -0.2873424 0.12425138 -0.015974581 -0.2373705
0.22826174 0.046596847 -0.025169972 0.21537411 -0.088361435 -0.409926 -0.42712453 -0.030793099
-0.394724 -0.03819485 0.08515142 0.017655287 0.24880482 -0.1663671 -0.085908666 0.33445054
-0.14712065 -0.049194805 0.02772271 -0.19051689 0.14682838 0.16347648 0.1903482 0.09713146
-0.10152082 0.26047322 -0.16592616 -0.08723683 0.25307366 -0.14221485 0.015866714 0.30759805
-0.10671368 0.025574183 0.31490615 -0.23562948 0.14200564 0.34799093 0.27327722 -0.18929476
0.23467949 0.046610728 0.2973411 0.17640655 0.015759435 0.10577041 0.09891184 0.21316816
0.047818057 0.30367166 -0.22437775 0.28098455 -0.11353533 -0.2450965 -0.186435 -0.11902312
-0.068867356 -0.1110102 -0.12131346 -0.12237992 0.1327762 -0.19470902 0.17290679 -0.23255289
0.2120341 0.25306192 -0.09960444 -0.029066864 -0.04446917 0.19706072 0.09123013 0.26437685
0.06421917 -0.19677508 -0.16904385 0.13588797 0.089090675 -0.094559155 -0.24013512 -0.3097261
0.0739334 -0.12967597 0.30902976 0.11175242 -0.17662555 -0.054554693 -0.020396728 0.16349408
-0.31195349 -0.10632914 -0.075208895 -0.20841126 -0.17678095 -0.11525882 -0.11307484 -0.2492929
0.035916843 -0.09429989 -0.13873269 -0.29998943 0.028097179 -0.13586651 -0.12699261 -0.22439271
0.08553027 0.12455994 0.059301775 -0.18290947 0.094520554 0.10713273 -0.116232194 -0.070795685
-0.24006575 0.033092633 -0.099862434 -0.13203874 -0.060642358 -0.18834974 0.048646137 0.18218626
-0.20241247 -0.013587014 -0.07665612 -0.16362166 -0.1823996 -0.06618186 -0.04433017 0.10225283
-0.23292801 -0.029425511 -0.06250552 -0.13103817 -0.0075457986 -0.15290752 0.0075898673 -0.17895664
0.07570198 -0.07944443 -0.07208027 0.16021496 0.14574093 0.21757916 -0.14159395 0.1962188
0.19925974 -0.036107346 -0.15600182 -0.002036286 -0.06156051 -0.18497352 -0.07478361 0.12224943
0.20537461 -0.16298391 -0.21763475 0.21762486 -0.13249917 0.24870595 -0.21925025 0.13738433
-0.10425066 -0.22170977 0.07360953 0.15959796 -0.20579296 0.13503636 0.041699696 0.026556982
-0.15480688 0.19056498 0.17074864 -0.15400636 0.10512179 -0.14893876 -0.09546083 -0.24476258
0.18206535 -0.08347719 -0.004729919 -0.22216518 0.08793746 -0.020885495 -0.15337257 0.110249005
-0.07451363 -0.05603303 -0.087959565 0.14394209 0.08958929 -0.014625984 0.08150446 0.05604824

network.7.bias f4 [6]
00000000: 1151 b83d e30c 19be 93ab 7cbd 13d0 99bd
00000010: 318b 33bd 49dd 843d
0.08999837 -0.14946322 -0.061687063 -0.0751039 -0.043833915 0.06487519
