gesture_recognition/training/models/hand_gesture_model_20250703_003708.pth (torch, 78852 bytes, 8 tensors)

network.0.weight f4 [128, 63]
000000 f8 7c d0 bb 87 98 89 bd fb 40 e5 3e 02 38 01 be
       -0.0063625537 -0.067185454 0.4477614 -0.12619022
000010 ab ff 39 3c a1 3c a1 be 92 33 d2 bd 1a 8b 54 3c
       0.01135246 -0.3149157 -0.102637425 0.0129726175
000020 0b 57 e9 bd 48 7e 3f 3d 63 68 5c bd a5 d7 18 be
       -0.11393555 0.04675129 -0.05381049 -0.14926012
000030 22 70 02 bd 8e fa 14 be 34 c7 23 bd 1f 27 75 3b
       -0.03184522 -0.14548704 -0.039984897 0.0037407351
000040 60 b4 0c be 28 0e 80 be 89 00 b5 bd f9 71 03 be
       -0.13740683 -0.250108 -0.08837993 -0.12836446
000050 59 ba 58 3d 93 bb 67 3d e8 cb 8b be 6a 65 09 bc
       0.05291209 0.05657537 -0.27304006 -0.008385995
000060 d2 ec 0e 3a 27 43 b7 be a4 33 9c 3d 18 15 de 3d
       0.0005452159 -0.3579342 0.07627037 0.10843867
000070 0b 8e b2 bd b1 cf 8f be 5c f3 99 3d e9 c4 de bd
       -0.08718499 -0.28088143 0.0751712 -0.108774014
000080 15 e4 4f be 07 03 93 3d b7 7f 0d be f9 e6 b3 bd
       -0.2030185 0.07178312 -0.1381825 -0.08784289
000090 ee 59 db bc 96 1e 40 be 1f 8c 96 bd 8c 60 9e 3c
       -0.02677628 -0.18761668 -0.07350945 0.019333147
0000a0 38 e4 a8 bd 1d 22 60 bd 24 a7 45 bd 01 de af bd
       -0.08246654 -0.054720033 -0.0482551 -0.08587266
0000b0 62 b6 16 be 00 a1 27 3d e0 34 b4 3d e6 2b 45 3c
       -0.14718011 0.040925026 0.087991476 0.012034392
0000c0 df d1 f1 3d f9 d4 8b 3e 11 01 2a 3d 7b 16 ed 3d
       0.11807608 0.27310923 0.041504923 0.115765534
0000d0 50 78 73 3d e8 b3 56 bd 0e 56 f7 3d a3 ce fd 3c
       0.05944091 -0.052417666 0.120769605 0.030982321
0000e0 e4 5f 75 3d 1c 82 70 3d 08 24 0c 3d 94 bf a0 bd
       0.0599059 0.058717832 0.03421405 -0.07849041
0000f0 d2 48 39 3e 9b d1 ba 3d ae 09 0c 3e 8b 2f e7 bd
       0.18094185 0.0912201 0.13675568 -0.11288365
000100 f7 bc 81 bd d8 fa e0 3d bf 6c b5 bd 84 5c 0a 3d
       -0.0633487 0.10985345 -0.08858632 0.033779636
000110 7c 57 4b 3d 70 d8 92 bd 18 8c ae bd e0 65 7c 3d
       0.04964398 -0.071701884 -0.085228145 0.061620593
000120 ce 48 74 bd 9a e0 c8 3d 86 fe d8 bd e4 7c e9 3d
       -0.059639744 0.09808464 -0.105954215 0.11400774
000130 98 ef 89 3d 5c c3 90 bd 26 21 e4 bd ac 60 9e 3d
       0.06735152 -0.07068512 -0.11139135 0.077332824
000140 ba 00 13 bd 76 14 d2 bd 54 f6 1a 3d 4e 5a 97 bd
       -0.035889365 -0.10257809 0.037832573 -0.07390271
000150 4c bf 7c bd 78 61 5a bc e8 83 e2 bd 38 37 38 3d
       -0.061705872 -0.013328902 -0.11060315 0.044974536
000160 64 c9 9e bd 00 ae 4c 3b 06 81 fa 3d 06 a9 c4 3d
       -0.07753256 0.0031231642 0.122316405 0.09602551
000170 40 57 b8 bc 2e c9 b9 bd 04 2a e5 bd 66 0f f4 3d
       -0.022502542 -0.09071575 -0.111896545 0.119169995
000180 80 6d c1 bb 86 68 8a 3d da 39 4f bd 96 f4 e1 bd
       -0.005902946 0.067582175 -0.05059228 -0.11032979
000190 c0 15 79 3d 60 ef de 3d 18 30 d7 3d ec 72 d5 bc
       0.060811758 0.10885501 0.1050722 -0.026055776
0001a0 70 47 a7 3c 20 1c 6a bd 86 8d d3 3d 2a e6 e7 3d
       0.020419806 -0.05715573 0.10329728 0.11323197
0001b0 30 aa ab bd 06 5d fa bd a8 7f e3 bc 10 bb 51 3c
       -0.0838207 -0.12224774 -0.027770832 0.012800947
0001c0 14 c8 80 bc f8 5b d7 3d a0 b4 10 bd 78 c7 48 bd
       -0.015720405 0.105155885 -0.035328507 -0.049018353
0001d0 88 60 86 3d 90 5b 41 3c 6c e4 91 3d 74 8b f4 bd
       0.065613806 0.011801615 0.07123646 -0.11940661
0001e0 8d d8 81 bd 03 95 ec bd b0 57 01 bd 20 64 a7 bb
       -0.06340132 -0.11551859 -0.031577766 -0.0051083714
0001f0 ac 89 a3 bc 50 13 14 bd 76 5b 04 bd c6 83 e3 3d
       -0.019963108 -0.03615123 -0.032313786 0.11109118
000200 80 6d f9 3c da 5f f2 3d 64 59 a4 bd a8 74 38 3d
       0.030447721 0.118346885 -0.080248624 0.045033127
000210 58 2e b3 bd 48 5b cf 3c 80 f5 bd ba 38 ae 62 3d
       -0.08749074 0.025312081 -0.001449272 0.05534193
000220 c8 25 fc bd 40 1c af bc c3 0b dc bd c0 5f 1f 3d
       -0.12311894 -0.021375775 -0.10744431 0.038909674
000230 6c 36 1c 3d 18 91 a9 3c 00 af 31 3c 90 98 ba bb
       0.03813784 0.020699069 0.010844946 -0.0056944564
000240 c0 bd c5 3d f8 b3 91 bd d6 f9 a3 bd 10 1d a8 bb
       0.096553326 -0.071144044 -0.08006637 -0.0051304176
000250 a2 17 c2 bd 0c ce 9d bc bc 22 c6 bc fa 4b f2 3d
       -0.09477164 -0.01926329 -0.024186485 0.11830898
000260 60 9a 92 3c d1 0b c8 bd 5e cd d2 3d 67 5b e7 bd
       0.017895877 -0.09767879 0.10293077 -0.112967305
000270 d8 b8 3f 3d 9e 93 26 bd d0 9b b2 bd 80 f8 6d 3d
       0.04680714 -0.040668122 -0.08721125 0.058098316
000280 5c 0b bd bc bc 30 ac bd 26 b6 a2 bd 3c 69 07 3d
       -0.023076706 -0.08407733 -0.07944898 0.033059344
000290 24 79 1e 3d 54 02 87 bd 2c d0 fd bd 06 98 41 bd
       0.038689747 -0.06592241 -0.12393221 -0.04726412
0002a0 7e 0f 48 bd 20 46 a9 3c b8 6d e7 bd e2 c8 7b bd
       -0.0488429 0.020663321 -0.11300224 -0.061470874
0002b0 b0 bb 4e bd 8b 86 b4 bd b0 a8 1c bc 9c 55 90 3d
       -0.05047196 -0.088147245 -0.009561703 0.07047579
0002c0 78 af ca bc 4c 5c 7e 3d e6 10 f0 bd b4 d5 66 bd
       -0.024741873 0.06209974 -0.11721973 -0.056356147
0002d0 7a f9 04 bd 00 cd 8f 3b 2d 81 ef bd 00 5e a0 3c
       -0.032464482 0.0043884516 -0.1169456 0.019576073
0002e0 72 50 ad 3d 36 2c af 3d fe 7b 97 3d d4 0e dc 3d
       0.08462609 0.085533544 0.073966965 0.10745016
0002f0 0c 41 3c 3d 40 04 a9 3b 00 9d 60 bb 84 8f f2 3d
       0.04596047 0.0051579773 -0.0034273267 0.1184378
000300 20 85 07 3d d0 ee 44 3d 04 3e 09 3d 88 25 c8 3c
       0.033085942 0.04807931 0.03350641 0.024431959
000310 59 94 da bd 7a f8 8a 3d 27 9f e2 bd 66 29 98 bd
       -0.10672826 0.067856744 -0.11065512 -0.07429771
000320 8e 1b b5 bd 20 07 67 bb 5e 29 d2 bd 60 5b 75 bb
       -0.08843146 -0.003525205 -0.102617964 -0.0037438497
000330 83 30 ff bd c0 08 7f 3d 44 6d 48 3d d0 f7 6d bc
       -0.12460425 0.062264204 0.04893233 -0.014524415
000340 48 18 be 3c 96 1d f5 3d d0 69 27 3d c0 11 6f bb
       0.023204938 0.11968534 0.040872395 -0.0036479086
000350 c9 56 af bd 08 3c 74 bc 4e 7a 90 3d 36 56 8b 3d
       -0.08561475 -0.014906891 0.07054578 0.06803553
000360 7e 91 e1 bd cc 54 f1 bd ba cf d1 3d f6 5b ff bd
       -0.110140786 -0.11783752 0.10244699 -0.12468712
000370 e6 e3 91 bd 48 0c 7e bd c2 34 a8 bd a8 bb 60 bd
       -0.07123546 -0.06202343 -0.08213188 -0.054866463
000380 30 db d9 3c 08 2b 6f bc e2 ed 19 bd a8 0d bb 3c
       0.026593775 -0.014597662 -0.03758038 0.02283366
000390 94 a7 86 3d 55 2d 8a bd 08 7e ef 3d 80 e0 9d 3d
       0.06574932 -0.06746928 0.116939604 0.077088356
0003a0 00 19 36 3d 82 0b 64 bd 0c 62 b4 bd 9a 02 ac 3d
       0.044457436 -0.055675037 -0.088077635 0.08398934
0003b0 53 9d d5 bd 26 12 82 bd 54 dc e4 3d e8 67 d8 3d
       -0.10430398 -0.06351118 0.11174837 0.105666935
0003c0 40 55 e7 3c 24 d4 85 bd c6 14 3f bd 60 fa a1 3d
       0.028238893 -0.06534603 -0.04665067 0.07909083
0003d0 34 cb fc 3d bc ff b1 3d 00 b0 9c 3c 7c 97 17 3d
       0.123434454 0.086913556 0.019126892 0.0370097
0003e0 80 ad b0 3d aa b0 7c bd ba cf 87 3d 7f 97 bf bd
       0.086268425 -0.061691917 0.066314176 -0.093550675
0003f0 2c 65 ec 3c 30 eb 28 bd d1 fc 49 bd 8f 26 5b 3c
       0.028856836 -0.041239917 -0.04931337 0.013375892

network.0.bias f4 [128]
000000 ec 4f 83 3e 5e 39 8f bd b8 a8 de bd f0 d1 23 bc
       0.25646913 -0.06993364 -0.10872024 -0.0099987835
000010 e5 79 a9 3d 9e 49 b6 bb 53 54 f3 bd c9 48 80 3d
       0.08275203 -0.005562975 -0.11881318 0.06263883
000020 a7 64 ff bd df bd a5 3d b6 02 71 3d 16 4c 60 3c
       -0.1247037 0.08092856 0.058840476 0.013690015
000030 41 df ad bd 92 3a e3 3d fc 24 7c 3d 64 cb 7d 3d
       -0.08489848 0.11095156 0.06155871 0.061961547
000040 44 6c 16 3d ba c4 9a bc 74 84 e4 3d 28 e6 9e be
       0.036724344 -0.018892635 0.11158076 -0.3103497
000050 8c 19 d4 3d c0 be 08 3e 2c b9 09 bc fd 41 fd bd
       0.10356435 0.13354015 -0.008405965 -0.12366102
000060 51 4a 63 bd 99 08 54 bd da c2 71 bd 99 79 30 3e
       -0.055490796 -0.051766012 -0.059023716 0.17233886
000070 22 07 b0 3d 29 9e 51 be 46 14 0c 3e 5a 74 ae 3c
       0.085951105 -0.2047049 0.13679609 0.021295715
000080 3f 78 f7 3d cf be 23 3d 21 33 e2 bd 61 6f 07 3e
       0.12083482 0.03997689 -0.11044908 0.13226081
000090 d8 3c c4 3c a8 f7 a3 bd 9c c3 39 3d 50 25 2a 3d
       0.023954794 -0.08006221 0.045352563 0.04153949
0000a0 51 f4 97 3b 94 58 06 3e 1d 53 8f bd 24 fb 3c bd
       0.004637279 0.13119727 -0.069982745 -0.046137944
0000b0 43 c0 8c be d0 69 c8 3c 84 46 28 bd 92 39 30 3e
       -0.27490434 0.024464518 -0.041082874 0.17209461
0000c0 00 a2 0e 3d 38 78 8c 3d 75 7f 0f be 7e 47 0a bc
       0.034822464 0.068588674 -0.14013465 -0.008439897
0000d0 20 ad 1d bd fe e6 68 3d 77 08 3e bd d8 ed 2f bb
       -0.038495183 0.056860916 -0.04639479 -0.0026844647
0000e0 57 68 2b bc b6 68 91 3e f8 39 f5 bd ee 75 c7 3d
       -0.010461888 0.284002 -0.11973947 0.0973929
0000f0 82 a5 c4 3d c4 aa 3d bc 37 8e af bc 04 af 46 3d
       0.096018806 -0.011576358 -0.021430118 0.04850675
000100 b8 38 ff bb 90 36 5d 3d 3d c7 cd bd 66 9d 8e 3c
       -0.007788744 0.054007113 -0.10047767 0.017409038
000110 01 4c a0 bd c6 82 ce 3d 0e 91 ad 3d c8 b4 ba bc
       -0.078269966 0.10083537 0.084749326 -0.022791281
000120 a8 ce 97 3d c8 da 48 3d 75 bd 09 3d 05 83 99 be
       0.074124634 0.04903677 0.033627946 -0.29982772
000130 6c 33 e9 3d 94 d8 d3 bc 27 38 5e be 02 d4 3a 3d
       0.11386761 -0.025860108 -0.21701108 0.045612343
000140 0c b4 ad 3d c8 2f b2 bc ba 5b a3 bd bc 72 72 3e
       0.08481607 -0.0217513 -0.0797648 0.2367658
000150 81 40 99 be 67 72 96 bc 7b 95 f4 bd 1b 28 85 bd
       -0.29932025 -0.018365098 -0.11942574 -0.0650179
000160 6d 71 87 3e 23 9e a5 bd ab dc 14 3e f2 fd a0 bc
       0.26453725 -0.08086803 0.14537303 -0.01965234
000170 b7 25 a9 bc 04 b8 aa 3d e1 4d 63 be 90 8c e2 3c
       -0.020647867 0.083358794 -0.22197677 0.027654916
000180 dc 14 93 bd 60 72 35 3d be 14 fa 3d c0 1b 18 3b
       -0.07181713 0.04429853 0.122109875 0.00232099
000190 20 9e ed 3d 92 fd 4f be 3b b1 dd 3d f1 3c 9b be
       0.116024256 -0.20311573 0.1082482 -0.30319932
0001a0 8c 89 eb 3d 31 9c fd bd f0 25 b4 3d 6b 13 57 be
       0.11500844 -0.12383307 0.087962985 -0.21003501
0001b0 6b 9b 5e bd 20 74 79 3c a2 31 03 bd f4 92 de bd
       -0.054347437 0.01522544 -0.032029755 -0.10867873
0001c0 ae 97 b5 bd 88 23 b8 bd eb 07 ff 3d f3 d8 bf bd
       -0.08866821 -0.08991152 0.12452682 -0.09367552
0001d0 1f 72 04 be b6 e6 44 bd f0 2f d5 bd 42 67 05 bc
       -0.12934159 -0.048071586 -0.10409534 -0.008142294
0001e0 8b d4 c0 bd 74 2c 74 3e 4f df f5 bd dc 08 ff bd
       -0.09415539 0.23845083 -0.12005483 -0.12452862
0001f0 41 3f da bc 22 b5 50 bd a6 ed e3 bd 40 84 5a bb
       -0.02664149 -0.05095399 -0.11129312 -0.0033342987

network.3.weight f4 [64, 128]
000000 df 63 b5 3e 00 85 60 bc 01 e0 a7 bd e0 0d ad bd
       0.35427758 -0.013703585 -0.08197022 -0.08449912
000010 91 27 a3 3d 4f 73 6c be 46 34 ec bb 9a 6c 58 bd
       0.07966531 -0.23090862 -0.00720838 -0.052837946
000020 00 85 99 bd 33 2b c3 3d b4 f5 de 3c 42 11 6c be
       -0.07496071 0.09529724 0.02721677 -0.23053458
000030 1b 55 8e 3d 5e 13 43 3e 4d 1b 35 bd e8 76 ce 3c
       0.06949826 0.19050357 -0.04421549 0.025203183
000040 80 6d 2d 3e 64 79 29 be c1 49 8a 3d 91 aa 81 bd
       0.16936302 -0.16550213 0.06752349 -0.06331361
000050 d6 db 1e 3d ac fd df 3e 53 e1 69 bd db 88 e0 bd
       0.03878387 0.43748224 -0.05709965 -0.10963603
000060 4c 05 a5 3d 50 80 33 3d 90 70 df bd 42 d1 eb 3d
       0.08057651 0.04382354 -0.109101415 0.11514522
000070 b7 60 0e bd f1 a8 c5 3d b9 c7 42 3d 95 a1 18 bd
       -0.034760203 0.09651364 0.04755375 -0.03726347
000080 40 d7 11 3c ca db 3a 3e 8c cd 0b bd f8 6d ce 3d
       0.008901417 0.18247905 -0.03413157 0.100795686
000090 6e d0 71 3d c0 7a 15 3c 0b ef 29 3b 58 09 d7 3d
       0.059036665 0.009123504 0.0025929834 0.10499829
0000a0 b0 ca e2 bd 1d 87 ea 3d 6d ed ab 3d f2 c7 58 3d
       -0.11073816 0.11451552 0.08394895 0.052925058
0000b0 1b 9c a0 bc a8 23 8c bd 91 4f 4f bd 7f de 7b 3e
       -0.019605687 -0.068427384 -0.05061299 0.24596594
0000c0 cc 1e ad bc 41 a8 9c 3d be 0c ae bd 68 be 02 be
       -0.02113285 0.076492794 -0.08498524 -0.12767947
0000d0 fc 70 f0 3c d7 07 aa bd fa 68 b1 bd 4d e0 0f 3e
       0.02935075 -0.083022766 -0.08662601 0.14050408
0000e0 3e 22 4c 3d 86 f8 59 3e 78 7d ca 3c e9 54 20 bc
       0.049837343 0.2128621 0.024718031 -0.009785869
0000f0 fe 12 cf 3e 62 66 c3 bc 88 50 ea 3c 2c 08 ba 3c
       0.40444177 -0.02385253 0.028602853 0.022708975
000100 77 98 95 3d 4c b5 3b bd c8 2b 31 bc eb c5 b8 3d
       0.07304471 -0.045827195 -0.010813661 0.09022125
000110 37 58 03 3e 51 37 19 be 48 54 5a bd 72 09 45 3d
       0.1282662 -0.14962508 -0.053303033 0.04810471
000120 c2 7b 82 3e 4a 10 02 3d 41 e9 89 3d 26 ef 1a be
       0.25485045 0.031753816 0.06733943 -0.1513029
000130 0b a0 88 bd 7f 11 90 3d 1d 59 02 3d 03 9d f6 3d
       -0.06671151 0.07034587 0.031823266 0.12041666
000140 68 aa ac bd ef c8 22 be c7 a8 a0 3d cb cf db 3e
       -0.0843094 -0.15896963 0.07844692 0.4293197
000150 b8 b4 1f be 40 de 71 bc be 7f 13 bd 1b 0b 95 3d
       -0.15596282 -0.014762461 -0.036010496 0.07277509
000160 f9 ec 5b 3e b7 d4 83 bd 67 d8 9e 3e 89 c6 0b be
       0.21477117 -0.064370565 0.31024477 -0.13649954
000170 ff b8 9e 3d e6 0d 87 3c b1 fb 9c 3d a4 c2 b6 bc
       0.07750129 0.01648612 0.07665194 -0.022309609
000180 30 2f 13 bc 89 e6 2d bd 7a 43 3a 3d 5a 35 6f 3d
       -0.008983418 -0.042456184 0.045474507 0.05840049
000190 a0 8b 6a bb c8 b4 d8 3d bd 74 69 3d 21 25 22 3d
       -0.003578879 0.10581356 0.056996096 0.03958619
0001a0 46 4e 5d 3d 4b 03 8a 3d 6f 8f 85 bb d1 a2 5b 3c
       0.054029725 0.06738909 -0.0040759365 0.013405518
0001b0 dc 3d 68 3e 7e 43 0d 3e 50 25 ed bc d9 27 27 bd
       0.22679847 0.13795277 -0.028948456 -0.040809486
0001c0 3f e3 3c be a6 4f 11 3d 6e fd 74 3d 36 54 76 3d
       -0.18446063 0.03547635 0.059812002 0.060138904
0001d0 22 31 e0 3c 83 89 8b bd b8 a4 98 bd 85 6f b9 bc
       0.027367178 -0.06813338 -0.074532926 -0.022636184
0001e0 04 32 9d bd d6 43 93 3e bc e7 d2 bd 7c b4 72 be
       -0.07675555 0.28762692 -0.10298106 -0.23701662
0001f0 c5 fc a9 3d 1f 40 99 3d c2 1f 04 bd e0 ab 8d 3b
       0.08300165 0.07482933 -0.03225685 0.0043234676
000200 55 2e bf bd 00 4c e1 bc 7c a3 9f bc 83 2b 52 bd
       -0.09335009 -0.02750206 -0.019487135 -0.051311027
000210 21 1b 83 3d 85 2d 4e 3e 16 34 ea 3d 79 bf 3a bc
       0.06401659 0.20134552 0.11435716 -0.01139819
000220 88 d6 6e bd 93 a2 13 3d f8 4b 8b bd c6 2b fe 3d
       -0.05831006 0.036043715 -0.06801599 0.12410693
000230 00 0b e4 bb 7b 0f 3a be e4 a0 af bd 3d 15 94 bd
       -0.006959319 -0.18169968 -0.08575609 -0.072306134
000240 56 15 fc 3d 68 73 ae 3c 35 75 56 bd f6 27 64 3e
       0.12308757 0.021295264 -0.05235787 0.22280869
000250 6c cd 01 3d 03 07 4d bc 4d 9e 41 3e bc 35 28 3e
       0.031690046 -0.012513879 0.18908043 0.16426748
000260 06 2c d4 bb 01 d8 8a 3e 49 05 0b 3e 4f cf 83 be
       -0.0064749746 0.27117923 0.13576235 -0.257441
000270 86 ad 98 bd 7a eb 19 3e ca 28 51 bd d7 33 51 bd
       -0.07454972 0.15031233 -0.05106429 -0.05107483
000280 c2 05 20 bd d2 c0 7d 3b 61 c0 42 3d bd 0b 78 bd
       -0.03906799 0.0038719666 0.047546748 -0.06055807
000290 94 e8 96 bd db f7 ac 3d 6f ae 31 3e 58 ed 12 3e
       -0.073685795 0.08445712 0.17351697 0.14348352
0002a0 b0 2f d1 3d b3 08 d2 3d 30 34 37 bc 7c 3d a7 3c
       0.10214174 0.102555655 -0.011181876 0.02041506
0002b0 8b fe 66 3e 67 4d 7d bd da 92 27 3d 46 39 01 be
       0.22558038 -0.061841395 0.040911533 -0.12619504
0002c0 94 28 bc bc 6a 3e c8 3d 8e 52 ac 3d 31 59 f9 3d
       -0.022968568 0.097775295 0.084141836 0.12175215
0002d0 d5 f0 a9 3d 44 3f 53 3d a7 6c 21 3e 4f db 2b be
       0.08297888 0.051574007 0.15764104 -0.16782878
0002e0 c1 65 36 3d 6a 55 c8 be 92 56 86 bd 82 aa ea 3d
       0.044530634 -0.39127666 -0.06559481 0.11458303
0002f0 b2 4d f1 ba e5 70 98 bc 34 86 56 bd b0 80 70 bd
       -0.0018409996 -0.01860852 -0.05237408 -0.058716476
000300 08 a5 19 3e 42 0d 6f 3d c0 f0 99 bd e2 ed c5 3d
       0.1500436 0.058362253 -0.075166225 0.09664513
000310 5d af 23 3d 05 50 03 3e e1 3b 2d bd 00 2c a4 b9
       0.03996216 0.12823494 -0.042293433 -0.000313133
000320 44 3b a5 3d 61 96 a6 3d f9 19 bb bc 36 67 c7 3d
       0.08067945 0.08134151 -0.022839533 0.09736483
000330 66 16 55 3d e2 66 73 3d 8f 13 12 3e 36 07 1e be
       0.052023314 0.05942429 0.14265274 -0.15432438
000340 8a 3b 7d bd 3e ef 28 3e b6 ed 68 3d d5 14 fd 3c
       -0.06182436 0.16497514 0.056867324 0.030893723
000350 f6 dd b6 3e d0 c7 6b 3d 43 53 4c 3c da c9 8a 3b
       0.35716218 0.057563603 0.012471023 0.0042354884
000360 52 6e 5d be 55 c5 2f bd 38 ab 39 3d 8c 0a a1 3e
       -0.21624115 -0.0429128 0.045329303 0.3145336
000370 65 8f b2 bd 8d d2 a1 3d 63 60 58 3e 2c 40 83 bc
       -0.087187566 0.079014875 0.21130519 -0.01602181
000380 3a 62 36 3d c0 2f 35 bd 14 ba f0 3c 11 ca 92 3d
       0.04452727 -0.04423499 0.029385604 0.07167447
000390 fb 02 a5 3d d0 6a 2f 3e 8a 8e ff 3d a3 d7 83 3d
       0.08057209 0.1713059 0.12478359 0.06437614
0003a0 68 2b 79 3c 7b c1 c4 3d ae d2 c3 bd 24 71 2d 3d
       0.015208103 0.09607216 -0.09561668 0.042344227
0003b0 77 53 3b bd 41 00 8d 3c 74 94 ab bd 40 61 fb bb
       -0.045733895 0.017212035 -0.083779246 -0.007671505
0003c0 17 8b 64 3e 9f 8b 3d bd be 17 f5 bd ec 39 39 3e
       0.22318684 -0.04627573 -0.11967419 0.18088502
0003d0 41 c4 1d 3d 7c d5 76 bd 2f c5 13 bd 70 23 3b 3d
       0.03851724 -0.06026219 -0.03607672 0.045688093
0003e0 34 e9 c2 bc ae 3f 53 be 7c 92 e1 3d 4f 5a 85 3e
       -0.02379284 -0.2062976 0.11014268 0.26045462
0003f0 8c c2 38 3e c4 13 09 3d 88 a3 c2 bc aa 4f 17 bd
       0.18042964 0.033466116 -0.023759618 -0.036941208

network.3.bias f4 [64]
000000 0f 2e 3d 3e f8 1c a9 bd 19 3f db bd 48 13 4c bd
       0.18474601 -0.082574785 -0.10705394 -0.049823076
000010 6c d6 a0 3d d3 80 d7 3b 02 31 0f 3e 54 2d 3c 3e
       0.07853398 0.0065766363 0.13983539 0.18376666
000020 d0 e9 cd bd a4 98 81 3d bd c0 bb 3d 23 52 9d 3d
       -0.10054362 0.06327942 0.09167621 0.07681682
000030 68 3c e3 bd f8 af e6 bc b4 bd 6a 3e ae 09 48 3e
       -0.11095506 -0.02816008 0.22923928 0.19534943
000040 1d d7 8b 3d 70 d9 31 3e 11 dc 4b bd ab 9d ef 3d
       0.06828139 0.17368102 -0.04977042 0.11699995
000050 c6 10 cc bb 39 dd e9 bd 2a c4 dc 3d fd 41 2d be
       -0.0062275855 -0.11419148 0.10779603 -0.16919704
000060 4f 9f f1 bc 11 46 54 3e 63 00 47 3d cd 7a 76 bc
       -0.02949491 0.20729853 0.048584353 -0.015043926
000070 a0 16 2a bc 51 30 cb bd 08 59 70 3d 43 f5 3e 3e
       -0.010381371 -0.09921325 0.058678657 0.18648247
000080 20 72 11 3e 30 a6 cf bc 2e fb 37 3e 5a 14 9d 3c
       0.14203691 -0.025347799 0.17966911 0.019174743
000090 40 ab de 3d 82 25 2a 3d db e0 40 3d 98 20 8b be
       0.10872507 0.041539676 0.04708944 -0.27173305
0000a0 c3 29 a4 3c 34 3b 48 3e 96 19 2b bd 88 18 c3 bd
       0.020039445 0.19553834 -0.041772448 -0.09526163
0000b0 08 ca 4b 3e 5b c4 11 3e 95 4a 75 bc b4 bb d6 3b
       0.19901288 0.1423506 -0.014971395 0.0065531377
0000c0 f8 0f d8 3d de 6b c5 3a 08 bb af 3d 3e 7c b7 bd
       0.10549921 0.0015062054 0.08580595 -0.08959244
0000d0 80 e4 ac bc 05 bd bd bd 71 63 3c 3e 38 cb 50 be
       -0.021105051 -0.09264568 0.18397309 -0.20390022
0000e0 a8 19 2f bd 85 73 15 be 8c 9b cf 3a 0e e1 b0 bd
       -0.042749077 -0.14594848 0.0015839203 -0.08636676
0000f0 28 1f 1b be cc c0 cf 3d 1d da 33 be fc 9b 5b bd
       -0.15148604 0.10144195 -0.17563672 -0.053615555

network.6.weight f4 [32, 64]
000000 bc 38 c0 bd d8 0d de bd 4c ee 2b be c7 e3 54 bd
       -0.09385821 -0.10842484 -0.16790122 -0.051975038
000010 0b 79 a2 be 80 44 88 bd 0a 50 42 3e 59 d2 c0 3d
       -0.31732973 -0.0665369 0.18975845 0.09415121
000020 81 f6 68 bd 55 59 42 3e 3d 9a 15 bd 78 f1 c5 bb
       -0.05687571 0.1897939 -0.036524046 -0.006040748
000030 31 4a 03 be 9f bb be bd 02 66 31 3e d4 de 8f bd
       -0.1282127 -0.0931313 0.17324069 -0.07024923
000040 4c c6 31 bc f5 c4 87 be bf f6 99 3e 68 2c e4 bd
       -0.0108505 -0.26517454 0.30071065 -0.11141282
000050 a9 cf 7b 3c bd 8a b1 3e 9d 0b 46 3d c6 1e bd 3c
       0.015369334 0.3467616 0.04835092 0.023085963
000060 ab 26 b5 3d d3 07 61 3e 92 df 2a 3e e3 22 7d bd
       0.08845266 0.21975641 0.16686848 -0.06180085
000070 a7 b1 2e 3d 2a e6 ae bb c4 11 8b 3d 88 c5 9b 3e
       0.04264989 -0.0053374963 0.06790498 0.30424142
000080 9a 5e 88 bd 4b 62 0f 3d 2b ff a2 3e 59 f4 31 be
       -0.06658669 0.03500585 0.31835303 -0.17378367
000090 d8 12 d9 bd 35 e1 9b 3c 9f d8 8a 3d 4d 28 6d 3e
       -0.10599297 0.019028286 0.067795984 0.23159905
0000a0 1f 7d f1 3d 15 35 43 3e e7 ac 85 bd 25 69 7a 3d
       0.11791443 0.19063218 -0.06527119 0.06113543
0000b0 39 e9 86 3e 81 9d 21 bc 9f 60 0c 3e e2 87 1c 3e
       0.2634981 -0.009864212 0.13708733 0.1528621
0000c0 04 e9 ba 3d a3 8e ee 3d 93 2a 9c 3e 23 2a cd 3c
       0.091264755 0.116482995 0.30501232 0.025044506
0000d0 ed 01 fb bd 50 03 89 3d ec 24 00 be b4 3a a3 3d
       -0.12256227 0.06690085 -0.12514085 0.07970181
0000e0 dc 03 e5 ba d9 f8 81 3d b7 76 6e 3e ed 45 88 3c
       -0.0017472464 0.06346292 0.23287474 0.016634906
0000f0 26 71 51 3e 6e 27 4d 3e e2 f7 69 3e 52 d9 83 3e
       0.20453319 0.20034572 0.22848466 0.2575174
000100 aa 9b b2 3e b3 58 45 3d 6e a6 b9 3e 14 60 dd 3d
       0.34884387 0.048180293 0.36259788 0.10809341
000110 c7 8f fd bd a0 8f 09 be 7f bb 80 be ac c5 3c 3e
       -0.12380939 -0.13433695 -0.25143048 0.18434781
000120 23 6b 07 3d 44 15 07 bb f9 1d 9e 3d 17 3b e6 bc
       0.033061158 -0.002061204 0.077205606 -0.028104348
000130 ea be 5c 3e e0 63 83 3d 48 cc 53 be 17 6d d5 3e
       0.21557203 0.06415534 -0.20683396 0.4168479
000140 4a f7 50 bd 5e 89 a1 3e 7e e2 3d be 10 04 27 3e
       -0.051017083 0.31550115 -0.18543431 0.16310143
000150 17 a3 95 bd 40 46 a7 be f2 89 c1 be e9 e5 64 3e
       -0.073064975 -0.32670784 -0.37800556 0.22353329
000160 6e e0 b8 3d 7c cd 57 3d 18 66 d5 3c b7 73 dd bd
       0.090271816 0.0526862 0.026049659 -0.108130865
000170 ce 66 a5 3e 4a 8b 62 bd e1 6d 92 bc 2e 2d c5 3d
       0.32304996 -0.055308618 -0.01787466 0.09627758
000180 bd c4 8b 3e 2c a9 e9 ba 1d b2 80 be ac 0c 62 3e
       0.27298537 -0.0017826906 -0.2513589 0.22075146
000190 65 b9 41 bc 52 b7 fd 3d 9c f5 a9 3d b1 9e 24 bd
       -0.011823987 0.12388481 0.082987994 -0.040190402
0001a0 45 20 02 be aa 47 1e 3e 77 ba be 3c 1b 83 df 3d
       -0.12707622 0.15457025 0.023282273 0.10913678
0001b0 16 cf a2 3d c2 21 8f 3d 64 63 36 3c 28 81 9a be
       0.07949655 0.06988861 0.011132095 -0.30176663
0001c0 3c 55 4d bd 3d f3 0f be 4a 0b ae be 83 59 b5 3d
       -0.050130114 -0.14057632 -0.33992988 0.08854964
0001d0 6e be 11 3e 4d 36 b2 3d 05 d6 84 3e bb ba a1 3d
       0.142328 0.08701763 0.25944534 0.07896944
0001e0 60 70 76 bd 7b 3c 9a 3d fc cc a2 be 64 84 8b bd
       -0.060165763 0.07531067 -0.31797016 -0.06812361
0001f0 29 fa 7f bd 7d 2b 58 be 26 1c 82 be 01 0a 39 be
       -0.06249443 -0.2111034 -0.254121 -0.18070222
000200 37 73 07 3e e9 ce c0 bc 16 9b d2 3d 65 de a5 bd
       0.13227545 -0.023536162 0.102834865 -0.08099059
000210 b2 52 b5 3e cf 17 de bd 48 5b b7 bd 97 12 a9 bd
       0.35414654 -0.10844385 -0.089529574 -0.08255499
000220 a9 4e 00 3e b8 b7 68 bd 96 9c c9 3d 6d 4e f8 3d
       0.12530006 -0.056815833 0.098443195 0.121243335
000230 3a 95 95 3c 4e 18 93 bc 61 49 e0 be 5b e0 e4 3d
       0.018259633 -0.017955925 -0.43805984 0.11175605
000240 0a d2 0f 3e 9c 97 20 3e 44 06 cd be 6a 2f 29 3e
       0.14044967 0.15682834 -0.40043843 0.16521993
000250 b4 46 ad bc d7 cf 98 be 56 ff 06 3d fa 0b 28 3d
       -0.021151878 -0.2984607 0.03295835 0.041027047
000260 e1 14 c6 bd c9 75 86 3d 9b 2b fb 3c 4a a8 83 bd
       -0.09671951 0.065654345 0.030660441 -0.06428583
000270 e8 63 a2 3c 28 69 81 3d 4b fa 27 3d 11 98 ac 3c
       0.01982303 0.06318885 0.041010182 0.021068605
000280 23 94 12 3d da ea 42 bd da 0d 80 bd 51 5a 13 3d
       0.035785805 -0.047587253 -0.06252642 0.035974804
000290 8d 68 d5 3d 65 c8 e4 3d 90 0d 7a bd 9d 3e 95 be
       0.10420332 0.11171035 -0.06104809 -0.29149333
0002a0 47 1e f2 ba a3 29 b5 bd 07 24 74 3b 12 90 a4 3d
       -0.0018472158 -0.08845832 0.003725292 0.08035292
0002b0 49 39 6a be 62 2f c3 3d d4 d4 7c bc 1a a6 39 bd
       -0.22873415 0.09530522 -0.015431602 -0.045324422
0002c0 c2 73 b9 bd 18 9b 0d bd ac 01 eb bd 5e 20 db bd
       -0.09055282 -0.034571737 -0.11474928 -0.10699533
0002d0 83 a6 8d bd c9 37 3a bd 7d 32 38 3e a3 fc 86 bd
       -0.06916525 -0.045463357 0.1798801 -0.065911554
0002e0 84 f0 bd 3d 53 fc 90 be cb 27 3b be 99 46 9f bd
       0.0927439 -0.28317508 -0.18276899 -0.07777137
0002f0 6d 5c 42 be 68 dc d6 be 73 c6 ee bd 39 6c b7 be
       -0.1898057 -0.41965032 -0.11658945 -0.35824755
000300 42 b5 6f be 70 7a 98 3d bf 31 27 3d 55 18 12 3d
       -0.23408988 0.07445228 0.040818926 0.035667736
000310 d0 85 91 be 18 bb c4 bd 19 8e 56 bc 62 74 0c be
       -0.28422403 -0.09605998 -0.013095402 -0.13716272
000320 0d e1 02 3e 4f 28 fa bd c1 1e b0 bd 53 f6 de 3b
       0.12781163 -0.122147195 -0.08599616 0.0068042665
000330 0a b1 c1 3d 63 a9 a5 3d 2c 40 96 bd 67 25 55 be
       0.09457596 0.080889486 -0.073364586 -0.20815049
000340 a1 3c 9b bd f5 43 33 be ac cf 52 3e ad 6a 75 bc
       -0.075799234 -0.17506392 0.20587033 -0.014979047
000350 09 a8 f5 bd 9e a9 08 3e 3b da 7e 3c 41 c2 ad bc
       -0.11994941 0.13345954 0.01555496 -0.021210792
000360 f9 f6 e9 bd df eb c0 bd f5 8a 18 be ac 97 91 3c
       -0.114240594 -0.09419989 -0.14896758 0.017772518
000370 9b 18 c4 3c 32 e1 a0 bd 1e 7d bd 3d a0 2f ee ba
       0.023937514 -0.078554526 0.0925238 -0.0018172152
000380 b0 e5 d6 bd 99 4f f1 bd ad 04 bc 3d 43 ce 1c bd
       -0.10493028 -0.1178276 0.09180579 -0.038282644
000390 61 29 75 3d 78 6e 01 bd cb 4f 46 bd 4e 5d a3 3e
       0.059853915 -0.03159949 -0.04841594 0.31907123
0003a0 45 8d 57 bd 54 ab 57 be f0 3d 9a bd 6d 08 bb bc
       -0.05262496 -0.2106145 -0.07531345 -0.022831166
0003b0 14 44 02 be 0f ae 7a bc ba f1 63 bd b9 f8 af 3d
       -0.12721282 -0.015300288 -0.05565045 0.08592362
0003c0 3f 68 65 3c 42 41 83 3d 4c a9 10 bd 70 a4 d5 3c
       0.014001905 0.06408931 -0.035317704 0.026079386
0003d0 25 b6 30 bd e1 9b 23 be db c5 92 be 97 e5 61 3e
       -0.043142457 -0.15977432 -0.28666577 0.22060238
0003e0 54 d4 79 3d bf ae 8b 3e 02 1e 71 3e 1f f6 15 3e
       0.060993508 0.27281758 0.23546603 0.14644669
0003f0 86 cb 2a 3e 7c 7a 11 3d 9b e6 81 3e d0 4b 28 3e
       0.166792 0.0355172 0.2537125 0.1643517

network.6.bias f4 [32]
000000 52 a8 66 3d 95 53 a9 3c 07 ac 96 3d f0 54 4b be
       0.056312867 0.020669738 0.0735703 -0.1985662
000010 81 5a 4f 3c c0 84 03 be da 4b 1c 3e 38 0e 41 bd
       0.012655855 -0.12843609 0.1526331 -0.0471327
000020 e9 53 7e bd bd b9 02 3e d8 21 5f 3d 86 d3 99 bd
       -0.06209174 0.12766166 0.054475635 -0.07511048
000030 c0 96 c2 bd c3 bb 26 3e 1a 9d 9a 3d df 66 a4 3d
       -0.095014095 0.16282563 0.07549496 0.080274336
000040 9e d8 d5 3d be 6c 04 be ca 49 3c 3e 77 d7 a4 3d
       0.10441707 -0.12932107 0.18387523 0.08048909
000050 10 e8 a0 3d 71 d4 e4 bd df ef 71 3e 63 d5 50 be
       0.078567624 -0.111733325 0.2362666 -0.203939
000060 c1 80 4a bc 8a 17 6a 3e b1 92 24 bd 79 9c eb 3b
       -0.012359799 0.22860542 -0.04017896 0.007190284
000070 a8 eb 86 3d fe 55 d1 3c 4d 7c ce 3d 1a 44 2f 3d
       0.065879166 0.0255537 0.10082302 0.042789556

network.9.weight f4 [6, 32]
000000 9f 5a 1f 3e 14 4d e5 be e3 c7 43 be 30 e6 7b be
       0.15561913 -0.44785368 -0.1911922 -0.24599528
000010 df 8f 0a 3e 56 18 2b be f4 b2 b0 be b9 4d 85 be
       0.13531445 -0.16708502 -0.3451153 -0.2603586
000020 0d 18 65 be 35 aa dc 3d e9 01 7a 3e d2 d2 2c be
       -0.22372456 0.10774652 0.24414791 -0.16877297
000030 8c c8 10 3e 5c ec df 3e 3d 51 ac be 80 20 39 be
       0.14139003 0.43735015 -0.3365573 -0.18078804
000040 83 4c ea 3d 15 60 2e be d8 c1 0e 3e d0 be bb be
       0.11440375 -0.1702884 0.13941133 -0.36669016
000050 d7 82 80 be 9d 5a 8e be f4 f1 b0 3e f0 e1 dc be
       -0.25099823 -0.27803507 0.34559596 -0.43141127
000060 92 f0 da be c3 2d c4 be 0c db b1 3c 1e cf 1b 3e
       -0.42761666 -0.38316163 0.021710895 0.15215728
000070 42 2d 31 3e 00 df d3 be f8 86 96 3e 00 38 83 bc
       0.1730242 -0.41381073 0.29399848 -0.016017914
000080 fe de a7 bd 48 0b 53 3e 09 cb e0 be 5b fa 85 be
       -0.08196829 0.20609772 -0.43904904 -0.2616757
000090 4e 44 d2 be 9d 92 ae 3e c4 37 01 3e 66 57 dc be
       -0.41067737 0.34096232 0.12618929 -0.4303543
0000a0 1b ff 06 bf b8 e2 22 3e 5c 0f 81 3e 4e 47 60 3e
       -0.5273301 0.15906799 0.2520703 0.219022
0000b0 db da d3 3d 8d 44 2d 3e 6c 86 04 bf 34 57 27 bd
       0.10344478 0.16920681 -0.5176761 -0.040854648
0000c0 61 07 6b 3e d9 c9 b8 bc c1 7e 54 3e 2b 04 00 bf
       0.22952034 -0.022557186 0.20751478 -0.5000636
0000d0 aa fc f3 3d 57 85 a0 be b2 fc 96 be 14 3a 9a bd
       0.11913426 -0.3135173 -0.29489666 -0.07530609
0000e0 81 3f 9b be df 35 0d 3e c5 72 57 3e 1d de 39 3e
       -0.30321887 0.13790081 0.21039875 0.18151136
0000f0 20 ab 0a bf a2 8a 8e be 52 6e 10 bf 48 1e 0c bf
       -0.54167366 -0.27840143 -0.56418335 -0.54733706
000100 ba 55 8f be 13 8a 59 3e 49 6c 3e 3e a4 0b b2 be
       -0.27995092 0.21244077 0.18595995 -0.34774506
000110 30 55 e0 be 95 d3 75 3e fa d8 28 3e b3 86 48 bf
       -0.43814993 0.24006493 0.1648902 -0.78330535
000120 58 d6 b3 bd 4a 3f 29 3e f2 d0 73 be 92 cc 72 3e
       -0.08781117 0.16528049 -0.23810175 0.2371085
000130 1e 4d 1e bf ae e6 17 bf 1d da f6 3c 89 79 13 bf
       -0.6183642 -0.59336364 0.030133301 -0.5760732
000140 40 9d 07 3e bb be 87 3d 46 97 1b 3e c4 06 00 3e
       0.1324358 0.06628176 0.15194425 0.12502581
000150 77 c6 50 be 3b 04 bf 3d 29 8c 9c be 92 7b e5 bc
       -0.20388208 0.09326979 -0.30575684 -0.028013024
000160 41 78 ee 3d 95 49 71 3e 05 13 24 3e 48 78 de 3d
       0.1164403 0.23563226 0.1602288 0.108627856
000170 7d df 07 bf 47 12 48 3e 24 0d d9 be 88 21 88 3c
       -0.5307539 0.19538222 -0.42392838 0.016617551
000180 3b e0 1e be 5f 7c 45 be ea 38 64 3e f8 46 3a bc
       -0.15515225 -0.19285725 0.22287336 -0.011369459
000190 ba cf 3e bd 9f 08 af be 27 5f 00 bf b7 a0 f8 3d
       -0.046584822 -0.34186265 -0.5014519 0.12140029
0001a0 24 e0 d9 3d dd fa 07 bf 74 0e 50 be d8 ba aa 3d
       0.106384546 -0.5311716 -0.20318013 0.08336419
0001b0 ee 64 11 bf cb 90 0d 3e f4 f5 02 3e b4 99 f2 3d
       -0.5679463 0.13824765 0.12789136 0.11845723
0001c0 2d c0 c4 be 2c 88 32 bd 74 6b 0a bf 05 b2 d2 3d
       -0.38427868 -0.043586895 -0.5407021 0.10287861
0001d0 96 2c ed bd 0f b4 40 3e c5 f5 27 3d 1e 6b 39 be
       -0.1158077 0.18818687 0.04100587 -0.18107268
0001e0 b9 65 3d 3e 58 fa 7b ba a8 4a df be ce 10 f0 be
       0.18495835 -0.0009612194 -0.43611646 -0.4688782
0001f0 bb 0a a6 3d b4 61 05 3e 51 a0 20 3d 5f d9 bc 3d
       0.081075154 0.13025552 0.03921539 0.09221148
000200 8d 4c b0 be 0d f2 26 3e 4a 16 0a 3e bf bb 6e bd
       -0.34433404 0.16303273 0.13485065 -0.058284517
000210 67 75 87 3d df fc e6 be 80 46 09 3e 69 0d a5 3c
       0.066141896 -0.451148 0.134058 0.020147996
000220 14 64 46 3d 29 30 cd 3d 7a 44 fb be bd dc 8d be
       0.048435286 0.100189514 -0.4907568 -0.27707472
000230 95 49 07 bf c9 63 de bd 6f 91 d7 3d fe f2 c1 bc
       -0.5284665 -0.10858876 0.10525786 -0.023675438
000240 b8 65 ff be c0 a7 8a 3d 7f e9 d3 3c a7 63 e8 3d
       -0.49882293 0.06770277 0.025868176 0.11347132
000250 bd 92 92 3e 87 23 37 3e aa c6 f3 be be 80 d3 3d
       0.28627577 0.17884646 -0.47612506 0.1032729
000260 10 a1 2f 3e 5b de 83 3e 6d f8 b3 be 4b ef a9 bd
       0.17151284 0.2575558 -0.3515047 -0.08297595
000270 bb a7 86 bd 8f 5a 15 3e 36 31 dc be be ab d0 3d
       -0.06574961 0.14585327 -0.43006295 0.10189007
000280 4b b3 b8 3d 5b 08 05 bf 4a f1 58 be da d0 82 3e
       0.090185724 -0.51965874 -0.21185794 0.25549966
000290 6e 0a 30 3e 65 ed 67 3d ca a3 ce be 06 5c e5 3d
       0.17191479 0.05662288 -0.40359336 0.11199193
0002a0 0a 2a b6 3d bb f7 4d be 1f d3 5a 3d f8 0c 85 3e
       0.08894737 -0.20114033 0.053423997 0.25986457
0002b0 bd fa 29 3e 81 1b 68 be b2 e1 e2 3d c2 36 eb 3d
       0.16599555 -0.22666742 0.11078204 0.114850536
0002c0 dc f1 30 be ea 6f bf bc d5 65 cd be 2d 9b 8e bd
       -0.17279762 -0.023368794 -0.40116754 -0.06963191
0002d0 84 34 28 be cb 33 4a 3e 61 f3 11 3d 6e 7e 62 3e
       -0.16426283 0.1974632 0.035632495 0.22118542
0002e0 21 fe 3c 3e e1 5c f0 be b7 eb 96 be 48 55 6f bd
       0.18456317 -0.4694586 -0.2947671 -0.05843094
0002f0 0a 54 c1 3d 36 24 2f 3c 39 18 05 3d 3d 92 01 3e
       0.09439857 0.010689786 0.032493804 0.12653442

network.9.bias f4 [6]
000000 1f 8a 25 3e 75 13 09 bd 83 c8 44 be 2b d3 b3 bd
       0.1616597 -0.03346582 -0.19217114 -0.087805115
000010 25 10 fe 3d 95 22 3b be
       0.12405423 -0.18274911
