gesture_recognization/training/models/hand_gesture_model.pth (torch, 235332 bytes, 8 tensors)

network.0.weight f4 [256, 63]
00000000: 50c7 f8bd a7a3 9a3c 46dc 9e3c eb1b 8bbd
00000010: 608c af3c 4f56 e5be 34b1 cdbd 1443 f6bb
00000020: baf7 03bf d5d7 b9bd 224c cf3d 5e7d e9be
00000030: 5032 a23d 95dc dfbd 24a1 8fbe fde0 6d3c
00000040: cbcf e5bc 605a 8ebe ac5b 11be 250c 89bd
00000050: e949 a9be c510 393c aa7e d83d 8bb2 98be
00000060: aa83 8f3d b8c6 853e 286c c4be 6db2 1cbe
00000070: e67f 0bbe 2683 0cbe f476 8e3d 2007 bd3c
00000080: 12c0 04be 5ad8 88bc 1a58 8cbd caac 95be
00000090: 08b8 08bd 1be5 95be 2d3d 86be 2b91 903c
000000a0: 91ec 0a3d a148 81bd a943 06bd 12d6 f43c
000000b0: ce7b 56be d7c4 c23d 7c8b 063d dfc8 07be
000000c0: a6e3 923d 9a68 013e c1bd aebd 50a0 8a3d
000000d0: f304 e33c 7e7d 553c 01ed c0bd 7dc9 97bd
000000e0: 96d2 11be 41f2 813c 46c3 c53d da6a 0c3e
000000f0: bd46 b9bc 26b0 a63d ee34 df3c 409d 08bb
00000100: b059 91bd 77de 81bd 3b8f f3bd c22f 34bd
00000110: 7451 193d 39ae d6bd 88f7 623d d67b d43d
00000120: 8c6b db3d 04fa e1bc 103c 38bd f4a2 d53d
00000130: 1883 65bc 1525 a2bd b8ad 58bd fc4b 23bd
00000140: f6e4 8bbd ba31 bb3d 126f b1bd 0cfd cc3d
00000150: 235d ffbd 509a 153d 4447 eb3d fc79 eabd
00000160: 2c8d d93d e66f eb3d dcca 3e3d 360f e23d
00000170: 284b f43d f083 693c 4ad6 ee3d 00ae 863a
00000180: 280e e93c 80e8 d0bd 28be 44bc 1c91 6fbd
00000190: 2419 4dbd 5ec7 80bd d0ec bd3d 30c8 76bc
000001a0: 7206 f43d 50e2 d0bd e0f8 823d f40a f43d
000001b0: ce67 aa3d 3cf6 96bd 8e97 003e c820 babd
000001c0: 53d2 c0bd b81e c6bd d405 3f3d aee7 973d
000001d0: c893 e63d b2ac c8bd 28a8 923d aeef d83d
000001e0: 060b a53d 80e9 e13b a87c c83d 497e efbd
000001f0: 583c ab3c 5a37 cbbd 58dd 953c e02f e0bd
00000200: de85 6fbd 893e d2bd d8a4 c83c 1425 dc3d
00000210: 600f 313c 7e93 dcbd 4890 89bd a083 593c
00000220: ec05 813d 20b5 8dbb ea09 fabd e490 d4bd
00000230: d2a5 9ebd ac63 ffbd c89b 943d 22d8 03bd
00000240: 82ce 803d f887 5f3d c000 4cbd 1277 de3d
00000250: e009 8f3b e4d3 ee3d f821 ed3c 60e7 b6bc
00000260: fa49 f9bd d44a db3d 5012 54bc f621 c53d
00000270: 008f 34ba 01d8 efbd 5435 aa3d e899 babd
00000280: ba92 2cbd 92fd d2bd 8abe f9bd 446c 8ebd
00000290: f560 9ebd 90f0 81bc dea8 03bd 7cdc c0bc
000002a0: 7a75 89bd c435 e93d d884 893d 6cde 84bd
000002b0: 4016 d4ba 88d9 863d 00c4 f5bc 6c33 363d
000002c0: 0c68 543d dfe3 fdbd 2ece aabd 2cb1 a73d
000002d0: b886 eabd e0d4 c2bd a087 19bd da71 f03d
000002e0: a43c 763d 2c13 233d 9683 d33d 3ab5 cd3d
000002f0: 00d4 d63c e982 313c 4edf d3bb 70c5 0d3e
00000300: e391 9b3d 5dd4 80bd 6480 5cbd ad74 47bd
00000310: 19e2 793d f67f b1bd 8c86 89ba e474 6abc
00000320: 287e 13be d742 a43d db34 853d ddd0 4ebd
00000330: d8d5 b03c 3066 5c3d 0af6 f3be 8506 f7bd
00000340: da7d dc3d 9719 8ebe 17c9 79bd 72fd 453e
00000350: 2e8e 55be 7e72 bbbd 8292 6f3e b7e8 22be
00000360: 4451 0ebe 0724 b23d 6d75 ddbe 23ab febd
00000370: dbf0 8e3d aab2 913b 9532 a9bd 30f0 4abe
00000380: 7591 ddbd 41c1 5dbd 8849 96be 79c0 ecbd
00000390: 91b3 0cbe d3df bfbd 1473 77be 7063 89bd
000003a0: 95b5 76bc 105c f1bd 2a8a cd3c 77f8 e8bd
000003b0: ff5c 7dbd f335 1abd 7ddf 213d 18a2 e33b
000003c0: 35e8 4d3d b299 2b3d 943a a6bc d857 d83d
000003d0: 9a1f b23d bcad 30bd 8ff2 9ebd 1b6c 8a3d
000003e0: 8da0 16bd cdd5 eb3d ec17 103e 1ca6 cd3d
000003f0: 40dd 1d3c f06c 433d b786 00be 985b f8bd
-0.12147391 0.018876864 0.019392144 -0.06792434 0.02142924 -0.4479241 -0.100435644 -0.0075153206
-0.51549876 -0.0907437 0.10121943 -0.4560346 0.079197526 -0.109307446 -0.28052628 0.014518973
-0.028053185 -0.27803326 -0.14195126 -0.066917695 -0.330642 0.011295502 0.10571034 -0.29823717
0.07007535 0.26128173 -0.38363767 -0.15302439 -0.13623008 -0.13721904 0.06956282 0.023074687
-0.12963894 -0.016704727 -0.068527415 -0.2923339 -0.03337863 -0.29276356 -0.26218548 0.017647346
0.033917014 -0.06312681 -0.03277937 0.029887233 -0.20945665 0.095102005 0.032847866 -0.1326022
0.07172327 0.12637559 -0.085322864 0.067688584 0.02771232 0.013030408 -0.09420205 -0.07411478
-0.14240488 0.015862586 0.09656386 0.13712636 -0.022616738 0.081390664 0.027246919 -0.0020845681
-0.07097185 -0.0634126 -0.118925534 -0.043990858 0.037431195 -0.10482449 0.055411845 0.10375182
0.10713872 -0.027585037 -0.044979155 0.104314715 -0.014008306 -0.07917229 -0.052900046 -0.039867386
-0.0683078 0.09140344 -0.08663763 0.10009202 -0.12468936 0.036524117 0.11488202 -0.11449048
0.106226295 0.11495952 0.04658018 0.110380575 0.119283974 0.014252648 0.11661966 0.0010275245
0.028449133 -0.10200596 -0.012008227 -0.058487996 -0.050072804 -0.06288026 0.09273684 -0.015062377
0.11915292 -0.10199416 0.063951254 0.11916152 0.083205804 -0.07371184 0.12557814 -0.09088284
-0.09415116 -0.09673828 0.046636418 0.07417236 0.11258656 -0.09798564 0.071609795 0.1059259
0.08058743 0.0068942904 0.09789401 -0.11694009 0.020902798 -0.09922667 0.018294021 -0.109466314
-0.058477275 -0.10265834 0.024492666 0.107492596 0.010806888 -0.107703194 -0.067169726 0.013276011
0.06299958 -0.0043245703 -0.12208922 -0.10379198 -0.077464715 -0.12470183 0.072562754 -0.032188542
0.06289388 0.05457303 -0.049805403 0.108625546 0.004365191 0.11661509 0.028946862 -0.022327125
-0.12172313 0.10707632 -0.012943819 0.09625618 -0.0006887764 -0.11711121 0.08310953 -0.091113865
-0.042132117 -0.10302271 -0.121945456 -0.06954244 -0.07733337 -0.01586178 -0.032143466 -0.023542635
-0.0671186 0.11387208 0.06714791 -0.06487736 -0.0016180947 0.065844595 -0.030000687 0.044482633
0.05185704 -0.123969786 -0.08340107 0.0818809 -0.11451477 -0.09513259 -0.037482858 0.117404655
0.060116425 0.039813206 0.103278324 0.10044332 0.026224136 0.010834434 -0.006465829 0.13844848
0.07596185 -0.06290505 -0.05383338 -0.048695255 0.06100664 -0.08666985 -0.0010492369 -0.014310095
-0.14403594 0.08020561 0.06504222 -0.050492156 0.021586344 0.05380839 -0.4764865 -0.120617904
0.10766192 -0.27753899 -0.06098279 0.19334963 -0.20855018 -0.09152697 0.23395732 -0.15909086
-0.13898188 0.08698278 -0.4325365 -0.124349855 0.06979533 0.0044463472 -0.08261601 -0.19818187
-0.10818759 -0.05413938 -0.29352975 -0.11560149 -0.13740374 -0.09368863 -0.24164993 -0.06708419
-0.015057941 -0.11785138 0.025090296 -0.11375516 -0.061856266 -0.037649106 0.039519776 0.0069468133
0.050270278 0.041894622 -0.020291604 0.1056363 0.08697434 -0.043134436 -0.07761108 0.06758901
-0.036774207 0.11515389 0.14071625 0.100414485 0.00963527 0.047711313 -0.1255139 -0.12126845

network.0.bias f4 [256]
00000000: 706a f23d e0f3 b43b 487c 913d 49f9 bd3d
00000010: 3475 96bd 8cdc 2f3d f9f9 8cbd b493 eebd
00000020: 23a1 283c ba22 6cbd 7853 8abd 8990 e2bd
00000030: 9b75 f13d 4007 f63b d457 66bd fd5c 35be
00000040: 2f8d 97bd 34f4 f23d ca7e 54bd 8326 b8bd
00000050: 4285 7dbd 7fff 293d 6c9d 0c3e ae8c ba3c
00000060: a197 49bd a86c 213e d670 5abd 0d32 093e
00000070: 3b24 e33d 38c3 143d 70e6 d43d 5921 9abd
00000080: 1203 043e b14c d13d 5c08 50bd 583f d7bd
00000090: 0425 693d 4fa3 24be 772d 693b 70f0 313e
000000a0: c51a b63d 871f 26bd e7de 2abe 4094 633c
000000b0: 08b2 b03c e91c dcbd 0106 f2bd 5024 b8bc
000000c0: 434b 2f3e b9d8 3e3d c39d ae3d dc9a 993a
000000d0: 1997 553c 0fdd 0abe 392f 56bd c047 46be
000000e0: 6ae0 74bd 7649 da3d 2279 c1bd aac5 3b3d
000000f0: 65eb 56bd b8d9 1f3e 9e1a 13bd 8eb2 a23a
00000100: 82b0 b43d 3996 ab3d 6807 993d e8d1 1a3a
00000110: 605a b4bc 2cf3 813c 8719 803d d93b 10be
00000120: 79fe a93c 4c54 e13d b3c2 ddbb ea9e 41bd
00000130: d9c3 ee3d 3cff 3f3e 4795 5a3e 7a04 fd3d
00000140: 9f1e d33d e68f d7bd 7f02 8ebd 1766 81bd
00000150: 6cdf fdbd aa41 41be 63e2 9d3c 26b0 b23d
00000160: 00d7 813c 45cb 2f3e 806f cd3a db97 15bd
00000170: 8c82 803d 1acf 6dbd 9a24 febd e438 2f3e
00000180: 646e 8f3c 525d 6e3e aefe e23c 9d1c 103e
00000190: 0ba2 aabd 1bb7 1a3e e437 e03d 8ad7 83bd
000001a0: 568f bdbd f8fb ddbc cfd5 a5bd 53d2 8cbc
000001b0: ca4b 2c3d a8ae 58bd 3030 5dbd b04a ff3d
000001c0: 1e81 3dbe c400 c8bd 61c3 96bb 6936 f63d
000001d0: 517e dc3d 9124 753d 2d51 413e 78dc 023d
000001e0: 7ed1 efbd 226d 243d 27f3 aabd 8427 63bd
000001f0: b97f f4bc bd87 dd3d ba1a d3bd 8aa1 f0bd
00000200: 2ba8 9f3c b61d 48bd 5f47 00be da36 85bd
00000210: c62b f23d 0c86 003e 80c8 f5bb 285d 803e
00000220: 45d6 1bbc 62e1 453e 085b f7bc 5b9d 9c3d
00000230: bc6f 233e 82a7 53bd 6123 c83d acae 043d
00000240: 8be5 963c db1d 0cbe 8a82 9b3d ee12 613d
00000250: d9f3 d2bd 6783 98bd 1062 85bb 3020 cb3d
00000260: 09bf 203d 2a44 fbbd ee54 fbbd 9d06 c2bc
00000270: b57e c6bd 7c02 cf3c c408 c6bc bb8f 0dbd
00000280: 444d b0bd 627d 333e 4443 323e bc0a 1abe
00000290: f36a 40bc edae 073e 0b14 b0bd f6c2 a13d
000002a0: ac6a 4c3e 8309 c43d 7083 06be 501a 2d3c
000002b0: 5734 523e 2551 d33d a31d 0c3d 70c9 d0bd
000002c0: 3cbd 1f3d ecc1 573b 2885 163e 70e1 ebbc
000002d0: 04be c3bd 8e7f 033e 8f3f 80bd 7830 50bd
000002e0: 33ef 67be 683d aa3d a31d 043e f825 433e
000002f0: 6e4e 34bd ff06 1c3e 82a6 4b3e e268 123e
00000300: f071 c0bc 3e27 17be 6c30 a3bd 61d5 c33d
00000310: 7fb8 a83d 6be6 823d 452f 9a3d 5e27 d43d
00000320: f5fb 813d a8c6 833c 0848 64bd 86a5 b23c
00000330: b9e6 8b3c 5ec0 69bc 710f 1cbe d8cf 3a3e
00000340: 05e4 dfbd 9a56 ea3d 1e99 173d 9a16 bdbd
00000350: d835 c8bc 987f 773d c3f0 bf3d 7aed 813d
00000360: 80b4 dc3d 8a6d 683d ba7d 94bb d631 71bd
00000370: 9ee9 e2bd 029b 58bd 4b33 173e b419 2f3e
00000380: b65e 2dbe 8b81 683d fb5c e23d 44cb 0b3d
00000390: d1ea 633d 705e e43c 5615 bbbd 5748 24be
000003a0: f077 62bd e054 e93d 8308 db3c 6d4a 15be
000003b0: a313 e9bd f396 bc3d 9974 fcba ce81 09be
000003c0: f917 ae3b b7c8 72bd 9231 9e3d 8c09 ad3d
000003d0: a415 c23d f53e 3dbd 644c ccbd 095d 1c3e
000003e0: d8ef 5bbd 206a 81bb 5a9a 17bd a483 0b3e
000003f0: fe06 863c 35a3 edbd 1b38 99bd 4bae 45be
0.118367076 0.005522236 0.07103783 0.09276063 -0.073465735 0.04293494 -0.06883616 -0.11649266
0.010292324 -0.057650305 -0.06754202 -0.11062724 0.117900096 0.0075081885 -0.056236103 -0.17711253
-0.073999755 0.11862984 -0.051878728 -0.089917205 -0.061894663 0.041503426 0.13731927 0.02277216
-0.04921687 0.15764105 -0.053330265 0.13397999 0.11090895 0.036318988 0.10395515 -0.07525892
0.12891796 0.10219706 -0.050789222 -0.10510129 0.056920066 -0.16077922 0.0035580078 0.17376876
0.08891825 -0.04055741 -0.16686593 0.013890326 0.021569267 -0.10747702 -0.118175514 -0.022478253
0.17118554 0.0465934 0.085261844 0.0011719125 0.013036513 -0.1356089 -0.05229113 -0.19363308
-0.05978433 0.10658543 -0.094469324 0.045842804 -0.052470583 0.15610397 -0.035914056 0.0012412833
0.08822729 0.08378262 0.07472116 0.0005905912 -0.02201575 0.015863024 0.06254869 -0.1408533
0.020751225 0.110024065 -0.0067675947 -0.047270693 0.11658449 0.18749708 0.21346007 0.123543695
0.10308575 -0.10525493 -0.0693407 -0.063183 -0.1239613 -0.18872705 0.019272989 0.08725004
0.01584959 0.17167385 0.0015673488 -0.036521774 0.062749 -0.058058836 -0.12409325 0.17111546
0.017508693 0.23277786 0.027709331 0.14073415 -0.083316885 0.15108912 0.1094816 -0.06437595
-0.09255855 -0.027097687 -0.080974214 -0.017190134 0.042064466 -0.05290094 -0.054001033 0.124654174
-0.18506286 -0.09765771 -0.0046009277 0.12022097 0.107662804 0.059849326 0.18878622 0.031948537
-0.11709879 0.04014314 -0.08347159 -0.055457607 -0.02984606 0.10816906 -0.10307832 -0.11749561
0.019489368 -0.04885646 -0.12527226 -0.06504603 0.11824755 0.12551135 -0.007500708 0.25071073
-0.009511535 0.19324258 -0.030194774 0.07647201 0.15960592 -0.05167342 0.09772373 0.032393143
0.018420001 -0.13683264 0.07593258 0.054949693 -0.103004165 -0.07446938 -0.004070528 0.09918249
0.039244685 -0.12268861 -0.122720584 -0.023684794 -0.09692136 0.02526974 -0.024174102 -0.0345609
-0.08608487 0.17528298 0.17408472 -0.15043157 -0.011744249 0.13250323 -0.08597573 0.07898514
0.19962567 0.09572127 -0.13136077 0.010565355 0.20527779 0.103182115 0.03420795 -0.10194671
0.038998827 0.0032921983 0.14699233 -0.02879402 -0.09557727 0.12841627 -0.06262123 -0.050827473
-0.22649841 0.083124936 0.1290193 0.19057453 -0.04402011 0.15237044 0.19887736 0.14297822
-0.02349183 -0.14761063 -0.0796822 0.09562183 0.08238315 0.06391605 0.07528547 0.10359071
0.06346885 0.016085938 -0.055732757 0.021807443 0.01707779 -0.014267055 -0.15240265 0.18243349
-0.10932163 0.11442299 0.03701126 -0.092328265 -0.024439737 0.060424417 0.093720935 0.06344123
0.10776615 0.05674509 -0.0045315893 -0.058885418 -0.11079715 -0.052882202 0.1476566 0.17099649
-0.1693066 0.056764167 0.11052891 0.034129396 0.05564386 0.027877063 -0.09134929 -0.1604322
-0.055290163 0.11393142 0.026737457 -0.14579172 -0.113806985 0.09208479 -0.0019260823 -0.13428423
0.0053129164 -0.059273448 0.077242985 0.084490865 0.09476784 -0.04620262 -0.09975508 0.15269865
-0.05369553 -0.0039494187 -0.037012435 0.13624436 0.016360756 -0.11603395 -0.074814044 -0.19304769

network.3.weight f4 [128, 256]
00000000: 33b1 53bd d083 9f3c 00c5 dc3c bf4e fe3c
00000010: e836 d7bc c05e b73a 0392 7c3c 004c 1d3d
00000020: ed55 df3c dc4e 46bd d4a9 59bd c714 363d
00000030: cbf9 db3b 9acf 40bd 8c79 723d 98f0 8fbd
00000040: a819 15bc 7634 45bd 02fe 453d e735 d13c
00000050: a0f6 e23c 8dde d0bc 0834 acbb 5ada 2bbd
00000060: 48bf 893c c93f 1bbd 98fd 093d d057 073d
00000070: 8f0a adbc 3a7b 563d 30ae aabc 36c0 393d
00000080: 55d5 b2bc 7b28 763c 00af 8639 d8db 38bd
00000090: e0ce 653b cb7d 8b3b 1fbf 36bd 91c3 58bd
000000a0: 4142 183c cbbd 3f3d ef55 85bd 4e6c 7dbd
000000b0: e4eb a2bc 3917 b7bc dca4 003a e8e0 073c
000000c0: b16b a83c 34dc 343d e28b e0bc 776e 40bd
000000d0: a51e 5cbd 90be 80bd 19b6 3bbd 8a89 343c
000000e0: 90a5 d6bb 2a26 e0bc 1688 f3bc 7c45 fc3c
000000f0: dcb8 b6bc 9b21 e1bc 28b5 4f3c ac13 fc3c
00000100: 2c46 4e3c 104e 6a3c 903d 773d acc5 69bd
00000110: 2cb4 f73c f639 e53c 13ed 9cbc f84f 56bc
00000120: a564 d13c e556 61bd 7638 1fbd edc4 36bc
00000130: 8480 653c 5b97 92bd bf39 8ebd 721c 81bd
00000140: 2440 043d 308f c9bb 901a 513c bc88 ca3c
00000150: 3c8e fbbc 5986 dbbc 48d5 293d c42a 3d3d
00000160: fcee 7b3d f780 99bb fab7 493d 1b6b 6cbd
00000170: 2012 90bc a843 e8bc a025 3cbd 913b 3f3d
00000180: 8f40 92bc ef57 ce3b 00d3 7fbc 943b 2ebb
00000190: 0288 443d 5aa3 84bb 3cd3 263d 01ff a23c
000001a0: 6ea4 753d 85e2 173c 75a0 a33c acba e1bc
000001b0: f692 9bbc 0e3b 7ebd 5a67 2b3d b0a5 f5bc
000001c0: 431c 16bd 6e46 02bd 0aae d4bc 7692 0e3c
000001d0: 4137 4cbd db81 85bd f406 873c 36e5 223d
000001e0: d4e7 623d 1891 a2bc d0ec b9bc 61ee 89bd
000001f0: 4a71 0f3d e7af 57bb 3095 5ebd 6e4d 12bd
00000200: 4af6 2f3d 60b7 afbc a6e7 2a3d 2057 75bd
00000210: cc43 dabc 86ef 71bd 6035 18bb e016 1b3d
00000220: 44a0 213d 2d76 82ba 18b3 e03c ece4 a7bc
00000230: 413c 1ebc 9acc 2fbd 92e4 f43a e80c 2e3c
00000240: cd8e 93bb c6b8 173d 0798 e6bc 6138 87bd
00000250: 846c 5cbd 3acf 433c b042 4fbd 74e4 183d
00000260: 9a5b 53bd 610c 9fbc a0c5 ecbc 1458 af3c
00000270: 80a1 ff3b 3d2e fbbb b79c 4bbd 001e f9bc
00000280: c08d 423d f566 153c 8f90 123d c51c 8ebd
00000290: 5e8f 0abd 749c b6bb 8c37 d8bc 98f7 2fbd
000002a0: f616 9c3c a075 84bd 1d20 86bc 0ec5 173d
000002b0: 04fd f03b 1668 bdbc 8c77 71bd bb22 7e3c
000002c0: 58e2 07bd 82b1 353d c65a ac3a fab1 343c
000002d0: c42f f23c b90f d93b edc3 06bd 44ed d7bc
000002e0: b692 91bc dc07 393d 70d9 a3bd 88ae ee3c
000002f0: 1367 233c c9e7 b63b 6c32 91bd a14a 42bc
00000300: 0290 763c d78d ce3c a82a 6dbd 81b1 1b3d
00000310: 544e 0ebd b496 12bc 389b 0e3d a6be 3cbd
00000320: e6eb 423d 2073 83bb b82a 73bd 607a 86bc
00000330: 8fc2 08bd 6292 43bd d19d 0cbd 7ced 3d3c
00000340: 61ab 0dbc 100a 2cbd 9cb0 1f3d ce3f adbb
00000350: aa52 2bbd f4a1 3cbd bb1a 373d 1570 8ebd
00000360: f24b 0ebd 7241 47bd 42e8 01bd 30e3 593c
00000370: f979 3f3d 181c 28bd 6a56 873c c06a 93bd
00000380: 9ae6 96bc 1899 64bd 85e1 52bc b6d6 623d
00000390: 5b0a 01bb a413 143b 8c25 95bd 00c4 5cbd
000003a0: 2a27 a8bc cacd 23bd bd15 0b3d 35b3 f2bc
000003b0: 2cf8 37bd 8e43 e3bc 928c 0fbd 8764 683c
000003c0: 8e60 583d 9128 3ebc 9100 983c 28e9 4dbc
000003d0: cf09 373d 2644 5fbd 8090 9ebc e229 48bd
000003e0: 016d 8bbc 80b1 6f3d 80d8 6e3b 49c5 bdbc
000003f0: d57a df3c fc40 4b3d 19dd 7fbd b225 52bd
-0.051682662 0.019472033 0.026949406 0.031043408 -0.026271299 0.001399003 0.015415671 0.038402557
0.027262652 -0.04841505 -0.053140476 0.04445341 0.0067131273 -0.047072984 0.059197947 -0.070283115
-0.009100355 -0.048145734 0.048337944 0.025538398 0.02770549 -0.025496745 -0.005255226 -0.041956283
0.016814843 -0.037902627 0.03368911 0.03304273 -0.021123199 0.05236361 -0.020835012 0.045349322
-0.02183024 0.0150243 0.00025688857 -0.045131534 0.0035065934 0.004256939 -0.04461586 -0.05292088
0.00929314 0.04681186 -0.06510531 -0.061870866 -0.019887872 -0.02234994 0.00049073785 0.008293368
0.020559164 0.044155315 -0.027410451 -0.046980347 -0.053740162 -0.06286347 -0.04582796 0.01101912
-0.0065504983 -0.027361948 -0.029727977 0.030794851 -0.022304945 -0.027481845 0.012677468 0.030771099
0.0125899725 0.014300838 0.060361445 -0.05707328 0.03023728 0.02798174 -0.019156015 -0.0130805895
0.025560686 -0.05501451 -0.038872205 -0.011155349 0.014007691 -0.07157775 -0.06944608 -0.06304254
0.03228773 -0.0061511025 0.012762681 0.024723403 -0.030707471 -0.02679746 0.041463166 0.046183363
0.06150721 -0.0046845633 0.04924772 -0.05771933 -0.017586768 -0.028352574 -0.04593432 0.046687666
-0.01785305 0.0062971036 -0.015614271 -0.0026585804 0.04798127 -0.0040477933 0.040728793 0.019896986
0.059971265 0.009270315 0.019973973 -0.027554832 -0.018990975 -0.062068038 0.04184661 -0.029986233
-0.036648046 -0.03180545 -0.025961895 0.008701911 -0.04985738 -0.065189086 0.016482808 0.039769374
0.05539687 -0.019844577 -0.022695929 -0.0673492 0.03502015 -0.0032911242 -0.054341495 -0.035718374
0.04295949 -0.021449745 0.041724823 -0.059897542 -0.026643656 -0.059066318 -0.0023225173 0.037863612
0.03945948 -0.0009953432 0.027429149 -0.0204949 -0.00965792 -0.042919733 0.0018683842 0.010623194
-0.004503107 0.037041448 -0.028148664 -0.0660255 -0.053814426 0.011951262 -0.050600708 0.037327245
-0.05160103 -0.019415082 -0.028902829 0.021404304 0.0078012347 -0.007665424 -0.04971 -0.030409813
0.047498465 0.009118785 0.035782393 -0.06939081 -0.03382813 -0.00557285 -0.026393674 -0.042960733
0.019053917 -0.06467748 -0.016372735 0.03705316 0.0073543806 -0.023120921 -0.0589519 0.01551121
-0.033174843 0.044358738 0.0013149611 0.011028761 0.029563792 0.0066241887 -0.032901693 -0.026358254
-0.017770153 0.04517351 -0.08000457 0.029135957 0.009973305 0.00558183 -0.07089695 -0.011858613
0.015048983 0.025214119 -0.05790201 0.038011078 -0.03474267 -0.008947063 0.034815997 -0.046080254
0.04758825 -0.0040115267 -0.05936691 -0.016415775 -0.03338867 -0.047747023 -0.034330193 0.011592265
-0.008646817 -0.042001784 0.038986787 -0.005287147 -0.04182688 -0.046052888 0.044703227 -0.06954972
-0.034740396 -0.048646398 -0.03171564 0.013298795 0.04674718 -0.041042417 0.016520698 -0.07198095
-0.018420506 -0.055810064 -0.012871151 0.055380546 -0.001969001 0.0022594715 -0.07282552 -0.053897858
-0.020526487 -0.039991178 0.033956278 -0.029626468 -0.04491441 -0.027742174 -0.035046168 0.014184124
0.052826457 -0.0116063515 0.018554958 -0.012567796 0.04468709 -0.05450835 -0.019356012 -0.048868068
-0.01701975 0.058518887 0.0036444962 -0.023165362 0.02728025 0.04962252 -0.062466715 -0.05130548

network.3.bias f4 [128]
00000000: d6fd 6dbd a4f2 1cbd b50b acbd c055 a8bc
00000010: dc92 953d 586a 9cbb 11af 283d b706 f43d
00000020: 5252 e83d ef89 7c3d fb45 59bc 1c3f 9f3d
00000030: 30a0 fbbb 30ec 84bb ce56 113d 9012 7cbb
00000040: c3ef 5e3d 6d35 dd3c ad4b acbd 8105 49bd
00000050: 6161 cbbc f4a5 70bd 10be b2bd 2367 ba3d
00000060: 4c9d 81bd adc4 15bd a59e 783d 7fcc dc3b
00000070: e2d8 a03d 4677 483d 6850 513b 1679 60bd
00000080: a5ea 743d 4193 443e a467 e5bb 34cf 89bc
00000090: 9e7d 2d3e 01aa a7bc c4c2 793c 0fbf 6abd
000000a0: ad08 cd3d e1f7 00bc b0ad bc3d 956d 233e
000000b0: 4f9e f7bc c1a9 ffbb e40c c9b8 77d7 b13c
000000c0: f8f2 833d 8e34 613d 5d89 e73d 891e 0d3d
000000d0: f5b7 71bd a6b3 cbbd b67d 483d a17c abbc
000000e0: fc45 bbbc 5a31 2c3d f606 8dbd 640d e83d
000000f0: 3d85 f6bb 7d2f 0dbd 208a abbc 1d3c 293e
00000100: 501c ee3d 6120 4bbd 96de aa3d 7f49 593d
00000110: 4207 92bc c70a 523d 51ee 25bd 5c98 173d
00000120: 3d9b d53a 62f0 b63d 47fd 823c 27b3 9abd
00000130: 6924 1d3e 937b 54bd 092a bcbd 87c4 8e3d
00000140: c9bd eb3b 6f26 68bb 45d6 86bd 1c99 2abb
00000150: 8016 7c3c bba5 c8bc bcaa ac3d edd5 5ebd
00000160: 77f0 2dbd 3367 3b3d 6fb1 143d 366d 16bd
00000170: b46a 8bbd 2c1b ad3d ca99 2d3d eaa2 c13d
00000180: 457f 0d3e 7369 173d 4699 1b3d 04b6 8f3d
00000190: 9404 833d 4a0c 7ebc 166c 40bd 66e5 c53d
000001a0: 13b0 c33c fa05 db3c 7680 fa3d 81b4 10bd
000001b0: 6fbb 673d ed71 093d 3e5e 68bd 9e8b 013e
000001c0: 211d 603d 4ee3 0dbc 03bb 9a3d 1830 483b
000001d0: 72b4 e7bb 5071 ba3b 2d14 6bbd a4b2 45bd
000001e0: 82fe a6bc 8574 73bc 7f9e 11bd 5285 e83c
000001f0: 518f c33d 9d0b 103e df3d 893c 09c0 1ebd
-0.058103405 -0.038317338 -0.084006704 -0.020548701 0.07303402 -0.0047734194 0.04118258 0.11915343
0.11343826 0.06165498 -0.013261314 0.07775709 -0.007679008 -0.004056476 0.035483174 -0.0038463213
0.054427873 0.027003014 -0.084128715 -0.049077515 -0.024826707 -0.058752015 -0.08727658 0.09101703
-0.0632883 -0.036564518 0.06069817 0.006738245 0.07853867 0.048941873 0.0031938795 -0.054802977
0.059794087 0.19196798 -0.0070008803 -0.016822435 0.1694245 -0.020466806 0.01524419 -0.057311114
0.100114204 -0.007871599 0.09212816 0.15959771 -0.030226855 -0.0078022187 -9.586828e-05 0.021709187
0.06442827 0.05498176 0.11305497 0.03445295 -0.059013326 -0.099463746 0.048948012 -0.020933451
-0.02286052 0.042039253 -0.06886093 0.11330679 -0.0075232075 -0.034469116 -0.020939887 0.16526838
0.11626494 -0.049591426 0.08343236 0.053048607 -0.017825726 0.05127981 -0.04051048 0.037010536
0.0016296875 0.08932568 0.015989913 -0.07553702 0.1534592 -0.051875662 -0.09187705 0.06971078
0.007194255 -0.0035423299 -0.065838374 -0.0026031202 0.015386224 -0.024493089 0.084310025 -0.054403234
-0.042465653 0.045752715 0.036302026 -0.036725245 -0.068074614 0.08452448 0.042382993 0.094549015
0.1381808 0.0369658 0.03798797 0.070171386 0.063973576 -0.01550586 -0.04697808 0.09662895
0.02388767 0.026736248 0.12231533 -0.035328392 0.056575235 0.033555914 -0.0567305 0.12650916
0.05471528 -0.008660151 0.07555201 0.0030546244 -0.0070710713 0.0056897774 -0.057392288 -0.048266068
-0.02038503 -0.014859323 -0.035551544 0.028383885 0.0954882 0.1406693 0.016753135 -0.038757358

network.6.weight f4 [64, 128]
00000000: 93b9 50bd 3c00 373d 4979 c9be c11e d3bc
00000010: c0a3 df3c bad1 ef3c 8c6d 2b3d c849 983d
00000020: 25f4 df3d 7f0a 883d 0504 903d dc20 533d
00000030: 9683 d43c b48d f7bc 3727 1abd cf51 5a3d
00000040: 90c0 373d 339a 92bc 3e87 223d c51c d2bd
00000050: f7ae b13d a4ad 9f3d 9683 24be 5c99 6abc
00000060: d610 4c3d 3a51 8b3d 17a0 493d b408 5cbd
00000070: 3469 053e e6a0 94bc 80e4 353c e927 74bd
00000080: f0de 813e 443d 573e 0028 3f3e 2f8d fa3c
00000090: 4213 2c3e 5d2c 12bd 5fd0 953d bdee 86bd
000000a0: 1b53 073c e47f 0b3e 2757 393e a8dc 30bd
000000b0: 9f81 41bd c517 ccbc dacb cb3b c4bb 87bc
000000c0: dfb5 8b3c 25da 563e 4396 733e 42a5 203e
000000d0: 04d8 c1bb e46d b8bd 2a93 24bd 8132 30be
000000e0: 14e5 bbbd 949a 033e 62ea 523d 8fc9 553d
000000f0: 1fc0 e9bd b427 16bd 8616 40bd e612 4ebd
00000100: 5e6c 403d ca58 37bd 3bc4 eb3d ff7a 5dbd
00000110: 990e 41bd 28ce a3bd 2e39 9a3d 83ff f2bd
00000120: a3b9 993d b1ee 023e d02a 12bd cc42 50bb
00000130: e29c 973e bd89 90bd ab68 d5bd 5c31 adbc
00000140: 7bec a939 cc17 e73c e48e 8fbc 9ba5 c63d
00000150: 88a2 3fbd dbfd 413d 3ab2 a83d 791b 62be
00000160: b93d 72bd f166 953d e203 c7bc b112 66bc
00000170: 31b3 70bd 27f3 dbbc 1580 0e3d 29d8 463e
00000180: 3479 e5ba 2fd1 a13d e62b c73c 3698 2abe
00000190: ea61 4e3b 90a2 3cbd e2d4 51bd 3dbd 06be
000001a0: edde 3f3d 0808 eeba e53d 303c f6b7 34be
000001b0: 1e52 90bc 4f1d b93d 34de 8a3d 545b 683d
000001c0: b5f4 ed3d 92b8 b4bd f814 493e ae45 6b3d
000001d0: cf6c a4bd d45f 05bd 203e 52bd cb09 fa3d
000001e0: dc09 f73c 4216 8f3d ef4e bcbd 0e8e 1abd
000001f0: b5a9 9d3e 44ad 123e 6ea2 65bd 9d5f 513d
00000200: 91e2 a03d 81d4 f2bd fec1 33be 9728 b13d
00000210: fcb2 f5bc 13a8 8cbd f9c1 44bd 7e26 f13d
00000220: 94ed 153e dd81 363d 7f76 cabc 1b52 f93d
00000230: d694 a9bd 83af eabc 182e 8a3c c852 d2bd
00000240: c7c8 f43d 35c6 923d 7b13 063d 754e 7abd
00000250: 9732 8a3d 146a 463c ed15 6cbe 6f4e d2bd
00000260: 7e58 473d 3f82 86bc 5990 f03b 4a9e 0a3d
00000270: 6077 e5bc 5865 833d bfe2 87bd c1a2 afbd
00000280: f19f 473e 9c57 313e 3337 fd3c c6f5 70bd
00000290: 8dcb 973d 734a c0bd 6b5e 31bd 9076 f43b
000002a0: 4fb8 51bd 3df4 b83d b8a8 ab3d 9e83 1b3e
000002b0: 605c b43b c70c 74bb 7cb9 d0bd 7560 833c
000002c0: 2cf5 7bbc f52c b33c 5295 423d 6e4a c83b
000002d0: 8101 9d3d afa2 42be 5919 1cbd 6281 8dbd
000002e0: f9ae 07be c398 da3d 2e0c 92bd 62d2 193e
000002f0: 0219 c2bb b858 f0bc b797 25bd 678e 8a3d
00000300: 1e17 a7bd 75f0 af3d 5152 5d3e 6187 9f3c
00000310: ae27 25bc 44bf 84bd 03c7 823d 5fe5 2abe
00000320: 6a1c 4a3d fcc8 e43d d60c 923c f32f 2bbd
00000330: 1d19 cc3e eccc a9bc e100 cdbd 6173 f53d
00000340: 196d 42bd 0dd1 52bd e599 b0bd 511c 4d3d
00000350: 9f36 debd efcf 93bd b13b 1e3e fae3 f8bd
00000360: 10d5 eebb be63 233e 5489 4fbd 5bd4 38bd
00000370: 4205 773d 1f16 14be 3384 483d 965a 2a3a
00000380: 7ec1 ab3d cd34 9abd 1265 1e3b bf96 59bd
00000390: 661d 27bb 01d2 9b3d 9fc7 e93b ad79 813c
000003a0: 649e 59bd 9d56 9e3d 7b08 c63d 323c 8dbd
000003b0: 5e9e 533d 706b 2c3e 3bab 563b 8713 633b
000003c0: 938b 88bb 0a1c a63c 4675 bc3c e578 2cbd
000003d0: 404f f93c d99b 70bd e931 933d b998 debd
000003e0: c563 51bd 70da b13b 7a07 93bd ba86 863d
000003f0: 684d 193e 91fd 1b3d f8ea dd3c ae29 6abd
-0.050958227 0.044677958 -0.39350346 -0.0257715 0.027299762 0.02927481 0.04185252 0.07435948
0.10935239 0.06642627 0.07032017 0.05154501 0.025941651 -0.030218937 -0.037635054 0.053300675
0.044861376 -0.017895794 0.03967976 -0.102593936 0.0867595 0.07796791 -0.16065821 -0.01431879
0.049820744 0.06802602 0.04922494 -0.053719237 0.13028413 -0.018143129 0.011101842 -0.059608374
0.253654 0.21019465 0.18667603 0.0305849 0.16804221 -0.03568684 0.07315134 -0.065885045
0.00825956 0.13623005 0.18099652 -0.043179184 -0.047242757 -0.024913678 0.0062193694 -0.016569026
0.017054496 0.20981653 0.23787789 0.15688041 -0.0059156436 -0.09005335 -0.04017941 -0.17206766
-0.091745526 0.12851936 0.051493056 0.052194174 -0.11413597 -0.036658958 -0.04689648 -0.05031099
0.046978347 -0.04476241 0.11512037 -0.054072376 -0.047133062 -0.079983056 0.075304374 -0.11865141
0.075061105 0.12786366 -0.03568536 -0.0031778095 0.2961188 -0.070575215 -0.104203545 -0.0211417
0.00032410384 0.02820959 -0.01752419 0.096995555 -0.04678586 0.047361236 0.08237119 -0.22080792
-0.059140895 0.07295025 -0.024293844 -0.014042542 -0.05876464 -0.026849343 0.034790117 0.19418396
-0.0017507435 0.07901227 0.024312925 -0.16659626 0.0031491467 -0.04605347 -0.05122841 -0.13158126
0.046843458 -0.0018160352 0.010756944 -0.176483 -0.017617282 0.09038793 0.06780663 0.056727722
0.1161894 -0.088242665 0.19636905 0.0574395 -0.08028566 -0.032562092 -0.05132878 0.12208899
0.030156069 0.06986667 -0.09194743 -0.03773313 0.3079354 0.14323908 -0.05606311 0.051116575
0.07855714 -0.11856938 -0.17554471 0.0865032 -0.029992573 -0.06867995 -0.04803655 0.1177492
0.1464141 0.04455744 -0.024714706 0.121738635 -0.08280341 -0.028648144 0.016867682 -0.102696955
0.11952358 0.07166711 0.03273342 -0.06110998 0.067479305 0.012110252 -0.23055239 -0.10268866
0.048668377 -0.016419528 0.0073414263 0.033842362 -0.028011024 0.06415814 -0.06635045 -0.08575965
0.19494607 0.17318577 0.03091011 -0.058828138 0.07411871 -0.093892 -0.043302935 0.007460423
-0.05120116 0.0903096 0.0838179 0.15186927 0.005504176 -0.0037239061 -0.10191628 0.016037205
-0.015378278 0.021872023 0.047505684 0.0061123883 0.076663025 -0.19007371 -0.03811011 -0.069094434
-0.1325034 0.10673668 -0.07131229 0.15021661 -0.0059233913 -0.02933918 -0.04042789 0.06765442
-0.08158706 0.085907854 0.21613432 0.019473733 -0.010080261 -0.064817935 0.06385615 -0.1668906
0.049343504 0.11171147 0.017828386 -0.041793775 0.3986291 -0.020727597 -0.10009933 0.119848974
-0.047467325 -0.051468898 -0.08623103 0.050075833 -0.10850262 -0.072173946 0.15452458 -0.12152858
-0.0072885826 0.15956017 -0.050668076 -0.045124393 0.06030775 -0.14461564 0.0489542 0.00064984837
0.08386515 -0.07529602 0.002416913 -0.05312228 -0.00254997 0.076084144 0.0071343924 0.01580509
-0.05312957 0.07731364 0.09669586 -0.06896247 0.051664703 0.16837859 0.003275587 0.003464909
-0.004167029 0.020277042 0.02300514 -0.04210748 0.030433297 -0.058742378 0.07187254 -0.10868973
-0.05112054 0.005427651 -0.071791604 0.06568666 0.14970934 0.038083617 0.02708958 -0.057168655

network.6.bias f4 [64]
00000000: 0139 3a3d 9e27 8e3d 337c da3d f4b3 5b3c
00000010: 006d 0abe 5359 af3b 9ba4 0d3e 12cb 943d
00000020: 3c62 583d 481b 1abb 8960 cdbd ecb3 013e
00000030: da25 d0bc 8325 a63d 7be2 633d d937 323d
00000040: c1d3 59bd 6171 8b3d d983 053e ba6f b6bd
00000050: 84b0 173e d904 8abd 5ce6 c3bd 345b 86bd
00000060: d563 d6bc 99ab 0f3e c554 c6bd bf9f 29bd
00000070: b67c 043e d0ed 8b3b 8931 1fbd 2cc0 2bbd
00000080: 204b 16bd 8f4a d7bd 87a8 0abe c3d3 523d
00000090: 6e4e 273e c569 3cbd 5902 363c 09ab a53c
000000a0: 648a 22bd c32a 2d3d cd6d 05bd c1c0 b7bc
000000b0: 88a2 bd3d d359 673c 5409 35bd aff1 243d
000000c0: 4100 9e3d eab3 343d 4bb1 1cbd 2b99 3fbd
000000d0: 7e69 7bbb 692b 963d b653 523e 44d5 823c
000000e0: 2ff0 ec3b 8d3f 083e 0cdc cabd 9765 a53b
000000f0: f793 b9bc 08e5 76bd 4512 373e 098d 05be
0.04546452 0.0694115 0.1066822 0.013409603 -0.13518143 0.0053512244 0.13832323 0.07265295
0.05282806 -0.0023514796 -0.10028178 0.12666291 -0.025408674 0.081126235 0.05563591 0.04351029
-0.05318046 0.06808735 0.13038577 -0.08908029 0.14813429 -0.06739206 -0.09565422 -0.06560364
-0.02617065 0.14030303 -0.09684137 -0.04141211 0.12938198 0.004270293 -0.0388656 -0.041931316
-0.03669274 -0.10512268 -0.1354085 0.051471483 0.16338512 -0.045999307 0.011108958 0.020223157
-0.03968276 0.04227711 -0.032575417 -0.02243078 0.09259516 0.014120537 -0.04419835 0.04026955
0.07714892 0.044116892 -0.038255017 -0.04677693 -0.0038362439 0.073324986 0.20539746 0.015970834
0.0072307806 0.13305493 -0.09905252 0.005047511 -0.022653563 -0.060277015 0.17878063 -0.13042082

network.8.weight f4 [6, 64]
00000000: 518d 383e c2e1 0d3e f663 2f3e ec3a cbbd
00000010: 82e2 dcbe 26ed 893d 2bd8 05be 3ca5 443e
00000020: 9468 563e b95f 95bd 025d 86bd 38d3 88be
00000030: 9967 6ebd 8199 b83d 9b1f f23d c315 4f3e
00000040: f922 36be d2d4 823d dc3e 63be ddbe 2abc
00000050: a727 b1bd fc30 86be 3a71 cc3d fb13 253e
00000060: 846b a03d fc56 0ebe 5c6a 7fbd a81f 67bb
00000070: f863 363d a585 71be c675 c33d 942f a9be
00000080: 6160 60bd 364d b7be 180a 8fbe a3b1 1b3e
00000090: 3528 433e 00fd 203d 8607 4ebc 91b1 203e
000000a0: 154e b0be acb2 38be 7b97 8bbc e1e4 6bbe
000000b0: 20fa 773e 1513 15be bb6e bebb 566a 4f3e
000000c0: f7df 3e3e 5a9b 4b3d 08a9 86bc 9140 7fbe
000000d0: b0ce 9bbc acb2 38be 4f75 8f3d e6ac a43d
000000e0: daf4 85be 9bd1 683d 26da 90be fc3a 153d
000000f0: 1e85 213e fc0c 803d 90c5 fabc 2c4c bdbe
00000100: f6a8 5d3e debd 1a3d fcc0 afbd 21fa 533e
00000110: a532 3c3c afb5 bc3c 6f54 75be e666 e83d
00000120: 0146 bcbc e395 173e 2cc1 753d 431a c3be
00000130: e99f 563e 338a bb3d b1b0 3bbb 5cf0 8ebd
00000140: 4d74 653e 12c8 613c c9ed 93be d412 133c
00000150: 3374 b0be ced8 a4be 2c89 78bc 4ea6 fcbd
00000160: 4c29 6fbc b86c f5bc b4ad 753d e094 2abe
00000170: 93eb 97bd edbd 15bd 0692 e0bc 53be 96bc
00000180: f261 a23d 4351 a83b 9161 123e d78a 553e
00000190: b692 d1bc ca5b 88bc 624d efbd 3db2 11bd
000001a0: a0c0 37be 48e4 bc3d 2df2 a7be 5bb5 983d
000001b0: dfd2 6f3e a6b9 c5be 1b58 343d 259d 533e
000001c0: 82c3 8abe ef6c 01be a23b 603d cb7a cbbe
000001d0: a1e5 45be 07ab cdbe 8c82 a1bd 727c 243e
000001e0: 60f5 bcbb 0637 adbe 4c96 0f3e 4812 bfbd
000001f0: dc4b a73c eecb c1bd 923f 91be 8c41 f73d
00000200: bacd dcbd 04fe 0dbe bd05 0ebb 2a10 0c3e
00000210: dff4 0dbe d72b 31be 0e12 7ebe 3606 86be
00000220: 400a d2bd f803 9c3d 24f3 3cbc c24e 13bc
00000230: 6251 de3d 2a7d 223e 0270 34be fab3 9fbe
00000240: 6cf2 2f3e daf5 553e db3c b1bc 14ed cc3b
00000250: 96e8 3cbd 6382 4a3c 9a4e e9bd 5806 34bd
00000260: 19ef 3ebd e56d 2fbe 09a3 1a3d 46e7 cebc
00000270: 3a4e 003e 74a5 b4be f806 e13b 8901 183e
00000280: 9a21 8d3d a31f c03d e053 9439 9dce 243e
00000290: 16fc 36be d901 eebd 006f bcbe 8be9 f73d
000002a0: 965c 183e 297b 8e3d ffd4 69bc 7b6e 9a3d
000002b0: 1559 a7be 23f3 113e 8845 a23d ff9b eb3d
000002c0: f160 35be 64ce a3bd 0641 f1bd 625a de3d
000002d0: a913 8fbe 7603 b2bb 326e 88bd dd57 2c3d
000002e0: b5ad d03d 8dee 9abd b280 473d 0037 c13d
000002f0: c4e6 fc3b 6c9f f53c 7a40 2ebe 0350 553d
00000300: c2d9 79be 30b7 9fb8 cfa2 8abe dd4c 3f3e
00000310: 5e8b 3c3d 1ca6 c93c 82f1 673d cec9 3fbe
00000320: 7f15 1dbe 65d4 a23d 55ae abbc 8041 de3c
00000330: eca5 d1bd 2450 6dbe 39b4 0c3c af72 6f3e
00000340: 95e5 47be 73ba 36be b759 9abc 79d2 cabd
00000350: 3f36 2d3d 65bb 393e 8cb7 28bb 3034 58be
00000360: b7dd c73d 474a a53b c41f 22bc 9462 613d
00000370: 9b3f ab3d a505 cf3d 6577 36bd fd7f 2f3e
00000380: 1faa c3bd 95e5 0d3d 2d7f 2d3e ea68 60be
00000390: daa2 b23d 0592 353b 9285 943e c22a 44be
000003a0: 1d48 073e d6c6 963c 4269 37bb 18b8 ae3d
000003b0: 2608 0cbe 661a 413e a99d 863d 1e1a 65be
000003c0: a604 07be 86d3 d7bc 95db 48be 0d11 323e
000003d0: 812f 043e 0d78 6cbd 17a5 51be 39f5 27be
000003e0: ba83 8dbc a7d9 163e 5272 113e bf97 4a3d
000003f0: e9da 40be 42a7 133b 7fc6 ffbd 3ed4 073e
0.18022658 0.13855651 0.17127976 -0.09923348 -0.43141562 0.067346856 -0.13070743 0.19203657
0.20938331 -0.07293648 -0.065607086 -0.26723647 -0.058204267 0.090136535 0.118224345 0.20223145
-0.17786779 0.063882485 -0.22191948 -0.010421482 -0.08650141 -0.26209247 0.09982534 0.16120903
0.07833007 -0.1390037 -0.06235729 -0.0035266671 0.04452893 -0.23586138 0.09543948 -0.33044112
-0.054779414 -0.35801095 -0.27937388 0.15204482 0.19058307 0.03930378 -0.012575036 0.15692736
-0.34434572 -0.18036908 -0.017040005 -0.23036529 0.24216509 -0.1455806 -0.00581154 0.20255408
0.18640123 0.0497087 -0.016438022 -0.24926974 -0.019019455 -0.18036908 0.07004797 0.0804079
-0.2616337 0.05684052 -0.28291434 0.036433205 0.15773436 0.062524766 -0.030611783 -0.36972177
0.21646485 0.037778728 -0.08581731 0.20700885 0.011486684 0.023035852 -0.2395799 0.11347751
-0.0229826 0.14803271 0.059998676 -0.38105974 0.20959438 0.09157219 -0.0028639252 -0.06979439
0.22407646 0.013780611 -0.28892353 0.008976657 -0.34463653 -0.3219666 -0.015169423 -0.123364076
-0.014597248 -0.029959068 0.05998011 -0.16658354 -0.07417979 -0.03655808 -0.02741338 -0.0184013
0.07928838 0.0051366403 0.14295031 0.20853744 -0.025582653 -0.016645331 -0.116846815 -0.035570372
-0.17944574 0.09223229 -0.32801953 0.07456466 0.23420285 -0.386182 0.044029336 0.20665415
-0.27102286 -0.12639211 0.05474437 -0.3974212 -0.19325878 -0.40169546 -0.07886228 0.16063097
-0.0057665557 -0.33831042 0.14022177 -0.09329659 0.020421915 -0.094627246 -0.28368813 0.12073049
-0.10781427 -0.1386643 -0.00216709 0.13678041 -0.13862942 -0.1730188 -0.24811575 -0.26176614
-0.10255861 0.076179445 -0.011532579 -0.008990945 0.10855366 0.15868059 -0.17620853 -0.31192
0.1718232 0.20894566 -0.021635463 0.006253848 -0.04612025 0.012360188 -0.11391945 -0.043951362
-0.04661474 -0.17131765 0.03775314 -0.025256764 0.12529841 -0.3528248 0.006867286 0.14844336
0.068911746 0.09381034 0.00028291252 0.16094442 -0.178696 -0.11621446 -0.36803436 0.12105092
0.14879069 0.06957085 -0.014271974 0.07540604 -0.32685152 0.14252906 0.07923418 0.11504363
-0.17712761 -0.0799835 -0.1177998 0.10857083 -0.27944687 -0.0054325415 -0.06661643 0.04207598
0.10189382 -0.07565031 0.048706718 0.094343185 0.007717939 0.029983245 -0.17016783 0.05207826
-0.24399474 -7.615832e-05 -0.27077338 0.18681665 0.04603135 0.02461534 0.056626804 -0.18729326
-0.15340231 0.07950667 -0.020957151 0.027130842 -0.10236725 -0.23175102 0.00858789 0.23383592
-0.19521172 -0.17844562 -0.018841607 -0.09903426 0.04228806 0.18137892 -0.0025744168 -0.21113658
0.097590856 0.005044255 -0.009895269 0.055025652 0.08361741 0.101084985 -0.044547457 0.17138667
-0.095539324 0.034642775 0.16943045 -0.21915022 0.08722468 0.0027705443 0.29008156 -0.19156936
0.13211103 0.01840536 -0.0027986323 0.08531207 -0.13674983 0.18857726 0.0657304 -0.22373244
-0.13185367 -0.02634598 -0.19615014 0.17389317 0.12908746 -0.057731677 -0.20473133 -0.16402139
-0.017274726 0.14731465 0.14203766 0.049461123 -0.18833508 0.0022530113 -0.12489032 0.13264558

network.8.bias f4 [6]
00000000: a68d 21bd 87d6 ffbc c8f2 14be c41a 483c
00000010: 4ab5 963d 4b26 7d3d
-0.039441727 -0.031230224 -0.14545739 0.012213413 0.07358797 0.061804097
