gesture_recognization/Step_2/models/hand_gesture_model_20250703_003822.pth (torch, 827122 bytes, 10 tensors)

network.0.weight f4 [512, 63]
0.106705144 -0.094631046 0.018403247 -0.04081001 0.027533278 0.03626962 -0.056332678 -0.022548176
-0.064421706 0.05315575 0.10468903 -0.08340022 -0.112904675 -0.07532325 -0.083488725 -0.08171126
-0.08388405 -0.105155446 -0.12057334 0.016892016 -0.11851592 0.074638456 -0.12148423 -0.010318413
-0.07557368 -0.07739577 0.040615156 -0.01178886 0.10605493 -0.0801264 0.032165527 0.09789422
0.01880154 0.09808433 -0.027295262 0.07031223 -0.048356302 -0.061688058 -0.04731798 -0.04563389
0.030290022 0.103685886 0.11556703 -0.08625762 0.06506878 0.11639303 -0.0012780055 0.06466949
-0.106290326 0.018662304 -0.02030269 -0.11786249 0.06683457 -0.06251897 0.061535835 0.08662018
0.011804834 0.026134655 -0.0033511668 -0.09125233 -0.045665115 -0.08202578 -0.10724113 -0.062528215
0.09484824 0.13853237 0.042410307 0.09807027 -0.18378754 -0.011928305 0.025174333 -0.10778445
0.11951157 0.055505805 -0.08488319 0.13939117 -0.013013506 0.040396247 -0.076740764 -0.023298586
-0.1893854 0.076610714 -0.09196633 0.24753605 0.08254766 -0.16443896 0.09263955 -0.029754061
-0.240062 0.19898237 0.08979136 0.06859102 0.074812956 -0.049791668 -0.0027541476 0.08926149
-0.10399379 0.023982452 0.07476515 -0.00085961726 0.0385262 0.048648614 -0.05959043 -0.12864119
0.16916323 0.11611585 0.042032488 0.12384931 0.07266377 0.124760084 0.004914833 -0.09025542
-0.0035390847 0.17518204 0.10905148 -0.029369237 -0.0076569724 0.035163354 -0.14394924 0.044313226
-0.06222007 0.039642945 0.12023856 0.0842998 0.0031411266 0.12364455 -0.037394136 -0.12302339
0.026280912 0.0915895 -0.014691417 -0.012309447 -0.079379216 -0.09459595 0.049398895 -0.04957152
0.08829454 -0.13817538 -0.08397333 -0.08163821 0.08442618 0.0067611383 -0.15245467 -0.015730629
-0.084644265 -0.12613365 -0.07245603 -0.052727323 0.009158443 -0.16873129 -0.099308975 -0.04449545
-0.21699439 -0.07312716 0.002211228 -0.09811433 -0.02154111 0.0036615226 0.010355589 -0.015307709
-0.18032753 -0.0957396 0.120982364 -0.26273432 -0.13843799 0.0773324 0.013126332 -0.19209477
0.06497818 -0.07928305 -0.1433993 0.047460858 -0.10688198 -0.030431952 0.104306184 -0.023549573
-0.09914388 0.1074906 0.03453695 -0.056126688 0.027188675 0.05087624 -0.017619332 0.08581139
-0.06127987 -0.0051801815 0.07041947 0.12709914 -0.03543173 0.09274539 0.058643147 0.11362266
0.0045213336 -0.10386929 0.06872548 -0.16935435 0.09713288 -0.16070569 -0.17464283 -0.10513359
-0.16063152 0.011566737 0.071866095 -0.15665863 0.0035475532 -0.13786641 0.15865012 -0.053355657
0.09612493 -0.25835013 0.0133496905 -0.060708717 -0.116505966 -0.05159946 0.0023398763 -0.077009805
0.08759346 -0.06796321 -0.06822712 0.033651486 -0.06273489 -0.054230973 -0.038740654 -0.021036772
-0.14100368 0.12417624 -0.1240631 -0.096913 -0.10154482 -0.0056338673 -0.098744 0.10656976
-0.20239708 0.022445984 0.047071517 -0.15988697 0.04320075 0.1483489 -0.24722661 0.08622635
0.0882807 -0.0025891238 -0.10545858 -0.09359119 -0.1633202 -0.1893499 0.09447333 -0.18985425
-0.019949032 0.12361927 -0.025271052 -0.0069145695 0.09740767 -0.10338752 0.08358127 0.0045937
00000000: 3a88 da3d eccd c1bd 68c2 963c 6628 27bd
00000010: 788d e13c 748f 143d 18bd 66bd f4b6 b8bc
00000020: 87ef 83bd d8b9 593d 3467 d63d bccd aabd
00000030: 913a e7bd 1343 9abd 23fc aabd 3c58 a7bd
00000040: 67cb abbd bd5b d7bd 28ef f6bd 2061 8a3c
00000050: 7ab8 f2bd 0cdc 983d b9cc f8bd 900e 29bc
00000060: 60c6 9abd ac81 9ebd 145c 263d 1026 41bc
00000070: 5433 d93d 4f19 a4bd 00c0 033d c47c c83d
00000080: b005 9a3c 70e0 c83d 509a dfbc dcff 8f3d
00000090: 4211 46bd 9eac 7cbd 80d0 41bd 9aea 3abd
000000a0: c822 f83c 4459 d43d 68ae ec3d d6a7 b0bd
000000b0: c842 853d 785f ee3d c082 a7ba 7071 843d
000000c0: beae d9bd b0e1 983c d451 a6bc e461 f1bd
000000d0: 90e0 883d f209 80bd 000d 7c3d ec65 b13d
000000e0: 1069 413c 5818 d63c 409f 5bbb 80e2 babd
000000f0: 580b 3bbd 22fd a7bd 3da1 dbbd cb0e 80bd
00000100: cb3f c23d 6edb 0d3e 6eb6 2d3d 11d9 c83d
00000110: cd32 3cbe f06e 43bc 673a ce3c 18be dcbd
00000120: 7bc2 f43d 0e5a 633d 3dd7 adbd 8fbc 0e3e
00000130: 9a36 55bc 8976 253d 432a 9dbd addc bebc
00000140: 3fee 41be 14e6 9c3d d858 bcbd 177a 7d3e
00000150: bf0e a93d b062 28be ceb9 bd3d cabe f3bc
00000160: d0d2 75be 09c2 4b3e 88e4 b73d 7379 8c3d
00000170: 8937 993d 59f2 4bbd ee7e 34bb bace b63d
00000180: b2fa d4bd d976 c43c 791e 993d f057 61ba
00000190: a6cd 1d3d c543 473d 1815 74bd 84ba 03be
000001a0: 2039 2d3e 26ce ed3d 422a 2c3d b5a4 fd3d
000001b0: bed0 943d 3782 ff3d 9c0c a13b d5d7 b8bd
000001c0: fdef 67bb ec62 333e 6256 df3d c197 f0bc
000001d0: 57e7 fabb 7307 103d 6e67 13be c981 353d
000001e0: 79da 7ebd a460 223d a23f f63d 60a5 ac3d
000001f0: 5cdb 4d3b 5b39 fd3d 982a 19bd b0f3 fbbd
00000200: 114b d73c 4793 bb3d 45b4 70bc 90ad 49bc
00000210: 9291 a2bd 85bb c1bd 7f56 4a3d 820b 4bbd
00000220: c5d3 b43d d97d 0dbe 36fa abbd ef31 a7bd
00000230: a2e7 ac3d 8a8c dd3b 141d 1cbe 85dd 80bc
00000240: f959 adbd 2e29 01be d463 94bd 9bf8 57bd
00000250: 4b0d 163c e5c7 2cbe 8162 cbbd dc40 36bd
00000260: c733 5ebe b1c3 95bd 40ea 103b 2af0 c8bd
00000270: fb76 b0bc 28f6 6f3b 7daa 293c 2fcd 7abc
00000280: c8a7 38be 2013 c4bd 9ac5 f73d 1d85 86be
00000290: b0c2 0dbe 7360 9e3d d40f 573c 7eb4 44be
000002a0: 4813 853d 275f a2bd 44d7 12be 5166 423d
000002b0: f1e4 dabd 6e4c f9bc 7b9e d53d 09eb c0bc
000002c0: f20b cbbd 0824 dc3d 9e76 0d3d 19e5 65bd
000002d0: c9ba de3c 9b63 503d 6b56 90bc e2bd af3d
000002e0: 9a00 7bbd 83be a9bb 1538 903d 4726 023e
000002f0: dd20 11bd 4cf1 bd3d cc33 703d ffb2 e83d
00000300: b227 943b 6cb9 d4bd f2bf 8c3d 3a6b 2dbe
00000310: 9aed c63d 0890 24be 92d5 32be 4850 d7bd
00000320: 977c 24be 6982 3d3c 882e 933d 1f6b 20be
00000330: 117e 683b da2c 0dbe 2d75 223e 768b 5abd
00000340: 26dd c43d 7846 84be a9b8 5a3c b4a9 78bd
00000350: ae9a eebd f559 53bd 9c58 193b 51b7 9dbd
00000360: 3364 b33d 4c30 8bbd a9ba 8bbd 24d6 093d
00000370: 267b 80bd 4c21 5ebd 85ae 1ebd 4f55 acbc
00000380: 4563 10be 1d50 fe3d cb14 febd 537a c6bd
00000390: bbf6 cfbd 4e9c b8bb 4b3a cabd 3f41 da3d
000003a0: 2e41 4fbe a4e0 b73c 10ce 403d 69b9 23be
000003b0: 45f3 303d c6e8 173e f928 7dbe 7197 b03d
000003c0: 83cc b43d 4aae 29bb abfa d7bd bdac bfbd
000003d0: 693d 27be f1e4 41be 3c7b c13d 2769 42be
000003e0: 276c a3bc 1a2c fd3d 3d05 cfbc 9d93 e2bb
000003f0: ac7d c73d d6bc d3bd a82c ab3d c086 963b

network.0.bias f4 [512]
-0.0037651658 -0.09316815 0.14133815 0.1621345 -0.06987594 0.015421968 0.07539897 0.038139526
0.14264502 -0.15964578 0.033684913 0.08614442 -0.05535068 -0.07843139 -0.077996515 0.032399938
-0.08528462 0.00042869226 0.09330328 -0.0062218755 0.0033259843 -0.016552199 0.05752261 0.11338064
-0.11263121 -0.11922472 -0.11015179 -0.18824948 -0.07090473 0.08992477 -0.07165144 -0.084447116
-0.03361915 -0.041636296 0.09737832 0.015662344 0.051923048 0.04672249 -0.026032971 -0.009997646
-0.0054749204 -0.0042081494 0.018523883 0.045146033 0.053718098 0.13508968 -0.11423212 -0.06029284
0.14810023 -0.11863112 -0.0929279 -0.07229217 -0.011479653 -0.013670042 0.18246649 -0.041987684
0.14524649 -0.009462766 -0.08615349 -0.11794142 0.049608845 0.033305153 0.10526654 -0.08761952
-0.086990155 0.090694875 -0.054049134 -0.029740166 0.081236616 0.02086551 0.0060462207 -0.10593227
0.095982626 0.041735142 -0.123961605 0.0988087 -0.048541605 0.044401072 -0.0067230873 -0.113891706
0.11477383 -0.0045838603 0.10744742 0.07388103 -0.20937003 -0.042581916 0.13731503 -0.08641658
-0.13740304 0.16559185 0.029756641 -0.072523914 -0.0065305787 0.07947378 -0.017825881 -0.064622685
0.007384196 -0.026127644 -0.030563246 0.11117972 -0.14415517 -0.009390227 0.055689782 0.012371711
0.13648595 -0.100325786 0.073144756 -0.09805384 0.068291895 0.13579957 -0.0056665316 0.05570959
0.14767931 0.120923206 -0.009304877 -0.08671639 0.01908126 -0.02249229 -0.03056831 -0.07335872
-0.1247593 -0.003377143 0.14540435 0.1465493 0.0057869256 -0.11026259 -0.113995746 0.047615167
0.0163697 0.01490517 -0.048503343 -0.15909533 -0.0027863244 -0.08802152 0.035281833 -0.08117922
-0.065581284 -0.1141559 -0.100324675 -0.042531755 0.002917171 0.0069964468 0.1050499 0.043870255
-0.04405117 -0.11913769 0.13426767 -0.004019094 0.015009835 0.025981085 0.048337415 0.14919403
-0.08536276 0.06821334 -0.08931938 -0.015340791 -0.07165627 -0.0041493913 0.08093552 -0.09968248
-0.07058047 0.12884597 0.13930684 0.09850939 0.049319312 0.013281608 0.04589635 0.0040801945
0.12781921 0.073013715 0.081487805 -0.089913614 0.031988993 -0.09500048 -0.08318792 0.029581815
0.01948461 0.01567623 -0.024274183 0.06981151 0.10105157 -0.026832618 -0.03490225 0.087275974
-0.16635992 0.013381736 0.011012018 0.03985889 0.06330626 0.016411437 0.07220104 -0.19830993
-0.054100778 -0.13227512 -0.12806734 0.032443244 -0.108922206 0.1473111 0.0918546 0.10377519
0.06022444 0.05282748 -0.11405753 -0.012840782 -0.062456295 0.15722993 0.089330494 -0.14289418
-0.035500295 0.005914884 -0.07658301 -0.13888444 -0.07663755 0.003430292 0.12150816 0.0025350938
-0.057342596 -0.12124882 0.10019309 -0.03253808 0.020354824 -0.055544708 0.038127527 -0.06846741
-0.033885896 0.0589251 -0.09534934 0.04115741 -0.09772788 -0.14509958 -0.20579863 0.013094247
-0.10096724 -0.041664436 -0.069986366 0.117031485 0.09558142 -0.1054892 0.059188902 -0.096930005
-0.0090883 0.090102166 0.06958168 -0.03837754 0.099401906 0.018271778 0.03979441 0.085682526
0.124771476 -0.15820438 0.01079528 0.08904475 0.036103114 -0.10517187 -0.089055195 -0.048204474
00000000: 00c1 76bb f1ce bebd f3ba 103e 9606 263e
00000010: 1e1b 8fbd 6cac 7c3c c66a 9a3d 3138 1c3d
00000020: 8911 123e 2f7a 23be 31f9 093d 7c6c b03d
00000030: 65b7 62bd a3a0 a0bd a3bc 9fbd ccb5 043d
00000040: b4a9 aebd 1ac2 e039 ca15 bf3d e0e0 cbbb
00000050: c2f8 593b 7a98 87bc d49c 6b3d 1c34 e83d
00000060: 31ab e6bd 172c f4bd 4397 e1bd 79c4 40be
00000070: 8036 91bd 7a2a b83d fdbd 92bd 9cf2 acbd
00000080: 3cb4 09bd d28a 2abd 496e c73d 514e 803c
00000090: 43ad 543d 1560 3f3d 1943 d5bc 2bcd 23bc
000000a0: f666 b3bb 84e4 89bb 66bf 973c 0ceb 383d
000000b0: 8207 5c3d f354 0a3e 88f2 e9bd a0f5 76bd
000000c0: 96a7 173e dff4 f2bd fc50 bebd eb0d 94bd
000000d0: 2815 3cbc 50f8 5fbc 7fd8 3a3e 47fb 2bbd
000000e0: 7fbb 143e b809 1bbc 3e71 b0bd 458b f1bd
000000f0: a532 4b3d fc6a 083d fc95 d73d dd71 b3bd
00000100: e527 b2bd 3cbe b93d a062 5dbd a6a1 f3bc
00000110: 625f a63d 25ee aa3c 601f c63b 05f3 d8bd
00000120: 8a92 c43d 78f2 2a3d 95df fdbd 375c ca3d
00000130: 90d3 46bd e6dd 353d 584d dcbb 0e40 e9bd
00000140: 8b0e eb3d 3534 96bb 650d dc3d f04e 973d
00000150: 1965 56be 606a 2ebd 509c 0c3e 2dfb b0bd
00000160: 62b3 0cbe e990 293e 33c4 f33c 6b87 94bd
00000170: 77fe d5bb 26c3 a23d 9507 92bc e658 84bd
00000180: 20f7 f13b a409 d6bc c65f fabc 31b2 e33d
00000190: 6a9d 13be 77d9 19bc f81a 643d b8b2 4a3c
000001a0: f9c2 0b3e 9b77 cdbd ebcc 953d 74d0 c8bd
000001b0: 9fdc 8b3d 0b0f 0b3e 50ae b9bb bd2f 643d
000001c0: 3f39 173e 96a6 f73d 7c73 18bc 5d98 b1bd
000001d0: 4d50 9c3c c041 b8bc 646a fabc 193d 96bd
000001e0: ce81 ffbd 0f53 5dbb e1e4 143e 0511 163e
000001f0: 40a0 bd3b 5ad1 e1bd 9a76 e9bd 1f08 433d
00000200: c019 863c d034 743c 71ab 46bd e3e9 22be
00000210: c49a 36bb a044 b4bd af83 103d 4a41 a6bd
00000220: 7b4f 86bd 92ca e9bd 0677 cdbd c735 2ebd
00000230: 022e 3f3b 7342 e53b 6724 d73d 4cb1 333d
00000240: 006f 34bd 76fe f3bd 777d 093e 9bb2 83bb
00000250: d0eb 753c 49d6 d43c 74fd 453d 52c6 183e
00000260: acd2 aebd 70b3 8b3d 14ed b6bd f157 7bbc
00000270: 86c0 92bd 9ef7 87bb 86c1 a53d 5426 ccbd
00000280: 7e8c 90bd 33f0 033e 74a6 0e3e 4bbf c93d
00000290: 0c03 4a3d 1a9b 593c d0fd 3b3d 27b3 853b
000002a0: 0ae3 023e 3788 953d 14e3 a63d a124 b8bd
000002b0: e406 033d 9d8f c2bd 6e5e aabd 9055 f23c
000002c0: 309e 9f3c 706b 803c a7da c6bc 56f9 8e3d
000002d0: 20f4 ce3d 14d0 dbbc a9f5 0ebd bfbd b23d
000002e0: 415a 2abe 123f 5b3c c06b 343c 1343 233d
000002f0: b6a6 813d 4771 863c 24de 933d c211 4bbe
00000300: c798 5dbd 2173 07be 1624 03be 35e3 043d
00000310: 9b12 dfbd b9d8 163e 441e bc3d 1688 d43d
00000320: e7ad 763d a161 583d ff96 e9bd 2562 52bc
00000330: 2cd2 7fbd e200 213e e8f2 b63d da52 12be
00000340: c268 11bd a5d1 c13b 8ed7 9cbd b937 0ebe
00000350: 26f4 9cbd c0ce 603b 45d9 f83d d123 263b
00000360: 12e0 6abd 4d51 f8bd 0932 cd3d a646 05bd
00000370: 29bf a63c d982 63bd 9c2b 1c3d a438 8cbd
00000380: f0cb 0abd 725b 713d 8446 c3bd ac94 283d
00000390: 8e25 c8bd fc94 14be e0bc 52be 4189 563c
000003a0: eac7 cebd 54a8 2abd 0355 8fbd 34ae ef3d
000003b0: 31c0 c33d b90a d8bd 1070 723d 3d83 c6bd
000003c0: 18e7 14bc 7c87 b83d d780 8e3d c431 1dbd
000003d0: 3a93 cb3d b2ae 953c 77ff 223d 527a af3d
000003e0: 3088 ff3d 5400 22be b0de 303c 185d b63d
000003f0: dce0 133d 5964 d7bd 9262 b6bd 0e72 45bd

network.3.weight f4 [256, 512]
-0.00324703 0.09041837 -0.05797593 -0.0413332 -0.041812714 -0.05081176 -0.08623443 -0.005300495
0.037144154 0.06866531 -0.023832208 -0.021943064 -0.044755112 0.02773386 0.09703841 0.014328685
0.028816704 0.028430877 -0.07955964 -0.031823404 0.09595111 0.00082628324 -0.035977315 0.0516733
-0.039188772 0.067054905 -0.012398407 -0.051354006 0.011842128 0.015818149 -0.026995184 0.026174042
0.0301528 -0.0062557696 0.022235561 0.021860642 0.024646498 0.025966175 -0.062407788 -0.029901234
0.021211443 -0.01279326 0.022456458 -0.016239807 -0.0037248787 0.05491877 -0.13613947 0.012341909
-0.007662655 -0.008188792 -0.03689265 0.10352487 0.007530082 -0.020584932 -0.030623617 0.00892435
0.029000087 -0.036039896 0.11719406 0.016390178 0.00230695 0.006417234 0.028799744 -0.01769168
0.027124956 0.033240624 -0.0016624406 -0.15656614 0.023322377 -0.023963956 -0.030287948 0.062448207
-0.030812096 -0.049545325 0.05594562 -0.05726406 0.0095855035 0.052417364 0.01486589 -0.003975153
-0.1026066 0.16005191 0.02684501 0.08143047 0.08492569 -0.0167024 0.031808317 -0.004279919
0.032838892 0.014942652 0.015308878 0.16950761 -0.043301202 0.002330676 0.052321877 -0.041808568
0.014115244 -0.02647627 -0.021831287 -0.0025245408 0.03339055 0.12991634 -0.0013967156 0.034157615
-0.09125142 0.08389701 0.019465828 0.04193605 0.13144964 0.07737244 -0.029069409 -0.12088156
0.0054885717 -0.023082117 0.114280626 0.012315915 0.09497561 0.013608754 0.026959259 -0.027760664
0.014947683 -0.020462943 0.07967157 -0.13611494 0.03642572 -0.022112343 0.0026943942 0.011473218
-0.0011234134 -0.029113183 -0.029031012 -0.01444237 -0.026370725 0.010255307 0.022475652 0.004128637
0.16633792 -0.017413823 -0.035038408 -0.002749027 0.015310295 -0.031514596 -0.032025553 -0.03851176
-0.005993099 0.008433837 0.069077015 0.0413484 -0.004141487 -0.094676346 -0.0433896 -0.028864551
-0.013700575 -0.0025524122 -0.0012993962 0.0074048247 -0.0027456246 0.08602553 0.005655738 0.019792829
-0.0029883422 -0.13082609 0.056167055 0.07525991 0.020487191 0.05530271 -0.22489963 -0.045475855
0.09348578 -0.002813305 0.0142337615 -0.0059311558 0.012851118 0.03513183 -0.0038022883 0.057933554
-0.024418255 -0.04044976 0.050628223 0.10928038 -0.13217026 -0.023845214 0.087484986 0.018516533
-0.022262458 0.028834222 -0.027770905 -0.05770047 -0.037380736 -0.0005581032 0.01817308 0.052388433
0.0785114 0.0044583734 0.079582475 0.0337408 -0.032761917 0.009824751 -0.0077645555 0.07064484
0.033875026 -0.107342266 -0.0015473105 -0.016499666 -0.03769714 -0.019639373 0.005042635 -0.04132307
0.018098122 0.008549025 0.057206217 -0.0014981085 0.04232497 -0.023422163 -0.09989915 0.036685646
0.04136358 0.019420695 -0.013338556 -0.04226953 0.0007969651 0.017152207 -0.021491652 -0.00015349843
-0.041932132 -0.11386332 -0.04168679 -0.009557046 -0.040375035 0.1238902 0.018850306 0.09312016
0.0070755407 0.060366094 0.0043699443 0.049171653 0.02198175 0.082938164 -0.010272286 -0.0046455283
-0.017884262 -0.009692874 -0.028770816 -0.030995674 -0.024641007 0.032775264 0.0029472983 -0.015905222
0.007099647 0.036413413 0.029090386 -0.0044440106 0.02066793 0.0043004975 0.059807904 0.026665676
00000000: 20cc 54bb 442d b93d 2b78 6dbd 004d 29bd
00000010: cf43 2bbd fe1f 50bd ad9b b0bd c6af adbb
00000020: 7824 183d 66a0 8c3d c33b c3bc f1c1 b3bc
00000030: 2351 37bd 1f32 e33c 13bc c63d dcc2 6a3c
00000040: 0211 ec3c dfe7 e83c 2af0 a2bd 4259 02bd
00000050: 0482 c43d ee9a 583a f35c 13bd 62a7 533d
00000060: 6884 20bd 1554 893d b022 4bbc 9458 52bd
00000070: 7c05 423c 1095 813c 0125 ddbc f26a d63c
00000080: 0103 f73c 33fd ccbb 5a27 b63c 1715 b33c
00000090: 74e7 c93c 04b7 d43c 4f9f 7fbd 6ff3 f4bc
000000a0: 9fc3 ad3c d29a 51bc 9bf6 b73c 5809 85bc
000000b0: 181d 74bb 81f2 603d 2568 0bbe b835 4a3c
000000c0: 0217 fbbb 482a 06bc bf1c 17bd d904 d43d
000000d0: e8be f63b bba1 a8bc 61de fabc 7037 123c
000000e0: 9791 ed3c 929e 13bd 7003 f03d b244 863c
000000f0: 3330 173b a947 d23b 71ed eb3c 24ee 90bc
00000100: 2835 de3c 5227 083d 40e6 d9ba e052 20be
00000110: 920e bf3c 0f50 c4bc 6e1e f8bc b1c9 7f3d
00000120: a669 fcbc 0af0 4abd 3c27 653d b88d 6abd
00000130: 840c 1d3c 97b3 563d 1090 733c 0042 82bb
00000140: 6923 d2bd a6e4 233e 11ea db3c 05c5 a63d
00000150: 85ed ad3d 79d3 88bc 7049 023d 903e 8cbb
00000160: 1382 063d 06d2 743c 17d2 7a3c 6793 2d3e
00000170: 9a5c 31bd 41be 183b 774f 563d 763f 2bbd
00000180: a043 673c c3e4 d8bc 87d7 b2bc c472 25bb
00000190: 88c4 083d ca08 053e 0012 b7ba dbe8 0b3d
000001a0: 06e2 babd 32d2 ab3d cd76 9f3c 23c5 2b3d
000001b0: bc9a 063e 7175 9e3d f822 eebc c090 f7bd
000001c0: 7ad9 b33b b516 bdbc f60b ea3d b1c8 493c
000001d0: 9382 c23d 40f7 5e3c aad9 dc3c 556a e3bc
000001e0: 20e7 743c e7a1 a7bc d92a a33d b761 0bbe
000001f0: 2333 153d f224 b5bc 6f94 303b 2afa 3b3c
00000200: 803f 93ba c57e eebc 72d2 edbc b19f 6cbc
00000210: 6b07 d8bc e005 283c dc1e b83c 8449 873b
00000220: 7d54 2a3e 6fa7 8ebc 6f84 0fbd 0529 34bb
00000230: 08d8 7a3c 7315 01bd 3a2d 03bd 82be 1dbd
00000240: c261 c4bb 142e 0a3c 4078 8d3d f15c 293d
00000250: 50b5 87bb ace5 c1bd 4bb9 31bd 5a75 ecbc
00000260: 6078 60bc 5f46 27bb 8050 aaba 2ca4 f23b
00000270: f0ef 33bb 272e b03d c553 b93b 9224 a23c
00000280: 10d8 43bb 46f7 05be 6d0f 663d de21 9a3d
00000290: c1d4 a73c 1885 623d 174c 66be e444 3abd
000002a0: 7975 bf3d 6d5f 38bb b934 693c 245a c2bb
000002b0: 7f8d 523c 65e6 0f3d d02f 79bb bc4b 6d3d
000002c0: cb08 c8bc a6ae 25bd 8a5f 4f3d 64ce df3d
000002d0: a457 07be 0a57 c3bc 542b b33d fcaf 973c
000002e0: c25f b6bc bf35 ec3c cf7f e3bc 5457 6cbd
000002f0: 8b1c 19bd ac4d 12ba b6df 943c 4195 563d
00000300: 96ca a03d 8c17 923b 23fc a23d cb33 0a3d
00000310: 5c31 06bd fef7 203c d06d febb 3eae 903d
00000320: 8ac0 0a3d 43d6 dbbd 20cf caba 4f2a 87bc
00000330: 5168 1abd c0e2 a0bc b03c a53b 6142 29bd
00000340: 8342 943c 3611 0c3c 1151 6a3d 2e5c c4ba
00000350: f35c 2d3d d6df bfbc ed97 ccbd b043 163d
00000360: db6c 293d 2618 9f3c f589 5abc d122 2dbd
00000370: 6ceb 503a c982 8c3c 430f b0bc 6cf4 20b9
00000380: 07c1 2bbd 2c31 e9bd c4bf 2abd 2895 1cbc
00000390: 4b60 25bd 25ba fd3d f56b 9a3c c8b5 be3d
000003a0: f0d9 e73b 7042 773d c031 8f3b 3768 493d
000003b0: 1213 b43c 7cdb a93d 174d 28bc 8439 98bb
000003c0: 0482 92bc dcce 1ebc c6b0 ebbc a4ea fdbc
000003d0: f0db c9bc 5b3f 063d 7627 413b ab4b 82bc
000003e0: 28a4 e83b 3b26 153d f64e ee3c 109f 91bb
000003f0: ca4f a93c 30eb 8c3b 22f9 743d fa71 da3c

network.3.bias f4 [256]
-0.035466194 -0.012302407 0.0072645918 -0.03680174 0.06732641 0.03745779 0.021529954 -0.012650019
-0.015182146 -0.045815535 -0.014051544 -0.025545985 0.0019394053 -0.003954242 -0.023166852 0.073652804
0.03376697 -0.026685137 -0.073290534 -0.04599927 0.0020367587 0.009734597 -0.02548455 0.019239515
-0.061983805 0.0040038866 -0.022477804 0.016598543 0.025018157 0.04570027 -0.03177094 -0.013654741
-0.038499843 -0.0023969768 0.010834714 -0.028996125 0.018391551 -0.040006295 -0.05766518 0.015623005
0.016342916 0.006841199 0.037276626 -0.10252495 -0.0156119745 0.027847704 -0.07075575 0.026654785
0.048549555 -0.00076279906 0.06177589 -0.067032374 0.01222585 -0.016402572 -0.041449454 0.010068113
-0.02244802 -0.039652742 -0.0042217644 -0.035547834 0.0053777467 -0.05965814 0.0040925196 -0.02778925
0.01915758 0.015497477 0.023493813 -0.008432685 -0.048728734 0.08535995 -0.035113513 -0.006093974
0.0067471503 0.021598212 -0.03491203 0.013893831 -0.0012536704 0.034117937 0.015099799 -0.0021359972
-0.014676435 -0.043884788 -0.042242363 -0.037922673 -0.04100425 -0.044683985 -0.039472766 0.016701393
0.022936603 -0.061516486 0.07696257 0.017045563 -0.07913706 0.005633702 0.002068322 -0.060689952
-0.008396723 -0.016360713 -0.031799152 -0.040183987 0.022599546 0.008756218 -0.078624815 0.044539142
-0.0046205535 0.056180462 0.020276176 0.0022886528 -0.003576542 0.07420615 -0.023479255 -0.040172156
0.015207659 -0.032663483 -0.0055366717 -0.019829752 0.014591332 0.011244628 0.013252008 -0.009712218
-0.048221406 0.0008203281 -0.03380596 0.010938314 -0.057454202 0.034938633 -0.018539866 -0.022543974
0.03231091 0.017210992 -0.07093491 -0.03791256 0.0065432335 0.04048868 -0.04964787 -0.0010614983
-0.031102758 -0.027996937 -0.04686029 -0.03171117 0.0040266933 0.0055301264 -0.028934114 0.09677028
-0.0058365203 -0.047864888 0.047969315 -0.026401762 0.017023738 0.0034633582 -0.07069566 -0.030938234
-0.024973327 0.0107079875 0.050823174 -0.044585418 -0.027737414 -0.005734252 0.06313877 -0.01444815
0.035996854 -0.066001564 -0.04115749 0.031539164 -0.008339743 0.00983837 0.08514983 -0.0058229715
-0.0394518 0.05638908 -0.013319572 0.0056705163 -0.022624588 -0.049265485 0.0072526108 0.023483299
-0.031058345 -0.012237623 0.025676986 -0.04298633 -0.023740837 0.03263202 -0.0017605925 -0.008151432
-0.02740466 0.049541175 0.05429787 -0.05794185 -0.021973306 -0.038775828 -0.0045970213 0.030719923
-0.02477362 0.07300764 -0.01864785 -0.017054066 0.066191986 -0.09174259 0.017406348 -0.03799301
0.056869127 -0.06591425 0.028405998 -0.022935372 -0.02373531 -0.04175716 -0.039949495 -0.06761252
-0.077520534 0.003702767 -0.0324342 -0.03955338 -0.05496662 0.0005950267 0.010163096 0.038661398
-0.02879124 -0.008677886 -0.024831872 0.042304 -0.011904562 -0.023375953 0.034824207 0.0117324
-0.04713712 -0.038350374 0.024734212 -0.049412183 -0.031818178 -0.0016519529 0.02337841 0.05463016
-0.061731327 0.036463156 -0.015071779 -0.0042254026 0.026565943 0.04057712 -0.027083265 -0.024285236
0.0014915547 -0.016651979 0.050063938 -0.009363338 0.0039762766 0.04788546 0.013376518 -0.04194345
-0.008529833 0.01255985 -0.0003357913 -0.02462229 0.05488242 -0.081498474 0.048971307 -0.015038368
00000000: 0045 11bd 0990 49bc d00b ee3b 6cbd 16bd
00000010: 6ee2 893d 576d 193d 965f b03c 0642 4fbc
00000020: 89be 78bc 12a9 3bbd 7238 66bc d045 d1bc
00000030: a533 fe3a 9692 81bb 69c8 bdbc 48d7 963d
00000040: 3c4f 0a3d ca9a dabc 5919 96bd bb69 3cbd
00000050: 247b 053b dc7d 1f3c fac4 d0bc 309c 9d3c
00000060: bbe2 7dbd 0933 833b 5f23 b8bc abf9 873c
00000070: e1f2 cc3c 3530 3b3d 3f22 02bd 23b8 5fbc
00000080: 03b2 1dbd 9916 1dbb 1684 313c 4889 edbc
00000090: e1a9 963c a4dd 23bd 5332 6cbd a2f7 7f3c
000000a0: 94e1 853c 232c e03b 60af 183d 9af8 d1bd
000000b0: 5ec9 7fbc de20 e43c 64e8 90bd 235b da3c
000000c0: e6db 463d 94f6 47ba b708 7d3d 4548 89bd
000000d0: ee4e 483c b05e 86bc e7c6 29bd baf4 243c
000000e0: e9e4 b7bc ea6a 22bd ba56 8abb 9b9a 11bd
000000f0: cf37 b03b 185c 74bd 8b1a 863b 48a6 e3bc
00000100: 5bf0 9c3c 21e9 7d3c 1976 c03c 3f29 0abc
00000110: c897 47bd 33d1 ae3d 30d3 0fbd f6af c7bb
00000120: 3317 dd3b bcee b03c ebff 0ebd f3a2 633c
00000130: 3352 a4ba 40bf 0b3d 2665 773c 16fc 0bbb
00000140: 6e75 70bc 89c0 33bd 5406 2dbd ce54 1bbd
00000150: 13f4 27bd 8e06 37bd 32ae 21bd 5cd1 883c
00000160: 8be5 bb3c b6f8 7bbd 8d9e 9d3d 23a3 8b3c
00000170: 9c12 a2bd eb9a b83b af8c 073b 0796 78bd
00000180: 6992 09bc e706 86bc d43f 02bd f797 24bd
00000190: af22 b93c 3d76 0f3c 0c06 a1bd ad6e 363d
000001a0: 0368 97bb 7c1d 663d 391a a63c 39fd 153b
000001b0: 6b64 6abb 65f9 973d 9157 c0bc 8f8b 24bd
000001c0: 8c29 793c 25ca 05bd f86c b5bb 0172 a2bc
000001d0: 7b10 6f3c 633b 383c f31e 593c ff1f 1fbc
000001e0: cf83 45bd 490b 573a 1e78 0abd 9d36 333c
000001f0: 1955 6bbd d01b 0f3d ebe0 97bc 24ae b8bc
00000200: 7258 043d 11fe 8c3c 5246 91bd 334a 1bbd
00000210: 9f68 d63b 75d7 253d 915b 4bbd f921 8bba
00000220: 36cb febc d559 e5bc 93f0 3fbd 92e3 01bd
00000230: 5af2 833b 1036 b53b 3c07 edbc 7f2f c63d
00000240: 4840 bfbb f90d 44bd 797b 443d 8248 d8bc
00000250: 5e75 8b3c 82f9 623b e3c8 90bd 2e72 fdbc
00000260: dd94 ccbc 8e70 2f3c f62b 503d 339f 36bd
00000270: 9339 e3bc 64e6 bbbb e64e 813d efb7 6cbc
00000280: 7071 133d d42b 87bd c294 28bd 362f 013d
00000290: 6ba3 08bc 1d31 213c 0963 ae3d a0ce bebb
000002a0: 3698 21bd 3cf8 663d 563a 5abc bdcf b93b
000002b0: 3357 b9bc 9bca 49bd 4fa7 ed3b 0c60 c03c
000002c0: 126e febc 5080 48bc 8b58 d23c 6f12 30bd
000002d0: 257c c2bc 27a9 053d aec3 e6ba 958d 05bc
000002e0: bd7f e0bc b0eb 4a3d 7167 5e3d 6f54 6dbd
000002f0: 5d01 b4bc 67d3 1ebd 9ca2 96bb 59a8 fb3c
00000300: 0cf2 cabc 0885 953d 60c3 98bc f8b4 8bbc
00000310: aa8f 873d 8ae3 bbbd c297 8e3c 8f9e 1bbd
00000320: 9aef 683d 0dfe 86bd b2b3 e83c f6e2 bbbc
00000330: 8e70 c2bc 8e09 2bbd 15a2 23bd 6f78 8abd
00000340: 16c3 9ebd 1faa 723b b9d9 04bd ba02 22bd
00000350: ae24 61bd 91fb 1b3a 1d83 263c 6a5b 1e3d
00000360: 9bdb ebbc b12d 0ebc 366c cbbc f646 2d3d
00000370: 5a0b 43bc ed7e bfbc d4a3 0e3d 4139 403c
00000380: da12 41bd 4815 1dbd 679f ca3c 6e64 4abd
00000390: c753 02bd 5786 d8ba 1484 bf3c e0c3 5f3d
000003a0: fdd9 7cbd 645a 153d 9fef 76bc 3f75 8abb
000003b0: d2a0 d93c 3234 263d b9dd ddbc d5f1 c6bc
000003c0: 4580 c33a bb69 88bc d80f 4d3d b068 19bc
000003d0: 6d4b 823b 8b23 443d 2f29 5b3c e5cc 2bbd
000003e0: b6c0 0bbc d4c7 4d3c 250d b0b9 afb4 c9bc
000003f0: 63cc 603d ace8 a6bd 2396 483d 7d63 76bc

network.6.weight f4 [128, 256]
-0.03394631 -0.0749265 -0.02435011 -0.018157817 0.011947606 0.010640204 -0.04816463 0.02038376
0.025167024 0.03804265 0.034110796 0.0075769583 0.0013654381 -0.000759013 -0.06602223 0.05159391
0.03970153 -0.034060292 -0.015807794 0.033954404 -0.061245017 -0.016403072 -0.011538123 -0.008582376
0.04508131 -0.0042751585 -0.050656535 0.0009021956 -0.0050671776 -0.065250486 -0.00024646317 -0.046230365
-0.055426277 -0.060539104 -0.010597268 -0.06172196 -0.010098116 0.048209876 -0.0068255677 0.032641254
-0.029477753 -0.0041856975 0.00075151626 -0.05425577 -0.03915041 0.023912836 0.053888276 -0.066093996
-0.062366664 0.04476612 -0.048827834 0.046909235 -0.0018638223 -0.060574464 -0.026425295 0.026917078
0.015109755 -0.01918874 0.009724684 -0.023865275 -0.040667485 0.020612814 -0.045106255 -0.015231833
0.010741192 0.046091557 0.02546236 0.05000834 0.008990525 0.05755593 -0.055167392 -0.036476046
-0.058144532 -0.06457174 0.011032328 0.004610636 -2.1159649e-05 -0.03142315 0.0156262 0.018735712
0.046516553 -0.019446857 -0.0011262074 -0.016486399 -0.028520405 -0.014909118 0.008726463 -0.021477502
-0.04879655 0.041460495 -0.032787237 -0.044461142 0.032936513 0.019161321 -0.04797122 0.040908895
0.005387404 0.024290834 -0.020767838 0.05138976 0.017242538 -0.036483403 -0.039490875 -0.0254177
-0.047756948 -0.069513604 0.009433996 0.0034483073 0.044278346 -0.01382202 0.009615257 0.002369985
-0.04210213 -0.042555176 -0.04623995 -0.047354553 0.045782752 -0.012607953 0.014419618 -0.0017416617
-0.006334655 -0.060436666 -0.014884569 -0.034108695 -0.04705394 0.035399597 -0.019956151 -0.05054166
0.05227885 0.028063424 -0.061502315 -0.010545062 -0.06770713 0.028817417 -0.014656417 0.0056737736
0.046116896 -0.016720667 -0.06156122 0.05535492 -0.047984295 -0.024151891 0.048668057 0.0424805
-0.029227283 -0.067642175 -0.003429997 -0.06414209 0.052880317 -0.021155648 -0.044835165 -0.03439804
-0.037941284 -0.010989002 -0.042675834 -0.070109144 -0.05556693 0.0045738295 -0.02645383 -0.0020438808
0.044542536 0.049243487 0.015227236 0.016507916 0.00831893 -0.042867035 -0.03709841 0.032937326
-0.05739783 -0.00036964932 -0.018761488 -0.07342821 -0.058865048 -0.008106548 0.039811935 0.007618293
-0.008229092 -0.046766255 0.032319777 -0.063746065 -0.06371739 0.047432594 0.050978936 -0.06806995
-0.03697481 -0.01795342 -0.026055915 -0.0036730445 -0.043090336 -0.037100904 0.06100297 -0.0034358692
0.039189488 -0.04221415 -0.057486415 0.054900013 -0.00044952333 0.005179956 -0.041789725 -0.05523318
0.01521565 0.04432111 0.012340165 -0.04740654 0.060284354 0.0075701056 0.042198926 0.00870693
-0.039226085 0.003214188 -0.01857446 -0.026859358 -0.017291874 -0.036558524 -0.057917625 -0.020296238
0.004900098 -0.022175029 -0.00048149377 -0.028686682 0.029138295 -0.052422687 0.042406082 -0.031027049
0.017099522 0.04969922 -0.06839591 0.006340392 -0.01996839 0.012628548 0.028905451 -0.05989804
-0.041626364 -0.04955189 0.030775912 0.03854446 -0.010721808 -0.043945972 0.030499741 0.043825008
-0.023338526 0.018816054 -0.011464774 -0.04935267 0.05870343 0.0053312555 0.048267685 0.0044957213
-0.014023237 -0.05456942 -0.020865194 -0.0139211565 -0.0061714416 -0.05084103 -0.006845209 0.015296556
00000000: 490b 0bbd 1173 99bd e279 c7bc b4bf 94bc
00000010: e4bf 433c 4054 2e3c 4648 45bd d8fb a63c
00000020: 132b ce3c 9cd2 1b3d c3b7 0b3d 2248 f83b
00000030: 80f8 b23a 80f8 46ba aa36 87bd 2354 533d
00000040: 129e 223d ce82 0bbd 597f 81bc c613 0b3d
00000050: 0edc 7abd bc5f 86bc 650a 3dbc 189d 0cbc
00000060: 2ea7 383d a116 8cbb 3a7d 4fbd 5281 6c3a
00000070: 910a a6bb 0ca2 85bd ba37 81b9 0d5c 3dbd
00000080: aa06 63bd daf7 77bd 2aa0 2dbc 2ad0 7cbd
00000090: 9172 25bc b877 453d 03a9 dfbb d6b2 053d
000000a0: 547b f1bc 2d28 89bb 6701 453a 4c3b 5ebd
000000b0: 2e5c 20bd dae4 c33c f4b9 5c3d 4a5c 87bd
000000c0: 3074 7fbd ae5c 373d b2ff 47bd e623 403d
000000d0: 804b f4ba ee1c 78bd dc79 d8bc 3481 dc3c
000000e0: e88e 773c b431 9dbc 4854 1f3c 1c81 c3bc
000000f0: f392 26bd 34dc a83c 56c1 38bd f08e 79bc
00000100: d3fb 2f3c 80ca 3c3d 7096 d03c 8cd5 4c3d
00000110: ff4c 133c c4bf 6b3d 34f7 61bd e867 15bd
00000120: f628 6ebd 303e 84bd f0c0 343c d114 973b
00000130: 0080 b1b7 90b5 00bd 8402 803c a37b 993c
00000140: 2488 3e3d 044f 9fbc 409d 93ba 7c0e 87bc
00000150: a0a3 e9bc 6045 74bc 70f9 0e3c 96f1 afbc
00000160: e4de 47bd 7bd2 293d e94b 06bd e31c 36bd
00000170: 70e8 063d 34f8 9c3c 787d 44bd 1690 273d
00000180: d288 b03b 92fd c63c 5021 aabc 127e 523d
00000190: 3940 8d3c 9f6f 15bd 2fc1 21bd c838 d0bc
000001a0: ca9c 43bd 265d 8ebd 0c91 1a3c fffc 613b
000001b0: 365d 353d c175 62bc 5089 1d3c c051 1b3b
000001c0: 4873 2cbd 564e 2ebd 1a66 3dbd d9f6 41bd
000001d0: b286 3b3d 9691 4ebc 4340 6c3c 7848 e4ba
000001e0: f092 cfbb 708c 77bd 68de 73bc 8fb5 0bbd
000001f0: a2bb 40bd 2bff 103d 157b a3bc c604 4fbd
00000200: 5922 563d 44e5 e53c dae9 7bbd 32c5 2cbc
00000210: 09aa 8abd 8112 ec3c 7821 70bc 10eb b93b
00000220: 12e5 3c3d c8f9 88bc 9e27 7cbd d7bb 623d
00000230: 2e8b 44bd 30da c5bc 2858 473d 0800 2e3d
00000240: 0e6e efbc fb87 8abd cdc9 60bb ee5c 83bd
00000250: 0899 583d 9c4e adbc 14a5 37bd f6e4 0cbd
00000260: 5268 1bbd 370b 34bc dbcc 2ebd 6295 8fbd
00000270: 269a 63bd 10e0 953b b4b5 d8bc a1f2 05bb
00000280: 3c72 363d 8ab3 493d a87b 793c 9c3b 873c
00000290: 1f4c 083c 5895 2fbd 81f4 17bd 4ae9 063d
000002a0: fd19 6bbd 7ecd c1b9 b1b1 99bc 8861 96bd
000002b0: 7a1c 71bd 54d1 04bc d711 233d e0a2 f93b
000002c0: 50d3 06bc f98d 3fbd be61 043d 4c8d 82bd
000002d0: 437e 82bd ae48 423d 4acf 503d 4268 8bbd
000002e0: e672 17bd 0d13 93bc 3773 d5bc 76b7 70bb
000002f0: 7e7f 30bd 1ef7 17bd 40de 793d 522c 61bb
00000300: 2885 203d bfe8 2cbd e076 6bbd d6de 603d
00000310: 00ae ebb9 9fbc a93b b42b 2bbd 303c 62bd
00000320: 104b 793c 0d8a 353d 672e 4a3c 5c2d 42bd
00000330: baec 763d a60e f83b c8d8 2c3d 83a7 0e3c
00000340: 88ab 20bd 20a5 523b 7729 98bc 2808 dcbc
00000350: b0a7 8dbc 64be 15bd 083b 6dbd 4c44 a6bc
00000360: 0091 a03b 68a8 b5bc 0071 fcb9 5500 ebbc
00000370: 6fb3 ee3c 2cb9 56bd 00b2 2d3d 702c febc
00000380: 4c14 8c3c 6991 4b3d 2813 8cbd 10c3 cf3b
00000390: c094 a3bc f8e7 4e3c 20cb ec3c a657 75bd
000003a0: 6880 2abd ecf6 4abd c41d fc3c cce0 1d3d
000003b0: 86aa 2fbc b100 34bd 98da f93c da81 333d
000003c0: 7030 bfbc 2024 9a3c bfd6 3bbc 0626 4abd
000003d0: 0273 703d d0b1 ae3b 56b4 453d d850 933b
000003e0: b8c1 65bc 2f84 5fbd 7ced aabc 9015 64bc
000003f0: ce39 cabb af3e 50bd c64d e0bb 689e 7a3c

network.6.bias f4 [128]
-0.018066607 -0.05229713 0.11599214 -0.058791667 -0.071915135 0.086594835 -0.056192186 -0.009301855
-0.07356619 -0.06008395 -0.015266056 0.10636047 -0.039227538 0.07635584 -0.012154064 -0.021954086
0.03396513 -0.07982169 0.07896435 0.10299313 -0.018840935 0.014172502 0.06526435 0.14420205
0.008397147 -0.06708017 0.014122271 -0.001645762 0.046052724 0.044549868 -0.08442073 6.7690184e-05
-0.057355084 -0.02533307 0.06543886 0.033785168 -0.007782014 0.1328908 0.013418246 0.11516472
-0.027187077 -0.065286554 -0.040681135 -0.044963617 0.023286909 -0.005567488 0.036424216 0.03405472
0.014157497 -0.020593438 -0.003608922 0.06228856 0.007838849 0.014014896 -0.004457421 0.0034414246
-0.027309645 -0.082650505 0.023231773 0.035690967 -0.057831928 -0.011186322 0.00080260396 -0.07033305
-0.07428406 0.020256463 0.091185324 -0.05403925 -0.043741543 0.014888333 0.10288915 0.014698685
0.044850893 0.11566202 -0.049973916 0.039067626 0.12762198 -0.021037789 0.031407256 0.033997975
0.013194225 -0.013018176 0.036956653 -0.03053929 0.07135709 -0.039143242 -0.09979412 -0.031209977
-0.012211804 0.0093434425 -0.025496144 -0.020157607 0.10270541 -0.035710517 -0.008481878 0.04614067
0.02386027 0.052112743 0.006310095 0.029545916 0.00943758 0.005491559 0.11288457 -0.05060598
-0.0014244426 -0.009535871 -0.0630463 0.041837733 -0.032152265 0.010565124 -0.03237907 0.010243449
-0.02866449 0.0052082674 0.090869956 -0.009651778 0.019519586 -0.06289736 0.02966311 -0.027970819
-0.02742943 -0.054466177 0.080284685 -0.09647492 0.013845766 0.05247062 0.083359815 -0.062294345
00000000: 6c00 94bc 8435 56bd 498d ed3d 88cf 70bd
00000010: 3e48 93bd a258 b13d c729 66bd cf66 18bc
00000020: dfa9 96bd 971a 76bd 7b1e 7abc 85d3 d93d
00000030: 0ead 20bd 7360 9c3d d721 47bc 0ed9 b3bc
00000040: 051f 0b3d 8e79 a3bd 10b8 a13d 10ee d23d
00000050: 4e58 9abc c833 683c 51a9 853d b4a9 133e
00000060: 3094 093c 5461 89bd 1961 673c 9cb6 d7ba
00000070: c8a1 3c3d ec79 363d c7e4 acbd e4f4 8d38
00000080: 2aed 6abd 4c87 cfbc cf04 863d 5162 0a3d
00000090: 4400 ffbb 8714 083e 34d8 5b3c 7bdb eb3d
000000a0: 6fb7 debc f5b4 85bd 43a1 26bd c52b 38bd
000000b0: 30c4 be3c 796f b6bb 8f31 153d f67c 0b3d
000000c0: d9f4 673c 92b3 a8bc aa83 6cbb 4a22 7f3d
000000d0: 846e 003c bc9e 653c 8f0f 92bb 8689 613b
000000e0: 7ab8 dfbc ab44 a9bd 8f50 be3c b130 123d
000000f0: 2ce1 6cbd d646 37bc d765 523a c60a 90bd
00000100: 3e22 98bd e2f0 a53c 5fbf ba3d 4358 5dbd
00000110: 552a 33bd 32ee 733c 8cb7 d23d c1d2 703c
00000120: 92b5 373d 36e0 ec3d 73b1 4cbd 6005 203d
00000130: 56af 023e 7157 acbc e5a4 003d 7641 0b3d
00000140: 972c 583c 304a 55bc dc5f 173d 882d fabc
00000150: aa23 923d aa54 20bd dc60 ccbd 11ac ffbc
00000160: 0514 48bc 3d15 193c 4add d0bc 9121 a5bc
00000170: 3757 d23d 3145 12bd 93f7 0abc 00fe 3c3d
00000180: 9d76 c33c 2c74 553d eac4 ce3b 470a f23c
00000190: 14a0 1a3c 89f2 b33b 0730 e73d 3748 4fbd
000001a0: 5db4 baba 583c 1cbc 6b1e 81bd 0b5e 2b3d
000001b0: 18b2 03bd 5819 2d3c ea9f 04bd 24d4 273c
000001c0: cbd1 eabc 1daa aa3b 071a ba3d 7e22 1ebc
000001d0: 8ae7 9f3c 55d0 80bd 0d00 f33c 0f23 e5bc
000001e0: afb3 e0bc ed17 5fbd 4c6c a43d a594 c5bd
000001f0: 5ad9 623c 6feb 563d 8db8 aa3d 5b28 7fbd

network.9.weight f4 [64, 128]
-0.043896932 0.0612523 -0.00014472284 -0.059229787 0.08262934 -0.11563128 -0.051789634 -0.008965152
0.030388726 0.06678817 -0.027149731 0.114893936 0.020831257 0.13523456 0.037222542 0.015149535
-0.06316227 -0.05569418 -0.017007865 -0.1386503 -0.073038496 0.09080677 -0.05243907 0.013342371
-0.0104647605 -0.061120402 -0.025655644 -0.02552247 -0.022762377 0.028578458 0.0065468615 -0.049768217
0.027628412 0.024111265 0.0920759 0.059268273 -0.049723484 0.041054673 -0.043429032 0.0507003
0.022120578 -0.08159681 0.03433591 -0.07527187 -0.042530768 0.06774726 -0.036958303 -0.024014698
0.061134823 0.067480765 -0.028885791 -0.1507337 0.0634032 -0.019440131 -0.045077473 -0.041943762
-0.08047387 0.06939781 -0.0024152882 -0.014896675 0.06372734 0.031309187 0.014686724 -0.045368705
0.027341697 -0.07460626 -0.061859947 -0.062116392 -0.08046405 -0.021412626 0.007502308 0.0020731452
0.04453889 0.09296449 0.112183414 0.08309377 -0.020114386 -0.081371516 0.042545363 0.067373216
0.038510937 -0.09399351 -0.030967934 0.024732485 0.08135976 -0.07757514 0.1531083 0.03736085
0.012976958 0.0019997929 0.005262943 -0.017470557 -0.0637872 -0.026909966 -0.0278431 -0.04405451
-0.05734034 0.07656172 -0.07084245 0.06678519 -0.044251066 0.044746004 -0.059349712 0.09135804
-0.07945524 0.10723306 0.10634777 -0.012354815 0.037901934 0.11459439 0.05306386 0.083452694
-0.021394549 -0.03755979 0.11282303 -0.021607704 0.008150394 0.057051163 -0.08590958 -0.11938684
0.08894712 0.0906148 -0.1415959 0.009679165 -0.021219846 0.065619305 0.07616782 -0.17460264
-0.06484689 0.13701811 0.14610773 -0.07197511 0.019081343 0.050728858 0.064688966 0.044176143
-0.051701777 -0.093369566 0.05210895 0.016261926 0.11319181 -0.08138375 0.024034254 0.058432866
-0.076282576 -0.022852123 -0.12971175 0.12992235 0.056887683 0.06745995 0.10884531 0.008404039
0.15338922 -0.003347651 0.026371399 0.13936928 0.13876769 -0.03265482 0.03399594 -0.07467677
-0.008574409 0.069428965 -0.05769377 -0.035887036 0.11720052 0.1560667 0.043380998 0.03453086
0.12236444 0.022687657 -0.004110365 0.007182526 0.09265144 -0.03820275 0.13403878 -0.102768466
0.019222917 -0.0635912 -0.04218901 0.13898356 0.04173443 -0.13061124 0.07141864 0.017641943
-0.0051833717 0.021992384 -0.06890268 0.056775082 -0.11052196 0.15792985 0.074380204 0.011437919
-0.011971899 0.043486882 -0.07817609 0.022613458 -0.0007991848 -0.06483438 0.029477831 -0.07760807
-0.1075466 0.18832265 -0.013504398 0.031066798 -0.022018047 -0.054673616 0.03865231 -0.019539844
0.028525662 -0.08092092 0.18948822 -0.017558403 -0.0095224725 0.02794768 0.007414043 0.080237225
0.1309655 0.061762393 0.007909667 -0.06986769 0.13864267 -0.002828059 0.053988285 0.043578424
0.07029883 0.09184697 0.11699452 0.13941887 -0.023950253 -0.06304484 0.008563498 0.12476777
-0.08969378 0.05639641 0.050739422 0.14358082 0.07170416 0.01135766 0.07055283 0.019839287
0.12561785 -0.07744516 0.0657084 -0.059240628 0.028156055 0.033104222 0.05348433 0.07346922
-0.005971932 0.17689677 0.117881455 0.06910252 -0.014551346 0.11360135 0.103767335 -0.028248744
00000000: 45cd 33bd b1e3 7a3d bec0 17b9 ef9a 72bd
00000010: 9239 a93d 18d0 ecbd 5e21 54bd 93e2 12bc
00000020: c7f1 f83c 3cc8 883d 1d69 debc 834d eb3d
00000030: 50a6 aa3c ee7a 0a3e aa76 183d c135 783c
00000040: 385b 81bd 951f 64bd 1454 8bbc 58fa 0dbe
00000050: 3595 95bd e6f8 b93d 5aca 56bd f699 5a3c
00000060: 6374 2bbc 6359 7abd c92b d2bc 8014 d1bc
00000070: 2a78 babc 5f1d ea3c 0e87 d63b c2d9 4bbd
00000080: fb54 e23c fd84 c53c 4a92 bc3d 4ac3 723d
00000090: daaa 4bbd f228 283d a4e2 31bd 1eab 4f3d
000000a0: 3736 b53c 3a1c a7bd d0a3 0c3d 2328 9abd
000000b0: be34 2ebd 13bf 8a3d 9761 17bd 79ba c4bc
000000c0: 8268 7a3d 5b33 8a3d e5a1 ecbc ef59 1abe
000000d0: 89d9 813d e940 9fbc 28a3 38bd 39cd 2bbd
000000e0: 7ccf a4bd 7020 8e3d d049 1ebb 2f11 74bc
000000f0: 7b83 823d 103e 003d 96a0 703c 89d4 39bd
00000100: b2fb df3c 2bcb 98bd db60 7dbd c26d 7ebd
00000110: 56ca a4bd 8869 afbc ecd5 f53b 9bdd 073b
00000120: 696e 363d 2b64 be3d 6bc0 e53d 112d aa3d
00000130: edc6 a4bc 1ca6 a6bd 0c44 2e3d f8fa 893d
00000140: a5bd 1d3d ab7f c0bd 77b0 fdbc c89b ca3c
00000150: f29f a63d b7df 9ebd 6cc8 1c3e b107 193d
00000160: 4f9d 543c f50e 033b c474 ac3b 6a1e 8fbc
00000170: dda2 82bd 4a72 dcbc 3617 e4bc 8072 34bd
00000180: b4dd 6abd 64cc 9c3d d915 91bd acc6 883d
00000190: 9b40 35bd 9647 373d af18 73bd ed19 bb3d
000001a0: 6eb9 a2bd 029d db3d dccc d93d da6b 4abc
000001b0: 0f3f 1b3d 77b0 ea3d 7d59 593d 3fe9 aa3d
000001c0: 9f43 afbc 4bd8 19bd c30f e73d a402 b1bc
000001d0: 3b89 053c 7bae 693d 5df1 afbd 1681 f4bd
000001e0: e829 b63d 4194 b93d 84fe 10be 5c95 1e3c
000001f0: 3ed5 adbc 6a63 863d e0fd 9b3d 09cb 32be
00000200: 72ce 84bd 7a4e 0c3e 449d 153e b067 93bd
00000210: 7a50 9c3c 10c9 4f3d a67b 843d 0bf2 343d
00000220: 3ec5 53bd 8b38 bfbd 3270 553d bb37 853c
00000230: 1cd1 e73d 86ac a6bd 7ce3 c43c 4d57 6f3d
00000240: 0a3a 9cbd 6034 bbbc 28d3 04be 5d0a 053e
00000250: 0f03 693d 7128 8a3d 4aea de3d 18b1 093c
00000260: 1012 1d3e 4464 5bbb d508 d83c d2b6 0e3e
00000270: 1e19 0e3e 0fc1 05bd 543f 0b3d 22f0 98bd
00000280: ae7b 0cbc c630 8e3d 4d50 6cbd 49fe 12bd
00000290: d406 f03d f3cf 1f3e 46b0 313d 3b70 0d3d
000002a0: 359a fa3d 77db b93c 3eb0 86bb 655b eb3b
000002b0: 0ac0 bd3d 7d7a 1cbd 7641 093e 4678 d2bd
000002c0: 6179 9d3c 1a3c 82bd 62ce 2cbd b551 0e3e
000002d0: b9f1 2a3d f4be 05be f043 923d d685 903c
000002e0: 46d9 a9bb 5f29 b43c d91c 8dbd fd8c 683d
000002f0: 5659 e2bd 5db8 213e a654 983d 1c66 3b3c
00000300: c925 44bc 4d1f 323d c91a a0bd dc3f b93c
00000310: 6280 51ba e3c7 84bd 7e7b f13c fbf0 9ebd
00000320: 6441 dcbd a7d7 403e 8d41 5dbc cc7f fe3c
00000330: 315f b4bc 71f1 5fbd e251 1e3d 0612 a0bc
00000340: a6ae e93c deb9 a5bd 3309 423e a4d6 8fbc
00000350: 2504 1cbc 88f2 e43c 80f1 f23b 6a53 a43d
00000360: d21b 063e 90fa 7c3d 8c97 013c cb16 8fbd
00000370: 58f8 0d3e f556 39bb d222 5d3d 4a7f 323d
00000380: d5f8 8f3d 441a bc3d d39a ef3d d2c3 0e3e
00000390: 5233 c4bc a71d 81bd ea4d 0c3c 3f86 ff3d
000003a0: 5fb1 b7bd ecff 663d 24d4 4f3d da06 133e
000003b0: a1d9 923d 7b15 3a3c 017e 903d 0086 a23c
000003c0: f7a1 003e 919b 9ebd 2092 863d 4da6 72bd
000003d0: 87a7 e63c 4b98 073d 6312 5b3d 0877 963d
000003e0: 32b0 c3bb 6d24 353e d56b f13d 9f85 8d3d
000003f0: c568 6ebc d3a7 e83d f883 d43d e969 e7bc

network.9.bias f4 [64]
-0.0038513304 -0.0038629686 0.07311817 -0.018434873 0.0051977467 -0.007719294 0.08066413 -0.05690929
0.08498263 0.13655579 -0.06931247 0.07365143 -0.045503072 -0.101764545 -0.042190228 0.108202085
0.04423056 -0.034302063 0.009301567 -0.012176201 -0.016649226 0.05559731 0.017205752 0.09245766
0.0881985 -0.015792591 0.058016937 -0.042325616 -0.07065771 -0.047184356 -0.039066337 0.009629822
-0.030124461 0.05127465 -0.038047317 -0.023994297 -0.027218074 0.122733645 -0.044435527 0.0015205686
-0.050222747 -0.003455213 0.12189053 -0.06547312 0.07767314 -0.022206435 0.027495038 0.092387386
0.067193076 -0.024978435 -0.010811345 0.049282186 -0.07522701 -0.010503698 0.028247142 -0.02415787
-0.003787406 -0.010503759 0.10459483 0.008497479 -0.053397786 0.1376064 0.07289543 0.0773357
00000000: 9a66 7cbb dc29 7dbb fbbe 953d bb04 97bc
00000010: dc51 aa3b 22f2 fcbb 3c33 a53d b719 69bd
00000020: 600b ae3d 48d5 0b3e b2f3 8dbd 90d6 963d
00000030: 6e61 3abd ee69 d0bd a9cf 2cbd 0e99 dd3d
00000040: 1b2b 353d 5280 0cbd 9a65 183c b07e 47bc
00000050: f563 88bc 01ba 633d 14f3 8c3c 715a bd3d
00000060: 6aa1 b43d 775f 81bc 2ba3 6d3d a05d 2dbd
00000070: fdb4 90bd 6244 41bd 0604 20bd 67c6 1d3c
00000080: 93c7 f6bc 5e05 523d 81d7 1bbd b08f c4bc
00000090: 70f8 debc c75b fb3d 0702 36bd d14d c73a
000000a0: 5eb6 4dbd db70 62bb bea1 f93d c516 86bd
000000b0: 1813 9f3d 45ea b5bc 463d e13c 9935 bd3d
000000c0: 869c 893d 939f ccbc 1122 31bc 1edc 493d
000000d0: 9e10 9abd b417 2cbc 8d66 e73c bae6 c5bc
000000e0: 2136 78bb f517 2cbc d035 d63d 0339 0b3c
000000f0: a3b7 5abd b1e8 0c3e 334a 953d 2e62 9e3d

network.12.weight f4 [6, 64]
0.08436231 0.018111099 0.104305096 -0.1475386 0.30345866 -0.057764668 -0.19861755 -0.24185635
-0.06396149 -0.07630954 0.1331606 0.19669397 -0.22655576 -0.2579478 -0.16357395 0.15020789
0.21008216 0.03539408 -0.015935674 -0.19072764 -0.1415793 0.07025296 -0.1869599 -0.1413704
-0.32607853 -0.17347334 -0.0011386194 -0.00078147766 -0.020607492 0.10448185 0.0024863533 0.09360965
0.0615101 0.1645261 0.035492554 -0.109008774 -0.20273007 -0.056933522 -0.038928617 0.0077592377
0.079662494 0.11700053 0.1043566 -0.13481376 0.06447312 -0.048521604 -0.1723777 -0.13661917
0.0430168 -0.07065182 0.060227845 -0.11513271 0.07477759 -0.1570356 -0.21013837 -0.13438497
-0.09499815 -0.16931212 -0.18155986 -0.2931032 -0.23945247 0.15911534 -0.23960158 0.10094528
-0.09691273 -0.33446577 0.03804958 -0.12333087 -0.12825724 -0.048038132 -0.009011744 -0.11032836
0.01918907 -0.17825241 0.11395319 0.11050186 0.053576957 0.11811522 -0.03203853 0.08728366
0.02983519 -0.012351807 0.16881457 0.16830972 -0.10824946 0.0909712 -0.06765306 -0.13827051
-0.057845145 -0.21065298 0.10670736 0.00720529 0.14620969 -0.047983747 0.116345085 -0.19080757
0.007461518 -0.095491804 -0.2583736 0.20242299 0.020347483 0.036009394 0.013804835 0.17963241
0.064330816 0.105053335 0.020393336 0.21509564 0.05647058 -0.18548068 -0.17687933 -0.1816502
-0.2689812 0.10788678 -0.26819497 -0.2438716 -0.041478433 -0.10763703 -0.2587739 -0.057772726
-0.19466761 0.11230744 -0.26601234 0.023266735 -0.19765621 0.12120014 0.067606755 0.10382792
0.12698133 -0.2762535 -0.04981987 -0.1811327 -0.026301742 -0.10815051 -0.29632965 -0.27816147
0.024272105 0.12160967 0.059177313 -0.12948826 0.12907225 -0.010420402 -0.16459766 0.11352421
-0.17331854 -0.0571538 -0.060243256 0.039946407 -0.17041041 0.05744012 -0.20060375 -0.16156268
0.085741 0.035916507 -0.2821802 0.065344416 -0.117751166 -0.09283481 0.079074614 -0.18584375
-0.09891728 -0.16407846 -0.124160975 -0.04344252 0.041130453 0.060083658 -0.1643714 0.06770684
-0.117676154 -0.17796187 0.064858675 -0.13577238 0.12004566 -0.16709872 0.11987933 -0.012884681
-0.013553538 -0.059646156 -0.22370458 0.034771416 0.0085313115 0.09191681 0.036370583 -0.20660257
-0.28664193 0.12404912 0.082181826 -0.017504077 0.029616436 0.10188988 0.11414917 0.09702238
-0.1418372 0.06790904 0.0032662686 0.10631735 -0.069681086 0.12022301 0.09882894 0.010673058
-0.13822469 0.035576884 -0.0888226 -0.014533422 -0.0013809205 0.05151577 0.1287441 -0.14359762
0.022451665 -0.115650006 -0.003908513 -0.10304446 -0.075194426 -0.129178 0.025229646 0.07026166
0.02114931 -0.02482275 -0.121859916 -0.1035153 -0.09183366 -0.0111595625 0.032746438 0.09765541
-0.08358613 0.13224459 0.047639243 0.0981363 0.034863688 -0.14292185 0.05410218 -0.065941885
-0.023819998 -0.13217115 -0.16446029 -0.056944843 -0.22060291 0.033277486 -0.05825008 0.009059808
0.06407594 -0.11392566 -0.018317673 0.0531278 -0.022575775 0.042452578 0.10012206 0.10745026
0.07113734 -0.10258076 0.06051945 0.12352783 0.029229887 -0.18552993 -0.08457913 -0.16806948
00000000: 26c6 ac3d ba5d 943c e99d d53d 5c14 17be
00000010: ef5e 9b3e a59a 6cbd 6662 4bbe 31a9 77be
00000020: 3efe 82bd 2d48 9cbd 415b 083e 256a 493e
00000030: 3cfe 67be bc11 84be ee7f 27be 19d0 193e
00000040: c71f 573e 62f9 103d 888b 82bc 1b4e 43be
00000050: 2afa 10be c9e0 8f3d 6b72 3fbe 67c3 10be
00000060: c4f3 a6be ffa2 31be ba3d 95ba 14dc 4cba
00000070: 0bd1 a8bc 95fa d53d 16f2 223b 6bb6 bf3d
00000080: 04f2 7b3d 8879 283e a460 113d fe3f dfbd
00000090: 7998 4fbe 2033 69bd 9d73 1fbd 3441 fe3b
000000a0: 1726 a33d f99d ef3d eab8 d53d 9e0c 0abe
000000b0: 7c0a 843d 97be 46bd c883 30be e5e5 0bbe
000000c0: 6232 303d e7b1 90bd 79b1 763d b3ca ebbd
000000d0: fe24 993d f1cd 20be 832e 57be 379c 09be
000000e0: 648e c2bd 2860 2dbe d4ea 39be 9f11 96be
000000f0: 0733 75be 22ef 223e 1e5a 75be 66bc ce3d
00000100: 2e7a c6bd 193f abbe e0d9 1b3d e594 fcbd
00000110: de55 03be a2c3 44bd fea5 13bc d6f3 e1bd
00000120: 6632 9d3c cd87 36be 4a60 e93d cd4e e23d
00000130: 8373 5b3d 64e6 f13d d53a 03bd c7c1 b23d
00000140: ee68 f43c 3c5f 4abc badd 2c3e 6259 2c3e
00000150: e5b1 ddbd 1c4f ba3d b08d 8abd c996 0dbe
00000160: 08ef 6cbd 6ab5 57be 6389 da3d 5a1a ec3b
00000170: feb7 153e 9b8a 44bd 5546 ee3d 0f63 43be
00000180: c07f f43b 3591 c3bd 8b49 84be f947 4f3e
00000190: c4af a63c 967e 133d ad2d 623c 8ff1 373e
000001a0: e0bf 833d 3426 d73d ed0f a73c 0842 5c3e
000001b0: b24d 673d a6ee 3dbe db1f 35be 8302 3abe
000001c0: e7b7 89be bef3 dc3d da50 89be 7ab9 79be
000001d0: 4ae5 29bd ce70 dcbd 037e 84be 18a3 6cbd
000001e0: f256 47be 7101 e63d c532 88be e199 be3c
000001f0: 6466 4abe c737 f83d 6975 8a3d bca3 d43d
00000200: 6507 023e 1971 8dbe ec0f 4cbd da7a 39be
00000210: c076 d7bc 047e ddbd 85b8 97be 2e6b 8ebe
00000220: 4bd6 c63c 7e0e f93d e963 723d 9298 04be
00000230: 842b 043e 55ba 2abc 4a8c 28be 627f e83d
00000240: 6a7a 31be 1a1a 6abd a2c1 76bd d89e 233d
00000250: 1180 2ebe 5546 6b3d 126b 4dbe b070 25be
00000260: fa98 af3d 301d 133d ec79 90be 4bd3 853d
00000270: 8627 f1bd 2d20 bebd dff1 a13d d34d 3ebe
00000280: 2595 cabd 2f04 28be 1c48 febd c9f0 31bd
00000290: 6878 283d 481a 763d fa50 28be e2a9 8a3d
000002a0: 3200 f1bd a33b 36be a0d4 843d ea07 0bbe
000002b0: 80da f53d ed1b 2bbe 4b83 f53d 451a 53bc
000002c0: a90f 5ebc 874f 74bd d012 65be 796c 0e3d
000002d0: eac6 0b3c e13e bc3d 52f9 143d a08f 53be
000002e0: bbc2 92be 770d fe3d f24e a83d b664 8fbc
000002f0: 2b9e f23c a4ab d03d 0ac7 e93d abb3 c63d
00000300: c53d 11be e513 8b3d e50e 563b e9bc d93d
00000310: f5b4 8ebd 7b37 f63d d466 ca3d 0dde 2e3c
00000320: c68a 0dbe 11b9 113d a0e8 b5bd 971d 6ebc
00000330: 0100 b5ba 3302 533d 7ed5 033e 410b 13be
00000340: 8eec b73c e9d9 ecbd fc12 80bb f908 d3bd
00000350: 89ff 99bd 3d47 04be 67ae ce3c 58e5 8f3d
00000360: 5141 ad3c 1459 cbbc b191 f9bd d4ff d3bd
00000370: 4913 bcbd 99d6 36bc 2121 063d 8fff c73d
00000380: 342f abbd 206b 073e 5e21 433d affb c83d
00000390: 3acd 0e3d 1b5a 12be 3f9a 5d3d 8a0c 87bd
000003a0: 2822 c3bc e057 07be 4768 28be ff3e 69bd
000003b0: bbe5 61be f94d 083d a397 6ebd 976f 143c
000003c0: 3f3a 833d db51 e9bd f20e 96bc 899c 593d
000003d0: d5f0 b8bc c1e2 2d3d cb0c cd3d e20e dc3d
000003e0: 74b0 913d dd15 d2bd 3ee3 773d 29fc fc3d
000003f0: 8473 ef3c 8ffb 3dbe d337 adbd 681a 2cbe

network.12.bias f4 [6]
0.053930674 -0.022071691 0.039864432 0.15370472 -0.117529444 -0.13587314
00000000: 69e6 5c3d b1cf b4bc e348 233d c564 1d3e
00000010: 47b3 f0bd 5422 0bbe
