gesture_recognization/Step_2/models/hand_gesture_model.pth (torch, 827122 bytes, 10 tensors)

network.0.weight f4 [512, 63]
0	0x3dd5d59e	0.10441135
1	0x3dd3f820	0.103500605
2	0x3d5fadea	0.054609217
3	0x3d2b015e	0.04174935
4	0x3c5062a7	0.012718833
5	0x3e1352cc	0.14387053
6	0xbd31537d	-0.04329251
7	0xbd82f468	-0.06394273
8	0x3e138d3c	0.14409345
9	0xbc71a3e5	-0.014748548
10	0x3d3fda45	0.046839017
11	0x3e617eac	0.22020978
12	0xbdeadf32	-0.114683524
13	0x3e03a898	0.12857282
14	0x3e10995e	0.14121005
15	0xbca1e88c	-0.019764207
16	0x3d8ae6b7	0.067822866
17	0x3de40050	0.11132872
18	0xbdcb50bc	-0.09927508
19	0x3da07f4c	0.0783678
20	0xbdfa4f39	-0.12222142
21	0xbd25a8b1	-0.04044408
22	0x3dafb2d3	0.0857903
23	0xbdda6d68	-0.10665399
24	0x3be69e29	0.007037897
25	0x3d8ec55e	0.069712386
26	0x3d101635	0.03517743
27	0x3cd154c3	0.025553113
28	0x3d8fc439	0.070198484
29	0xbdfce591	-0.12348474
30	0x3e1041fc	0.14087671
31	0x3d81a5ad	0.06330428
32	0x3c539498	0.0129138455
33	0x3dc7928e	0.0974475
34	0xbe05d7c3	-0.13070588
35	0xbcba9b87	-0.02277924
36	0xbd8097b2	-0.062789336
37	0xbe52f61c	-0.20601696
38	0xbd71d669	-0.059042368
39	0x3c3e96e2	0.011632653
40	0x3db03608	0.08604056
41	0xbdb3f704	-0.08787349
42	0xbbb1ddf2	-0.0054280693
43	0x3d136cac	0.03599231
44	0xbdd4a857	-0.10383671
45	0xbddd59ea	-0.10808165
46	0xbd81f54f	-0.06345617
47	0xbd613880	-0.054985523
48	0xbcd77839	-0.026302444
49	0xbd528b0d	-0.05140214
50	0xbddd4d4e	-0.1080576
51	0xbdbe4395	-0.09290234
52	0xbd315bee	-0.04330056
53	0x3dc26baf	0.09493195
54	0x3dd81bc9	0.105521746
55	0xbcd02460	-0.02540797
56	0xbd60d336	-0.054888926
57	0x3e075e2a	0.13219514
58	0xba8df747	-0.0010831141
59	0xbd3d58c7	-0.046227243
60	0x3e0a1d6b	0.13487785
61	0xbd202f16	-0.039107405
62	0xbdf3ead3	-0.119100235
63	0xbd5a24b9	-0.053257678
64	0x3d982bcb	0.07430228
65	0x3dd5ba20	0.10435891
66	0xbc883c63	-0.016630357
67	0x3d585daf	0.05282372
68	0x3dffbabf	0.12486791
69	0xbd66ef06	-0.056380294
70	0x3dcb2bc4	0.09920457
71	0x3ce02cf1	0.02736518
72	0x3caef453	0.021356737
73	0xbd9e8e33	-0.07741966
74	0x3e59ff98	0.21288908
75	0x3d713300	0.058886528
76	0x3e09577f	0.13412283
77	0x3df46429	0.119331665
78	0x3d9542ad	0.07288108
79	0x39a93d48	0.0003227985
80	0xbaed88ae	-0.0018122399
81	0xbd5ed80c	-0.054405257
82	0x3dffea9d	0.12495921
83	0x3cc1e34a	0.02366795
84	0xbd320a8b	-0.043467086
85	0x3d50a3b7	0.05093738
86	0x3d5b17d7	0.053489532
87	0x3ca5c91c	0.020237498
88	0x3d7b05be	0.061284773
89	0xbd679aad	-0.056543995
90	0x3d98dd3c	0.07464072
91	0x3e1a9dfe	0.15099332
92	0xbdc60f53	-0.096708916
93	0xbd7118e0	-0.058861613
94	0x3e0a9151	0.13531996
95	0x3e3ca6ac	0.18422955
96	0xbdf33e0e	-0.1187707
97	0xbdc9356f	-0.09824645
98	0x3dfb1d4f	0.122614495
99	0xbcc8c2da	-0.024506975
100	0xbe1e6596	-0.1546844
101	0x3df2e115	0.11859337
102	0x3d14ca0e	0.036325507
103	0xbd7e7a6f	-0.06212848
104	0xbd8ecb4b	-0.06972369
105	0xbdc4eeea	-0.09615882
106	0x3d919e25	0.07110242
107	0x3de9ed53	0.11422219
108	0x3deb6515	0.11493889
109	0xbde86e18	-0.11349124
110	0x3dc99660	0.09843135
111	0xbd92ef86	-0.07174592
112	0xbd637a1d	-0.05553638
113	0x3d0b6a9b	0.034037214
114	0x3bf6a939	0.007527497
115	0x3d69468b	0.05695204
116	0x3b8a4ff7	0.0042209583
117	0xbd5d88e5	-0.05408563
118	0xbc421c1d	-0.011847523
119	0x3dbb8f7a	0.09158225
120	0xbd8cd876	-0.06877224
121	0x3c77f3cd	0.01513381
122	0x3c8e3fa1	0.017364325
123	0xbce21bdb	-0.027601173
124	0xbe08757a	-0.13326064
125	0xbe0196fa	-0.12655249
126	0xbd8b6e13	-0.06808104
127	0x3d81fb24	0.063467294
128	0x3d6e1d00	0.058133125
129	0xbc0788b0	-0.008272335
130	0xbd698ce8	-0.057019144
131	0x3beac040	0.0071640313
132	0xbdaa3250	-0.083103776
133	0x3d553e90	0.052061617
134	0x3dba2aca	0.090901926
135	0xbdf57a9c	-0.119862765
136	0x3dee857a	0.116465524
137	0xbdc166b9	-0.09443421
138	0xbd711a5e	-0.058863036
139	0xbde52b83	-0.1118994
140	0xbce07f34	-0.027404405
141	0x3de5e04a	0.1122442
142	0xbcbad2b4	-0.02280555
143	0xbd83061e	-0.06397651
144	0x3c592810	0.013254181
145	0xbdc7ee03	-0.09762194
146	0x3daad93e	0.08342217
147	0xbdf600fa	-0.12011905
148	0x3c2075e0	0.009793729
149	0x3de52228	0.111881554
150	0xbd94ce95	-0.07265965
151	0x3c76b5b0	0.015057966
152	0x3d4ce240	0.050020456
153	0xbd954e84	-0.07290366
154	0xbd8f951a	-0.07010861
155	0xbdd62ba3	-0.10457542
156	0x3d1c0724	0.038092747
157	0xbdeadcdb	-0.11467906
158	0xbd98db67	-0.07463723
159	0xbdc02920	-0.09382844
160	0xbddbbd13	-0.107294224
161	0xbc843768	-0.016139701
162	0x3d9614dc	0.07328197
163	0xbdacfe45	-0.084469356
164	0x3dfbfa12	0.123035565
165	0xbc736fd8	-0.014858209
166	0xbd84fab8	-0.06493133
167	0x3cbfb7c8	0.023403063
168	0x3dcad876	0.09904568
169	0xbda591f2	-0.080844775
170	0xbdbee8d0	-0.09321749
171	0xbcefe590	-0.029284269
172	0x3d224f64	0.039626494
173	0xbdf2f14c	-0.1186243
174	0xbdadc538	-0.08484882
175	0xbc1d2190	-0.009590521
176	0xbc84e1f8	-0.016221032
177	0xbce02ad8	-0.02736418
178	0x3da65f42	0.08123638
179	0x3dc8695e	0.09785722
180	0xbdff8231	-0.12476004
181	0x3d29b044	0.041427866
182	0x3df4bf5c	0.119505614
183	0xbb212fe0	-0.0024595186
184	0x3db0277e	0.086012825
185	0x3ddd116e	0.1079434
186	0xbda29c32	-0.07939948
187	0x3cc1ecd0	0.023672491
188	0xbb81fb40	-0.003966719
189	0x3cade150	0.021225601
190	0x3aa23580	0.0012375563
191	0xbad2e280	-0.0016089231
192	0xbb4d9ea0	-0.0031375065
193	0x3d3f2998	0.046670526
194	0xbdd2c7fa	-0.10292049
195	0xbdde82a4	-0.108647615
196	0xbdcf8fb2	-0.101348296
197	0x3df66c38	0.1203236
198	0xbcf4dfbc	-0.029891841
199	0xbcc40658	-0.023928806
200	0xbd7f3160	-0.062302947
201	0x3d7647a4	0.060126916
202	0xbd3fe254	-0.046846703
203	0xbb0a6c60	-0.0021121725
204	0xbd0d647e	-0.034519665
205	0x3c9da530	0.019243807
206	0x3deccb10	0.115621686
207	0xbd79a824	-0.060951367
208	0xbd739b42	-0.059474237
209	0xbd3b4a16	-0.04572495
210	0x3d5d41b0	0.054017723
211	0x3d1a694c	0.037698075
212	0x3da115c0	0.078654766
213	0x3d481508	0.048848182
214	0xbcfeb094	-0.031090058
215	0xbc9a6538	-0.018847093
216	0xbdd7fa70	-0.10545814
217	0xbc83a0a4	-0.01606781
218	0x3d396d70	0.045270383
219	0xbd28fe62	-0.041258223
220	0x3dc203ea	0.09473403
221	0xbe00a2cb	-0.125621
222	0xbdbe9b4c	-0.09306964
223	0xbd40141c	-0.046894178
224	0xbcd9d960	-0.02659291
225	0x3dce2948	0.100664675
226	0x3d2abef4	0.041686013
227	0xbbc8dc30	-0.006129764
228	0xbdfed4fb	-0.124429666
229	0x3d51a670	0.051184118
230	0xbd668dd8	-0.056287616
231	0x3dbfe1d2	0.09369244
232	0xbd81e2b7	-0.063420705
233	0x3d000bac	0.03126113
234	0xbc9483a4	-0.018129177
235	0x3d291edc	0.041289195
236	0xbb944f90	-0.004526086
237	0x3de3faea	0.111318424
238	0x3d887b18	0.06664103
239	0x3dbaf4ba	0.09128709
240	0xbc413858	-0.011793219
241	0x3d438518	0.04773435
242	0xbdbe81d4	-0.093021065
243	0x3dc31874	0.095261484
244	0xbd8798be	-0.0662093
245	0x3d79d5d0	0.060994923
246	0xbd31c57e	-0.043401234
247	0x3dbac4f6	0.091195986
248	0xbc85bedc	-0.01632636
249	0xbdc6d1b4	-0.097079664
250	0xbde3c682	-0.11121847
251	0x3d431d30	0.047635257
252	0x3c0a5762	0.008443685
253	0xbc7da5db	-0.015481438
254	0x3dde53aa	0.108558014
255	0xbb02872c	-0.0019916994

network.0.bias f4 [512]
0	0xbe0efe6e	-0.13964245
1	0xbbd5ba33	-0.006522441
2	0xbd57c53a	-0.052678324
3	0x3b496080	0.0030727684
4	0x3d247cc3	0.040158045
5	0xbb6cd32e	-0.0036136615
6	0x3c5b40e0	0.013382167
7	0xbcbc5fc5	-0.022994885
8	0xbe0b1adc	-0.13584465
9	0xbd5eab26	-0.05436244
10	0xbccb4b0a	-0.024816055
11	0x3d5b171f	0.053488847
12	0xbd2352e9	-0.03987399
13	0xbd28aa76	-0.04117819
14	0x3e1cc87a	0.1531085
15	0xbde45ad8	-0.111501396
16	0x3db0dd56	0.086359665
17	0x3da2bf42	0.07946636
18	0xbd2770fc	-0.040879235
19	0xbe226050	-0.15857053
20	0x3dbf5aff	0.09343528
21	0xbd94d611	-0.072673924
22	0x3bd8c4c6	0.006615254
23	0xbd82ff54	-0.06396356
24	0x3d9d737f	0.07688045
25	0x3dfe5fe6	0.12420635
26	0x3df5e288	0.12006098
27	0xbdfe40b4	-0.12414685
28	0xbdb1cfb9	-0.08682198
29	0xbb91b919	-0.004447114
30	0xbcbf01b4	-0.023316242
31	0xbbb195d0	-0.0054194704
32	0xbd7c8a51	-0.061655346
33	0x3dec3f2c	0.115354866
34	0x3df99ab1	0.12187708
35	0xbdefd77c	-0.11711022
36	0xbda853fd	-0.082191445
37	0xbcf9f27c	-0.030511133
38	0xbde8486d	-0.11341939
39	0x3dfb7e68	0.122799695
40	0xbddff474	-0.109352976
41	0xbd0cf9ea	-0.034418024
42	0xbdcad0a0	-0.09903073
43	0xbde5cdfd	-0.1122093
44	0x3e11497c	0.14188188
45	0xbdf1a460	-0.1179893
46	0xbdcb1488	-0.099160254
47	0x3db5d36e	0.08878218
48	0xbdb3d6f2	-0.08781232
49	0xbd8fdfb5	-0.070250906
50	0x3df3b657	0.11900013
51	0xbdf3ce44	-0.119045764
52	0x3ba94ec0	0.0051668584
53	0xbd568a13	-0.05237777
54	0x3d0ed7e1	0.034873847
55	0xbe040cd6	-0.12895522
56	0xbb6cd264	-0.0036136145
57	0x3c491560	0.012273163
58	0x3dc8d510	0.098062634
59	0xba6d2fd9	-0.00090479624
60	0xbdb65844	-0.08903554
61	0x3e35aeca	0.17742458
62	0x3d715a42	0.058923967
63	0xbd89ba34	-0.067249686
64	0xbc28eb88	-0.010310061
65	0xbdaed861	-0.08537365
66	0xbd92fc65	-0.07177047
67	0x3de1d7ec	0.11027512
68	0xbc510430	-0.012757346
69	0x3d8168ff	0.063188545
70	0x3c1dc370	0.009629115
71	0x3e0a4ba3	0.13505416
72	0xbdec3ac1	-0.11534644
73	0xbd26347a	-0.04057739
74	0xbcfad4b4	-0.030619003
75	0xbdab0426	-0.083504006
76	0x3c99ef89	0.018790977
77	0xbdc5f913	-0.09666648
78	0xbbca852c	-0.006180426
79	0xbbfd0f69	-0.0077227843
80	0x3df3b7a4	0.11900261
81	0x3c5663de	0.013085334
82	0xbdc5cf04	-0.09658626
83	0xbb25d180	-0.0025301874
84	0x3bc72161	0.006076977
85	0xbde6d071	-0.11270226
86	0xbe047c99	-0.12938155
87	0xbdfe9cff	-0.124322884
88	0xbd0e6656	-0.034765564
89	0xbd84e805	-0.06489567
90	0xbdacd33e	-0.08438729
91	0x3e050281	0.12989236
92	0x3de58516	0.11207025
93	0xbdbe7248	-0.09299141
94	0xbc7df870	-0.015501127
95	0x3d050594	0.032476023
96	0xbdebc754	-0.11512628
97	0xbd2e0cac	-0.042492554
98	0x3e0d5355	0.1380132
99	0xbdab871c	-0.083753794
100	0x3bc9e240	0.0061610043
101	0xbddfc53b	-0.109262906
102	0x3cc82faf	0.0244368
103	0x3da5ba95	0.08092228
104	0x3de45560	0.111490965
105	0x3d9d7b58	0.076895416
106	0x3cb77855	0.022396246
107	0xbd34c3f3	-0.044132184
108	0x3c669f51	0.01407607
109	0x3cb418f9	0.021984564
110	0x3ba4df40	0.0050314963
111	0x3da3512b	0.07974466
112	0x3da51de0	0.08062339
113	0xbd9a343e	-0.07529496
114	0xbdec09a4	-0.11525276
115	0x3d49c5aa	0.049260773
116	0xbe04bf82	-0.1296368
117	0xbd8cbb6c	-0.068716854
118	0xbda4799c	-0.08031008
119	0xbdf0b6f0	-0.117536426
120	0xbd06b716	-0.032889448
121	0x3da22ee2	0.079190984
122	0xbdceb9e4	-0.100940496
123	0x3d81526b	0.06314548
124	0x3d20d9f7	0.039270367
125	0xbd5fabc1	-0.054607157
126	0xbdfc5bf5	-0.12322227
127	0xbc78d740	-0.015188038
128	0x3c9ee8e8	0.019398168
129	0x3c8988f0	0.01678893
130	0xbcf2a463	-0.029619401
131	0x3d60b8a4	0.054863587
132	0xbc024998	-0.007952116
133	0x3d8a1b1d	0.06743453
134	0x3d77ad1c	0.060467824
135	0xbd834f04	-0.064115554
136	0xbd8dd482	-0.06925298
137	0xbde161c6	-0.11004977
138	0x3de635ae	0.11240707
139	0x3e0d2faa	0.13787714
140	0x3c98aa74	0.018635966
141	0x3d942034	0.07232705
142	0x3dab66b2	0.08369197
143	0xbd8a4ffe	-0.067535385
144	0xbccda9ba	-0.025105346
145	0x3d096b3b	0.03354953
146	0xbd801f1b	-0.06255933
147	0xbd9b0ad8	-0.07570428
148	0xbadcb840	-0.0016839579
149	0x3d2a2efb	0.04154871
150	0xbc2cc008	-0.010543831
151	0xbd8c0575	-0.06836978
152	0xbd29dbf0	-0.041469514
153	0x3ca5138a	0.020150919
154	0x3dc08f9b	0.094023906
155	0xbdb3e03f	-0.08783006
156	0xbafd5e40	-0.0019330457
157	0x3cb83a88	0.022488847
158	0xbe1f32f0	-0.15546775
159	0x3db9dfee	0.09075914
160	0xbbee6870	-0.0072756335
161	0xbb057858	-0.002036592
162	0xbdccfff3	-0.10009756
163	0xbe17e935	-0.14835055
164	0x3dc87f92	0.09789957
165	0xbe0fc045	-0.14038189
166	0x3dd9067e	0.105969414
167	0x3b6068c0	0.0034242123
168	0x3c3c07eb	0.011476497
169	0xbe244a2b	-0.16043918
170	0xbdb243e7	-0.087043576
171	0xbc8a9fc0	-0.016921878
172	0x3d912acb	0.0708824
173	0xbe015678	-0.12630641
174	0xbcd01bfc	-0.025403969
175	0xbd6ca8ad	-0.05777805
176	0xbda33a9e	-0.07970165
177	0x3d8907c2	0.06690933
178	0xbc8e4167	-0.01736517
179	0xbcdeed16	-0.02721266
180	0x3ca9587c	0.020672075
181	0xba105184	-0.0005505311
182	0x3da4b534	0.08042374
183	0xbcc37d5e	-0.02386349
184	0x3ddcabd3	0.1077496
185	0xbd7d8a15	-0.061899263
186	0x3dbddcaa	0.09270604
187	0x3c889698	0.016673371
188	0x3df368e1	0.118852384
189	0xbdd798ea	-0.10527213
190	0x3addb780	0.0016915649
191	0x3d4b0add	0.049570907
192	0x3c45d8ae	0.012075586
193	0xbc17d5f4	-0.009267319
194	0xbe13e446	-0.14442548
195	0x3da7cfa9	0.08193905
196	0xbc77ee30	-0.015132472
197	0xbdc01090	-0.09378159
198	0xbdb8991c	-0.09013578
199	0x3d374caf	0.044750866
200	0xbe1ad00d	-0.15118428
201	0xbd102975	-0.035195787
202	0x3dd570ca	0.104219034
203	0x3bc7af20	0.0060938746
204	0xbcb1aa85	-0.021687755
205	0x3d31b9f4	0.04339023
206	0xbc3c6ed3	-0.011501032
207	0x3db790db	0.08963176
208	0x3ce9f688	0.028559938
209	0xbbeb69f0	-0.0071842596
210	0x3daa7a68	0.083241284
211	0x3d95874d	0.07301197
212	0xbd9e3eb4	-0.077268034
213	0x3dd07556	0.1017863
214	0x3e01cc2c	0.12675542
215	0xbdbe7f23	-0.09301593
216	0xbdac3c46	-0.08409934
217	0xbe0416e6	-0.1289936
218	0x3dee9c66	0.116509244
219	0xb9d74000	-0.0004105568
220	0xbd88aad7	-0.0667321
221	0x3e0f3590	0.13985276
222	0x3d5a23dc	0.053256854
223	0xbcfc7bcc	-0.03082075
224	0xbdda7fe5	-0.10668925
225	0xbda75a09	-0.0817147
226	0x3d0b0a42	0.03394533
227	0xbc56f850	-0.013120726
228	0x3df8adc6	0.1214252
229	0xbdfbad37	-0.122888975
230	0xbdd86965	-0.105669774
231	0x3cd09628	0.025462225
232	0xbd88d836	-0.06681864
233	0xbe1a5296	-0.15070567
234	0xbd7001ec	-0.058595583
235	0xbcd633c0	-0.026147723
236	0x3e399bea	0.18125883
237	0x3da07c65	0.078362264
238	0x3d895152	0.06704964
239	0x3d5027fc	0.050819382
240	0xbdcd9f3b	-0.100401364
241	0xbdb0b204	-0.08627704
242	0xbdd78d0a	-0.10524948
243	0x3db915f8	0.09037393
244	0xbd046ed0	-0.03233224
245	0x3cfe640b	0.031053564
246	0x3d94fc84	0.07274726
247	0x3d6481f9	0.055788014
248	0xbd40a7f4	-0.047035173
249	0x3d190ac8	0.037363797
250	0xbe543c82	-0.20726207
251	0xbdbcbdcd	-0.09215889
252	0x3db7e082	0.08978368
253	0xbdb3c401	-0.08777619
254	0x3bf3f162	0.0074445466
255	0xbd92da97	-0.07170599

network.3.weight f4 [256, 512]
0	0x3d0a2d7f	0.033734795
1	0xbd0d2400	-0.03445816
2	0x3baa6048	0.005199466
3	0xbcea0350	-0.028566033
4	0xbcee40ce	-0.029083636
5	0xbb91fd44	-0.0044552404
6	0xbd33e79b	-0.043922048
7	0xbcbf750a	-0.023371238
8	0xbce96315	-0.028489629
9	0x3d021fe9	0.031768713
10	0xbd18ef2a	-0.03733746
11	0x3d2f10aa	0.0427405
12	0x3d0ceae1	0.034403685
13	0x3c5eea64	0.013605688
14	0xbd3babe8	-0.04581824
15	0x3cd9f2b2	0.026604984
16	0xbc288659	-0.010285937
17	0x3d057a3c	0.032587275
18	0xbc217964	-0.009855602
19	0xbb70475c	-0.0036663627
20	0x3c1b0db2	0.009463714
21	0xbce78e37	-0.028266056
22	0xbd030b1a	-0.03199301
23	0xbcc2fbaf	-0.023801653
24	0xbd5d1b1f	-0.053980943
25	0x3c6ce629	0.014459171
26	0xbc98c4d0	-0.018648535
27	0x3b674f00	0.003529489
28	0xbd382898	-0.04496059
29	0x3c5dd621	0.013539822
30	0xbcf0221e	-0.029313143
31	0xbd3353a7	-0.04378095
32	0xbd52ceb8	-0.051466674
33	0x3cf8472e	0.030307379
34	0x3c12f56d	0.008969647
35	0xbb8ae0e0	-0.004238233
36	0x3aec7279	0.0018039487
37	0x3cbffa42	0.023434762
38	0x3c813242	0.015771035
39	0x3ceb5afe	0.028729912
40	0x3cffba72	0.031216834
41	0x3c307def	0.010772212
42	0x3c6e6a9c	0.014551785
43	0xbd2fbe68	-0.042906195
44	0xbc7a9869	-0.0152951265
45	0x3d2110c5	0.039322633
46	0x3cd99cea	0.02656408
47	0x3cb510c1	0.022102715
48	0xbc4bb79d	-0.012433914
49	0xbc86439d	-0.016389662
50	0xbcb32cf1	-0.021872016
51	0xbd4ca663	-0.049963366
52	0x3c4677eb	0.012113552
53	0xbd100898	-0.035164446
54	0xbcc4b16f	-0.024010388
55	0x3cf7e17b	0.030258885
56	0xbbef2619	-0.0072982428
57	0x3d2da689	0.04239515
58	0xbce03047	-0.02736677
59	0x3bfcb2f5	0.007711763
60	0x3c82ffb2	0.015991066
61	0xbc9f7934	-0.019466974
62	0x3c7c7a1f	0.015409975
63	0x3cb49796	0.022044938
64	0xbd1ed4b9	-0.038777087
65	0x3cacce62	0.021094505
66	0xbcb74e55	-0.022376219
67	0x3cacea30	0.021107763
68	0x3d121fa5	0.03567471
69	0xbc6fd59d	-0.014638332
70	0x3c6b7774	0.014371742
71	0x3c427d82	0.011870744
72	0x3d199400	0.03749466
73	0x3c6f9fe7	0.014625526
74	0x3d05853b	0.03259776
75	0x3cf2b607	0.029627813
76	0x3cdde378	0.027086005
77	0x3c253358	0.010083042
78	0xbcd6694d	-0.026173258
79	0xbd54fa7a	-0.051996686
80	0x3cba6517	0.022753282
81	0xbd5cee2a	-0.05393807
82	0x3bc76b00	0.0060857534
83	0xbb188330	-0.0023271553
84	0xbd01741b	-0.031604867
85	0xbb378ec0	-0.002800867
86	0xbcf96f41	-0.030448558
87	0xbd2f1f04	-0.04275419
88	0x3d21a9ce	0.03946858
89	0x3cfbaaa9	0.030721026
90	0x3d203f0d	0.03912263
91	0xbc1c0608	-0.009522922
92	0x3c7bee6d	0.015376669
93	0x3cc69026	0.024238657
94	0x3c0fa8c0	0.0087682605
95	0xbcaac450	-0.020845562
96	0xbd1c34dd	-0.03813635
97	0x3d137a5e	0.03600537
98	0x3b297f97	0.0025863403
99	0x3cb775ba	0.022395004
100	0xbcbc2ba6	-0.022970032
101	0xbb0756d0	-0.002065111
102	0xbd28e5b6	-0.041234694
103	0xbbabd28b	-0.0052436045
104	0x3cf6d872	0.030132506
105	0xbce5eb61	-0.028066339
106	0xbd357b8e	-0.044307284
107	0xb989b870	-0.00026268093
108	0x3ca56142	0.020187978
109	0xbd57b886	-0.05266621
110	0xbd2d94c3	-0.0423782
111	0xbd2234cf	-0.039601143
112	0xbd319405	-0.043354053
113	0x3d155cbd	0.036465395
114	0xbcf152a0	-0.029458344
115	0x3afba3ed	0.0019198634
116	0xbb8ffd7b	-0.004394231
117	0x3cabd1ee	0.020974126
118	0xbcf886ed	-0.030337775
119	0x3c83fab6	0.01611076
120	0xbce3c1fe	-0.027802464
121	0xbcfe4e46	-0.031043183
122	0xbbc0e9f0	-0.0058872625
123	0x3c3ac269	0.01139889
124	0xbccebb16	-0.025235694
125	0xbc0fafad	-0.008769912
126	0x3d0281bc	0.031862006
127	0x3c1e2a3c	0.009653624
128	0x3c3d1c04	0.011542324
129	0xbc585780	-0.013204455
130	0x3c3e78b6	0.011625459
131	0xbd32f90f	-0.043694552
132	0x3c694f10	0.014240041
133	0x3cb4579e	0.022014435
134	0xbd2c3f06	-0.04205229
135	0xbd178a54	-0.036997154
136	0xbab57676	-0.0013844508
137	0xbd272e79	-0.040815804
138	0xbcb6b13c	-0.022301309
139	0x3cb62fed	0.02223965
140	0x3d04b10f	0.03239542
141	0x3cdd7118	0.027031466
142	0x3b8f1780	0.004366815
143	0x3ca42ada	0.020039964
144	0x3cb18232	0.021668527
145	0x3c0730c6	0.008251375
146	0x3d2216c6	0.0395725
147	0xbc96baea	-0.018399674
148	0xba375840	-0.0006994046
149	0x3d1bdd14	0.038052633
150	0x3c36fdcc	0.011168908
151	0xbc90677a	-0.017627466
152	0x3c48a292	0.012245791
153	0x39369c06	0.00017414996
154	0xbcd8edba	-0.026480544
155	0xbcd76a79	-0.026295887
156	0x3c474fe4	0.0121650435
157	0xbcc6bec6	-0.02426089
158	0x3b858e03	0.004075767
159	0xbc3acf54	-0.01140197
160	0xbd2654f8	-0.040608376
161	0x3b965b96	0.0045885546
162	0xbc8f874d	-0.017520571
163	0xbd1c8f5b	-0.038222652
164	0xba6ab180	-0.0008952841
165	0xbbb60d1b	-0.0055557615
166	0xbcdc9c0d	-0.02692988
167	0xbc21053c	-0.009827908
168	0x3d352881	0.04422808
169	0xbc2036bf	-0.0097786775
170	0xbd1a7830	-0.037712276
171	0x3ca6064e	0.020266678
172	0x3ccf33ca	0.02529325
173	0xbcfe1c4d	-0.031019354
174	0x3ce024aa	0.027361233
175	0xbd15d8dc	-0.036583766
176	0xbc4b965c	-0.012425985
177	0xbd569271	-0.05238575
178	0x3cc21008	0.023689285
179	0xbd265239	-0.040605757
180	0x3d25c945	0.04047515
181	0x3baab51f	0.0052095796
182	0x3b8cec09	0.0043005985
183	0xbd50e9c8	-0.0510042
184	0x3d04595c	0.032311782
185	0x3d06af4c	0.03288202
186	0xbbdf93b3	-0.006823027
187	0x3d24a745	0.040198583
188	0xbcd617c0	-0.026134372
189	0x3d2c17cb	0.04201488
190	0x3b416db0	0.0029514842
191	0x3c6421e2	0.013924094
192	0xbb8b3a93	-0.004248926
193	0x3b605062	0.00342276
194	0xbcda36e5	-0.026637504
195	0xbc4f51f7	-0.012653819
196	0x3d11227b	0.035433274
197	0xbc358550	-0.011079147
198	0x3d2119a5	0.039331097
199	0x3b6893d0	0.0035488494
200	0xbb611d8e	-0.0034349891
201	0xbbdc6ded	-0.0067269714
202	0xbd06b57f	-0.032887932
203	0x3ca6b662	0.020350639
204	0xbc887a18	-0.016659781
205	0x3d0f47ad	0.034980465
206	0xbc99637f	-0.018724201
207	0x3cfcbb6d	0.03085109
208	0x3d0ddcad	0.03463428
209	0xbcd5e48f	-0.026109962
210	0xbbc12df9	-0.005895373
211	0xbb5fd105	-0.0034151685
212	0x3c563d80	0.013076186
213	0x3cfa9dae	0.030592766
214	0x3b470669	0.003036881
215	0x3d03781a	0.03209696
216	0x3c6966fb	0.014245744
217	0xbd1235ef	-0.035695966
218	0x3bd85c74	0.006602818
219	0xbc2d4908	-0.010576494
220	0xbd003c77	-0.031307664
221	0x3c59a047	0.013282842
222	0x3d1711a5	0.03688206
223	0xbcaed35f	-0.021341024
224	0x3b8fa21b	0.004383338
225	0x3b7e29a8	0.0038782153
226	0xbcd551d6	-0.026039999
227	0xbce7d4f6	-0.02829979
228	0x3a95afc0	0.0011420175
229	0x3c1783af	0.009247704
230	0x3c8ea096	0.017410558
231	0x3cb2a57e	0.021807428
232	0xbc75772a	-0.014982024
233	0x3c8c62fa	0.01713704
234	0xbd020f73	-0.031753015
235	0x3d2573b7	0.040393557
236	0x3d4c44dc	0.049870357
237	0x3cdc3b00	0.026883602
238	0xbd089bcc	-0.033351704
239	0xbb29d3c0	-0.0025913566
240	0x3d0630f8	0.032761544
241	0xbc4b2bc5	-0.012400572
242	0xbcaff71f	-0.021480141
243	0x3cd311f2	0.025765393
244	0x3caacc2a	0.020849306
245	0xbccc203d	-0.024917716
246	0xbcf2f799	-0.02965908
247	0xbc8ee427	-0.017442776
248	0x3c96ad92	0.018393312
249	0xba8f8ce0	-0.0010952018
250	0x3d064925	0.0327846
251	0xbd4a393d	-0.049370993
252	0xbd4d17d7	-0.050071564
253	0x3c8fc830	0.017551512
254	0x3b29ccd3	0.0025909438
255	0x3c8a95e6	0.01691718

network.3.bias f4 [256]
0	0xbc55e07b	-0.013054009
1	0xbc5f536c	-0.013630729
2	0xbd9c0ccd	-0.07619629
3	0x3cecf3fb	0.028924933
4	0x3d0c39d5	0.03423484
5	0xbd44c1be	-0.04803633
6	0xbd23f3a6	-0.040027283
7	0x3b9eba03	0.0048439517
8	0xbda0bd78	-0.07848638
9	0x3be5d523	0.0070139333
10	0xbcfdd9bd	-0.030987615
11	0xbd18308a	-0.037155665
12	0xbb352944	-0.0027643004
13	0x3c388614	0.0112624355
14	0xbc07b454	-0.00828274
15	0xbc664bf9	-0.014056199
16	0x3a035e5a	0.0005011313
17	0xbbe9c2a8	-0.0071338005
18	0xbc5219d8	-0.012823544
19	0xbd29d84b	-0.04146604
20	0xbc5b0fd0	-0.013370469
21	0x3b76a896	0.0037637106
22	0xbcdb3dfc	-0.026762955
23	0x3d0ad2ae	0.033892326
24	0xbd6bb61d	-0.057546724
25	0xbcae9924	-0.021313258
26	0x3d7b7647	0.061392095
27	0x3c684b43	0.0141781
28	0x3d2053cf	0.039142426
29	0xbd3efa30	-0.046625316
30	0xbcae062a	-0.021243174
31	0x3d54739b	0.051868062
32	0xbc44cf36	-0.012012294
33	0x3c463f88	0.012100108
34	0xbd529b3e	-0.05141758
35	0xbcf25a1b	-0.029583981
36	0xbd0fa276	-0.035067044
37	0xbc87fdbb	-0.01660048
38	0xbc15e043	-0.009147706
39	0xbd4b1e47	-0.04958942
40	0xbd4c4897	-0.049873915
41	0xbcf7bf85	-0.03024269
42	0xbc7b8f16	-0.015353939
43	0xbd27d427	-0.04097381
44	0x3ce193d7	0.027536316
45	0x3d932bca	0.071860865
46	0x3989de2f	0.00026296216
47	0x3d896e4b	0.0671049
48	0x3d3766de	0.044775836
49	0x3dae579c	0.08512804
50	0xbb8e94b4	-0.004351223
51	0x3d0393c4	0.032123342
52	0x3d1965bf	0.03745055
53	0x3aa1943d	0.0012327504
54	0x3c414d88	0.01179827
55	0xbd14fd31	-0.036374275
56	0xbc05441c	-0.008133914
57	0xbcaa2c33	-0.020773029
58	0xbce97661	-0.02849883
59	0xbcaa3a44	-0.020779736
60	0x3d8615e3	0.06547143
61	0xbd3a2005	-0.045440692
62	0xbcad4f16	-0.021155875
63	0xbd1ca974	-0.03824754
64	0xbd8649f4	-0.06557074
65	0x3d0ab44b	0.033863347
66	0x3d01845a	0.03162036
67	0xbcd14d93	-0.025549686
68	0xbd70aada	-0.058756687
69	0xbc84e302	-0.016221527
70	0x3c3874f1	0.01125835
71	0x3d4c2aec	0.04984562
72	0x3c016988	0.007898696
73	0x3d0ad498	0.03389415
74	0x3b104f7f	0.002202004
75	0xbd1a9498	-0.037739366
76	0xbc131e16	-0.008979341
77	0x3ce78d33	0.028265571
78	0x3c209b08	0.009802587
79	0x3ab12c60	0.0013517253
80	0xbd23c880	-0.039986134
81	0x3c5dd81a	0.013540292
82	0x3c1a2dbb	0.009410317
83	0xbb9eb69c	-0.004843546
84	0x3caf493d	0.021397227
85	0x3d9664d6	0.07343452
86	0xbd217d53	-0.03942616
87	0xbd93306b	-0.07186969
88	0xbcebd12d	-0.028786266
89	0xbd28e2e9	-0.041232023
90	0x3c59c80c	0.013292324
91	0x3cba88ef	0.022770373
92	0xbd378f31	-0.044814292
93	0xbc63a073	-0.013893235
94	0x3ca27762	0.019832317
95	0xbced3f8f	-0.028960971
96	0xbcae4b53	-0.021276152
97	0xbc573b04	-0.013136629
98	0xbbc3296c	-0.0059558656
99	0x3cdc639e	0.02690297
100	0xbb382a53	-0.00281014
101	0x3d998c4f	0.07497465
102	0xbcc18650	-0.023623616
103	0xbcad5491	-0.021158488
104	0xbdbb494f	-0.09144842
105	0xbd12fa49	-0.03588322
106	0xbc4b0a30	-0.012392566
107	0xbcef5122	-0.029213492
108	0x3d7eb481	0.06218386
109	0x3d63c7db	0.05561052
110	0xbd882330	-0.066473365
111	0xbd8afd28	-0.06786567
112	0x3d38ef26	0.045149945
113	0xbbff73d1	-0.007795789
114	0x3b94baec	0.0045388844
115	0xbd727c18	-0.059200376
116	0x3d0b2d28	0.03397861
117	0x3cc48aaa	0.023991901
118	0xbc9e9790	-0.01935938
119	0xbd0a4bd9	-0.03376374
120	0x3d65cf19	0.056105707
121	0xbc840373	-0.016114926
122	0xbda867f8	-0.082229555
123	0xbcab46a2	-0.020907704
124	0xbd04e94d	-0.032449055
125	0xbd13a6f0	-0.036047876
126	0xbc80ca5e	-0.015721496
127	0xbc8544a8	-0.01626809
128	0x3cb3a0d1	0.02192727
129	0x3da07921	0.078356035
130	0xbd314f29	-0.043288384
131	0xbcbd7438	-0.023126706
132	0x3d4aea11	0.04953963
133	0x3dbfb4df	0.0936067
134	0x3b04f780	0.0020289123
135	0xbd5ca57c	-0.053868756
136	0xbd0f1d13	-0.034939837
137	0xbd9016f1	-0.07035626
138	0x3b98f799	0.004668188
139	0xbd6c9b8e	-0.057765536
140	0xbd81e621	-0.06342722
141	0x3d01d870	0.03170055
142	0x3d813abf	0.06310033
143	0xbbb3134c	-0.005464947
144	0xbcc4fdf8	-0.024046883
145	0xbc3d4cf0	-0.011553988
146	0xb79f3f1c	-1.8983665e-05
147	0xbc997aa2	-0.018735234
148	0x3d07e2cb	0.03317527
149	0xbb2e9728	-0.002664039
150	0x3d04f7c3	0.032462846
151	0xbabf9851	-0.0014617537
152	0x3c43ea8c	0.011957776
153	0x3d999782	0.07499601
154	0xbce1c0a9	-0.027557688
155	0x3d10a889	0.035316978
156	0x3c3b0575	0.011414875
157	0xbceb5c70	-0.028730601
158	0x3cb72090	0.022354394
159	0x3cebb81a	0.02877431
160	0x3dd45cf9	0.103692956
161	0xbd5128ff	-0.051064488
162	0xbcb289f1	-0.021794291
163	0xbbddf8f7	-0.0067740637
164	0x3c752d17	0.014964364
165	0x3d11c582	0.03558875
166	0x3d84c355	0.06482569
167	0xbd3a12a0	-0.04542792
168	0xbbd31a12	-0.006442317
169	0xbd1da708	-0.03848937
170	0xbd2e6b2d	-0.04258268
171	0xbd5a27d9	-0.053260658
172	0xbd00d5fb	-0.031454068
173	0x3d158c89	0.036510978
174	0xbcaac160	-0.020844162
175	0x3d06e620	0.032934308
176	0xbb161915	-0.0022903134
177	0xbd4bbf2a	-0.049742855
178	0xbcad4981	-0.021153213
179	0x3c2162dc	0.00985023
180	0x3dba1d1c	0.090875834
181	0x38c8ace5	9.568947e-05
182	0x3c0f380c	0.00874139
183	0x3c3d6497	0.011559627
184	0xbce89182	-0.028389696
185	0xba9bef08	-0.0011896798
186	0x3d2fd965	0.042931933
187	0xbc8c3e27	-0.01711948
188	0x3d118004	0.035522476
189	0xba016541	-0.00049360475
190	0xbbe18e73	-0.0068834363
191	0xbd2afd9e	-0.041745774
192	0xbd1ec20f	-0.038759287
193	0xbd45e2b8	-0.04831192
194	0x3d083a1f	0.033258554
195	0x3bb7bea4	0.005607443
196	0x3c8c55b0	0.017130703
197	0xbba2a888	-0.004963938
198	0xbdc83f0d	-0.09777651
199	0xbd32466e	-0.0435242
200	0x3ce2601c	0.02763372
201	0xbdae26e3	-0.08503511
202	0xbd343c7c	-0.044002995
203	0x3c4e9173	0.01260792
204	0xbd1abbb5	-0.037776668
205	0x3ddcc27b	0.10779282
206	0x3c537d60	0.01290831
207	0x3d698b73	0.057017755
208	0xbd03a196	-0.032136522
209	0xbd2434c1	-0.040089373
210	0xbbade0c4	-0.005306335
211	0x3d50952f	0.050923523
212	0xbda62982	-0.08113386
213	0xbce5f6fa	-0.02807187
214	0xbb8cde37	-0.004298951
215	0xbd3b387f	-0.045708176
216	0xbd010ed4	-0.03150828
217	0xbd901999	-0.07036132
218	0xbc4c7c13	-0.0124807535
219	0xbd7ef78c	-0.062247798
220	0xbce8647e	-0.02836823
221	0xbcb8ffd8	-0.022582933
222	0xbcd738b0	-0.026272148
223	0xbd3551be	-0.04426741
224	0x3d02ad27	0.031903412
225	0x3d70a784	0.058753505
226	0xbcbb8bc0	-0.022893786
227	0xbd1dbd2c	-0.038510486
228	0xbb571450	-0.0032818504
229	0x3d8daca3	0.069176935
230	0x3b955c12	0.004558095
231	0x3b9714b9	0.0046106246
232	0x3beccddd	0.0072266893
233	0xbc4147fd	-0.0117969485
234	0x3c99a5f8	0.018755898
235	0x3d57cdc4	0.052686468
236	0xbd190307	-0.037356403
237	0x3b7ebd1f	0.003887005
238	0x3c785ff8	0.0151595995
239	0xbd78b887	-0.060722854
240	0x3c86750b	0.016413232
241	0xb9ec0ec7	-0.00045024438
242	0xbc2dd460	-0.010609716
243	0x3cfbf01c	0.030754142
244	0x3d056f9c	0.032577142
245	0xbc862273	-0.016373849
246	0x3cc86a55	0.024464766
247	0x3c978d56	0.018500011
248	0xbb0b9dc9	-0.0021303764
249	0xbd7ad92d	-0.06124227
250	0xbd7a7402	-0.06114579
251	0x3c0c3d97	0.008559606
252	0x3c937394	0.017999448
253	0x3cc631fb	0.024193754
254	0x3d227318	0.039660543
255	0xbd32a377	-0.043612923

network.6.weight f4 [128, 256]
0	0x3cc2a0fa	0.0237584
1	0xbd210746	-0.039313577
2	0xbd6db458	-0.058033317
3	0xbd00e523	-0.03146852
4	0x3c82df9b	0.015975764
5	0x3cdebb1d	0.027188832
6	0xbd62c1cc	-0.0553606
7	0xbd5ccc12	-0.053905554
8	0xbd35ac16	-0.044353567
9	0x3d185cdb	0.03719793
10	0xbd88bcd0	-0.06676638
11	0xbd64a58c	-0.05582194
12	0x3d59d7d4	0.053184345
13	0xbceb6164	-0.028732963
14	0xbc4dfec4	-0.012572948
15	0xb96aaca9	-0.000223803
16	0x3d0dbc2d	0.034603287
17	0xbc1fbf00	-0.009750128
18	0x3d4c3888	0.0498586
19	0x3d2a60b5	0.041596133
20	0x3ca984a6	0.020693135
21	0x3d37e15e	0.04489266
22	0xbca9ebe4	-0.020742364
23	0xbbc9e7e0	-0.006161675
24	0xbc8d5857	-0.017254038
25	0xbd3c9e09	-0.04604915
26	0xbd4ed7b2	-0.05049867
27	0xbcc844c4	-0.024446853
28	0x3cdf417e	0.027252909
29	0x3d142003	0.03616334
30	0xbb34bcb8	-0.0027578305
31	0xbd655764	-0.055991545
32	0x3cfaa9de	0.030598577
33	0x3c5b16d2	0.01337214
34	0x3cf57e81	0.029967548
35	0xbc745203	-0.014912131
36	0xbc23cc0d	-0.00999738
37	0xbd67f3d6	-0.056629024
38	0xbd01138a	-0.031512775
39	0xbd486944	-0.048928514
40	0xbd16326a	-0.036669172
41	0x3ca74b63	0.02042169
42	0xbc7f7149	-0.015590974
43	0xbc43c27e	-0.011948226
44	0xbca89aac	-0.020581566
45	0x3cc63a6d	0.024197781
46	0x3d0ba3bd	0.0340917
47	0xbbce6cc9	-0.0062995893
48	0x3d209f40	0.039214373
49	0x3d0a6fb9	0.033797953
50	0x3cecba96	0.028897565
51	0x3c89b89e	0.016811665
52	0xbc51a7e6	-0.012796378
53	0xbc77aca0	-0.015116841
54	0xbce88ff2	-0.028388951
55	0xbd856a03	-0.06514361
56	0x3c572d77	0.013133398
57	0xbd1888b2	-0.037239738
58	0xbd1d7b36	-0.03844758
59	0xbd37c13f	-0.04486203
60	0xbca0f17b	-0.019646397
61	0x3d5cd7bd	0.05391668
62	0xbcfb093b	-0.03064405
63	0xbc3b15e6	-0.011418795
64	0xbbc2fca8	-0.005950529
65	0xbd89505a	-0.06704779
66	0xbd66cab4	-0.056345657
67	0x3a910c10	0.0011066217
68	0xbcd8a01b	-0.026443532
69	0xbc89bd24	-0.016813822
70	0x3d00adff	0.031415936
71	0x3c159d73	0.009131777
72	0x3d6f4eed	0.05842488
73	0xbb1675b2	-0.0022958335
74	0xbc62ff60	-0.013854831
75	0xbcdb6150	-0.0267798
76	0x3cd12f7d	0.02553534
77	0xbd24561c	-0.040121183
78	0x3cf2d0cb	0.029640576
79	0x3d13d678	0.036093205
80	0xbd39d1b5	-0.045366008
81	0x3d2a32a0	0.041552186
82	0xbb28f4a6	-0.0025780587
83	0xba7e7f68	-0.0009708316
84	0xbce04f78	-0.027381644
85	0xbc8eafdf	-0.017417846
86	0xbcedb6e2	-0.02901787
87	0xbc8fd577	-0.017557843
88	0xbc25bba7	-0.010115541
89	0x3a5d9187	0.0008452166
90	0x3b5f7f93	0.003410314
91	0x3d022207	0.031770732
92	0x3ce12cd0	0.027487189
93	0x3a9b8210	0.0011864323
94	0x3c82aa68	0.015950397
95	0xbd359db9	-0.04433987
96	0x3cbdaaab	0.02315267
97	0xbd0abfd0	-0.033874333
98	0xbbc351e9	-0.005960692
99	0x3c579a50	0.01315935
100	0xbd2e9aae	-0.042627983
101	0xbb828304	-0.0039829034
102	0xbd8a3852	-0.067490235
103	0x3d5218f0	0.051293314
104	0xbcfcb32e	-0.030847158
105	0xbc198971	-0.0093711475
106	0xbd759e05	-0.059965152
107	0x3d0ccf63	0.034377467
108	0x3bbe1500	0.0058008432
109	0xbc7ce9be	-0.015436588
110	0x3cc3ba35	0.023892501
111	0xbc749289	-0.014927515
112	0x3d26a88f	0.040688094
113	0xbd423858	-0.047417015
114	0xbd05aa71	-0.03263325
115	0xbd1af706	-0.037833236
116	0x3d1470b1	0.036240283
117	0x3c94dafc	0.018170826
118	0xbd0a6ab4	-0.033793166
119	0xbd39bc6c	-0.04534571
120	0x3d102380	0.035190105
121	0xbd488152	-0.048951454
122	0x3d44eb0f	0.04807573
123	0xbd27a85c	-0.040932044
124	0xbd6d14a1	-0.057881
125	0xb99dfc4e	-0.00030133355
126	0xbd73c506	-0.059514068
127	0xbcaa3b30	-0.020780176
128	0xbd809c38	-0.06279796
129	0xbd01c2fa	-0.031680085
130	0xbd555072	-0.05207867
131	0xbd8632a3	-0.06552627
132	0xbce449d1	-0.02786723
133	0xbc8637f7	-0.016384108
134	0xbd82c265	-0.06384734
135	0x3cf0d85c	0.029400043
136	0x3ca47ecc	0.020079993
137	0xbd8698ac	-0.065720886
138	0xbcda09ef	-0.026616065
139	0x3c3d4170	0.011551246
140	0x3d25d033	0.040481757
141	0xbd6be3a1	-0.05759013
142	0x3cea291d	0.028584057
143	0x3bcf6452	0.006329098
144	0x3ccc94a1	0.024973216
145	0x3d546b97	0.05186042
146	0x3d5a9209	0.053361926
147	0xbd86394f	-0.065538995
148	0x3d0be101	0.034150127
149	0xbd865dce	-0.065608606
150	0xbcba916b	-0.022774419
151	0xbd0763b3	-0.033054065
152	0x3d316f15	0.043318827
153	0xbd87b681	-0.06626607
154	0xbd4f4b55	-0.05060895
155	0x3c29eaae	0.010370893
156	0x3ca5805c	0.020202808
157	0xbd48b812	-0.049003668
158	0xbc56c083	-0.013107422
159	0x3c0e4cc8	0.008685298
160	0x3d6a4502	0.057194717
161	0x3c7a4bee	0.015276892
162	0xbca47868	-0.020076945
163	0xbcc55b6d	-0.024091447
164	0xbd7efae2	-0.06225098
165	0xbd80d6b0	-0.062909484
166	0xbcf6022e	-0.030030336
167	0x3d3ef78f	0.04662281
168	0x3cd40144	0.02587951
169	0x3d837627	0.0641902
170	0x3caca9b4	0.021077015
171	0xbd1b5f87	-0.0379329
172	0x3b2fd27f	0.0026828346
173	0xbcaeabca	-0.02132215
174	0xbd067f7a	-0.032836415
175	0x3d272662	0.04080809
176	0x3cf514b4	0.029917099
177	0x3d2a9cde	0.041653506
178	0xbc9d6fd3	-0.019218361
179	0xbccd37d0	-0.025051028
180	0x3cc47c51	0.02398506
181	0xbcde4a57	-0.027135057
182	0x3b158994	0.0022817599
183	0xbbbe2b35	-0.0058034905
184	0x3d4eb324	0.05046381
185	0x3c867c1d	0.016416604
186	0x3ce6dc5c	0.028181247
187	0x3d5621b3	0.05227823
188	0x3ca8568a	0.020549078
189	0xbd4395dc	-0.04775034
190	0xbd8b108f	-0.06790268
191	0x3d4efc90	0.05053383
192	0x3cbaf4b7	0.022821767
193	0xbcd41a79	-0.02589153
194	0x3c568ef6	0.013095608
195	0xbdacaacf	-0.08431017
196	0xbd9b39dc	-0.07579395
197	0x3d814ef8	0.0631389
198	0xbb9732b5	-0.004614199
199	0xbd54febf	-0.052000757
200	0x3c2d66e8	0.010583617
201	0xbd73c661	-0.05951536
202	0x3c620434	0.013794947
203	0x3d11f65c	0.035635337
204	0x3d1a101a	0.037613012
205	0x3d3d188c	0.046165988
206	0xb9a1d154	-0.00030864275
207	0x3d0ce0fc	0.03439425
208	0xbcb2b12b	-0.021812996
209	0x3c873f4c	0.016509674
210	0x3ce6e9c2	0.028187636
211	0xbc9944d1	-0.018709572
212	0x3cc83dd2	0.02444354
213	0x3c77f448	0.015133925
214	0xbd284d4c	-0.04108934
215	0xbcfb9224	-0.030709334
216	0x3d49d687	0.049276855
217	0xbd69c582	-0.057073124
218	0xbd281a2d	-0.04104059
219	0xbcf31f6c	-0.029678069
220	0xbb2faf00	-0.002680719
221	0xbd8af1c7	-0.067843966
222	0xbd6d90da	-0.05799947
223	0x3d4b208c	0.049591586
224	0xbd4313e8	-0.047626406
225	0x3d2d3b2e	0.042292766
226	0xbc9c44e0	-0.01907581
227	0x3babac66	0.0052390574
228	0x3c81fe84	0.015868433
229	0xbd4f775d	-0.050650943
230	0xbd2998b6	-0.041405402
231	0x3d64b81d	0.055839647
232	0xbd7b2eb1	-0.061323825
233	0xbd67bdd6	-0.056577526
234	0xbbfc69db	-0.0077030486
235	0xbcd50fcd	-0.026008511
236	0xbd26ba31	-0.04070491
237	0xbd615ee0	-0.05502212
238	0xbc00d291	-0.007862703
239	0xbd421f04	-0.04739286
240	0xbd16c019	-0.036804292
241	0x3c9336cf	0.01797047
242	0x3d3b49d4	0.045724705
243	0x3c8bee25	0.01708133
244	0x3d3a441b	0.045475107
245	0x3a2db909	0.00066269987
246	0x3c53b790	0.012922183
247	0xbc3547b0	-0.011064455
248	0xbcf17b04	-0.029477604
249	0xbae74640	-0.0017644837
250	0x3d474b6d	0.048655916
251	0xbb270a69	-0.0025488383
252	0xbc4af082	-0.012386443
253	0xbd24f126	-0.04026904
254	0x3ccc5a5b	0.024945429
255	0xbb075b60	-0.002065383

network.6.bias f4 [128]
0	0xbceef1f2	-0.029168103
1	0xbd371e30	-0.044706523
2	0x3d8aaa87	0.06770807
3	0x3d82133e	0.063513264
4	0x3d4aae58	0.049482673
5	0x3bb672db	0.005567891
6	0xbd1869b4	-0.03721018
7	0xbd0d4597	-0.034490194
8	0xbc9d0a26	-0.019169878
9	0xbd86bf70	-0.065794826
10	0x3c92f7f0	0.017940491
11	0x3d547806	0.051872276
12	0x3d113005	0.035446186
13	0xbd636c74	-0.05552335
14	0x3d59736d	0.053088594
15	0x3da3375f	0.079695456
16	0x3bb46552	0.0055052424
17	0xbc576406	-0.013146406
18	0x3d0837a0	0.033256173
19	0xbbba9d4a	-0.00569502
20	0x3d1e8110	0.038697302
21	0xbceb1b2e	-0.028699484
22	0xbccf6ce6	-0.025320482
23	0x3df2ea1c	0.11861059
24	0x3ce578fe	0.028011795
25	0x3bf93a2a	0.0076058106
26	0x3c882268	0.016617969
27	0xbd73c2c7	-0.059511926
28	0x3d9af46f	0.07566153
29	0x3d9d6a9c	0.0768635
30	0x3d8c1834	0.06840554
31	0x3cb95a41	0.022626044
32	0xbdc891d1	-0.09793437
33	0x3d948624	0.07252148
34	0x3d37d9c2	0.044885404
35	0xbc37609c	-0.011192467
36	0xbc8f2627	-0.017474247
37	0x3d0ec73b	0.03485797
38	0x3d429e1d	0.04751407
39	0xbcab2768	-0.020892814
40	0xbcd970c9	-0.026543038
41	0x3db8ae9e	0.090176806
42	0x3b7077d5	0.003669252
43	0x3ba70630	0.005097173
44	0x3cfe016e	0.031006541
45	0xbd42ac77	-0.047527757
46	0x3db712e5	0.08939151
47	0x3de5ce69	0.1122101
48	0xbd56fa6d	-0.05248492
49	0x3ce8d9ec	0.028424226
50	0x3d5665d4	0.052343205
51	0x3b3f44cc	0.0029185293
52	0x3a5da7bf	0.0008455477
53	0x390785e7	0.00012924486
54	0x3cca3087	0.024681343
55	0x3d77fe53	0.060545277
56	0x3d889978	0.06669897
57	0xbce77bc0	-0.02825725
58	0xbbaaa04c	-0.005207097
59	0xbd377974	-0.04479356
60	0x3dfc8979	0.12330908
61	0x3d85bd86	0.06530289
62	0x3d563912	0.05230052
63	0x3ccf1492	0.025278363
64	0xbb669713	-0.0035185262
65	0x3d59db3f	0.053187605
66	0x3bb97aa7	0.0056603733
67	0xbd0e5e44	-0.034757867
68	0xbd6f6951	-0.058450047
69	0x3aec9826	0.0018050715
70	0xbcae5acb	-0.021283528
71	0x3d18d3b2	0.037311263
72	0xbc3fb0a7	-0.011699832
73	0x3d837c30	0.06420171
74	0x3d35760b	0.044302028
75	0x3c920bef	0.017827956
76	0x3bbac6e0	0.0056999773
77	0xbb6bafed	-0.0035963014
78	0xbded2b25	-0.11580495
79	0xbdb54307	-0.08850675
80	0xbc1e3221	-0.009655506
81	0x3d09dc2e	0.033657245
82	0x3daf649b	0.08564111
83	0xbd5159fc	-0.051111206
84	0x3cd3454e	0.025789883
85	0x3c49be51	0.012313441
86	0xbcf2fdb9	-0.029662
87	0x3c4b1025	0.012393986
88	0xbd6d38e2	-0.057915576
89	0x3bd25085	0.00641829
90	0x3d8739bd	0.066028096
91	0x3d535467	0.051594164
92	0xbc183acc	-0.009291362
93	0xbd719797	-0.058982458
94	0x3dfd4891	0.123673566
95	0x3c1e07a4	0.009645376
96	0x3d30c160	0.043153167
97	0x3dd2c99a	0.10292359
98	0x3cd03bbc	0.025419109
99	0x3d20f105	0.039292354
100	0x3c0c01ec	0.00854538
101	0xbd106812	-0.0352555
102	0x3dba60d3	0.09100499
103	0xbd94de0c	-0.072689146
104	0x3d40c084	0.047058597
105	0x3cc4280b	0.023944875
106	0x3ca71405	0.020395288
107	0xbc738eca	-0.0148655865
108	0x3d1e8faa	0.038711227
109	0xbd1b76c4	-0.03795506
110	0x3df49b3c	0.11943671
111	0xbdc1847f	-0.094491
112	0x3db849d6	0.08998458
113	0xbbe3c03c	-0.0069504064
114	0x3ba5c207	0.0050585303
115	0x3cb86598	0.022509381
116	0x3cfa5ce8	0.03056188
117	0xbd98ad8e	-0.07454978
118	0xbc50f6f5	-0.012754192
119	0xbcc341bf	-0.023835061
120	0x3c8e4334	0.01736603
121	0x3d9ae0c9	0.075624056
122	0x3d9e8507	0.07740217
123	0x3cedad5f	0.029013334
124	0x3cf1aea0	0.029502213
125	0x3d10d4a6	0.035359047
126	0x3db0b2c4	0.08627847
127	0xbc48ebe2	-0.01226327

network.9.weight f4 [64, 128]
0	0xbd4c1b6a	-0.04983083
1	0x3d649f3b	0.055815917
2	0x3d9de944	0.077105075
3	0xbcb494b2	-0.02204356
4	0xbd317efb	-0.04333399
5	0xbd6d13d9	-0.057880256
6	0x3d2ebdae	0.04266136
7	0x3d3f5014	0.046707228
8	0x3d742bd9	0.05961213
9	0xbd87abf6	-0.06624596
10	0x3cff311b	0.031151345
11	0x3d0c4f35	0.034255225
12	0xbdb67f2a	-0.08910973
13	0x3d5bed07	0.053692844
14	0x3d2af362	0.041736014
15	0x3d86d301	0.065832146
16	0xbd8f9831	-0.0701145
17	0xbcee12ec	-0.029061757
18	0x3bda7c6a	0.0066676633
19	0x3d8f9b5b	0.070120536
20	0xbd4bdd2c	-0.049771473
21	0x3d43ce1a	0.047803976
22	0x3d52cbdc	0.051463947
23	0xbc111d05	-0.008857016
24	0xbd6425e9	-0.055700216
25	0xbd614b1e	-0.055003278
26	0xbc82b74f	-0.015956549
27	0x3d70628d	0.058687735
28	0xbdb27aca	-0.087148264
29	0xbd8843cf	-0.066535585
30	0xbe0227bc	-0.1271047
31	0xbc972db5	-0.018454412
32	0x3dd13ab9	0.102162786
33	0xbe0ad610	-0.13558221
34	0xbda3ca58	-0.079975784
35	0x3d38eefb	0.045149785
36	0x3ad7bd1e	0.001645956
37	0xbd7fa7a2	-0.062415726
38	0x3c658951	0.01400979
39	0x3d4ed722	0.050498135
40	0x3d53722f	0.051622566
41	0x3c743fba	0.014907772
42	0x3d93de1a	0.07220097
43	0x3cb5481c	0.022129111
44	0x3b51478b	0.0031933512
45	0xbcc74e00	-0.024329185
46	0xbc9fcdcc	-0.019507311
47	0xbca33d2a	-0.019926626
48	0x3dbe553a	0.092935994
49	0x3b082c99	0.0020778535
50	0xbd4099ee	-0.0470218
51	0x3d1c95f3	0.03822894
52	0x3d9b6a36	0.075886175
53	0xbd16b07f	-0.036789414
54	0x3c946620	0.018115103
55	0xbca1d5b9	-0.019755231
56	0xbd80c29e	-0.0628712
57	0xbd12e007	-0.03585818
58	0x3dcdce1a	0.100490764
59	0x3d5b8368	0.053592116
60	0xbd035063	-0.032059085
61	0xbc051033	-0.008121538
62	0xbc9e8212	-0.019349132
63	0x3cb9e1b5	0.022690633
64	0xbd8e472a	-0.06947167
65	0x3d0c1aef	0.034205373
66	0xbca77203	-0.020440107
67	0x3e192cda	0.14958516
68	0x3d53a70d	0.051672984
69	0xbd16a817	-0.036781397
70	0x3dc1b4cb	0.09458312
71	0xbd7e3193	-0.062058996
72	0x3cab7674	0.020930506
73	0xbd8a139d	-0.06742022
74	0x3a14f098	0.0005681603
75	0x3c8220fe	0.015884873
76	0x3d78a54b	0.06070451
77	0xbd81490a	-0.06312759
78	0x3db71af8	0.08940691
79	0x3ddc59b4	0.10759297
80	0x3e57f111	0.21088053
81	0xbd0056b4	-0.031332687
82	0x3d8ced2f	0.06881177
83	0xbcec893e	-0.028874036
84	0x3d1ca212	0.0382405
85	0xbb666f64	-0.0035161609
86	0xbd0b5e8f	-0.034025725
87	0xbbf816d0	-0.007571079
88	0x3c30e26d	0.010796172
89	0x3c1fd4e4	0.009755347
90	0xbb35e061	-0.0027752148
91	0x3d098da4	0.033582345
92	0xbca0a945	-0.019611964
93	0x3dd91a5d	0.106007315
94	0x3c26dc35	0.010184337
95	0xbcbd5bf9	-0.023115145
96	0xbddabe42	-0.1068082
97	0xbdd8592c	-0.10563883
98	0x3dad2cb7	0.08455794
99	0xbdbdb3d7	-0.09262817
100	0x3c12ae42	0.008952679
101	0x3c5f8baf	0.013644143
102	0x3e09ef4a	0.13470188
103	0x3a6da35e	0.0009065176
104	0x3ddf84a2	0.109139696
105	0xbde2c7f8	-0.11073297
106	0xbdd41097	-0.10354727
107	0xbccddaf7	-0.025128825
108	0x3d3f1ad6	0.046656452
109	0x3dfd6d46	0.12374358
110	0xbd85c587	-0.06531816
111	0xbd0388e6	-0.03211298
112	0x3cac8a07	0.02106191
113	0x3de386e5	0.111097135
114	0x3e39d80c	0.18148822
115	0xbd21a928	-0.03946796
116	0xbd110238	-0.035402507
117	0x3d987825	0.07444791
118	0x3d349a51	0.04409248
119	0xbd768573	-0.06018586
120	0xbd05ba94	-0.032648638
121	0xbdf596aa	-0.119916275
122	0x3dc095cb	0.09403571
123	0x3cffb51e	0.031214293
124	0x3d80a2b3	0.062810324
125	0x3bdba6c1	0.006703228
126	0x3d7248ce	0.059151463
127	0xbcc09a02	-0.023510937
128	0x3da5457c	0.08069894
129	0xbc55e4e9	-0.013055065
130	0x3e2aa5dd	0.16664834
131	0x3d59e009	0.053192172
132	0x3d9e7757	0.07737606
133	0x3d5ecb9f	0.054393407
134	0x3d366852	0.04453308
135	0xbd3fb3c0	-0.046802282
136	0x3ba1883e	0.0049295714
137	0xbd36ce7e	-0.04463052
138	0xbc8eacdc	-0.01741641
139	0xbc19c85f	-0.009386151
140	0xbdf565c4	-0.11982301
141	0xbcf035f9	-0.029322611
142	0xbe169acf	-0.14707492
143	0xbd9ebed7	-0.077512436
144	0x3d7885ff	0.060674664
145	0x3e2a9c72	0.16661242
146	0x3d818ca8	0.06325656
147	0x3d2ab3de	0.04167544
148	0xbca09664	-0.019602962
149	0xbdccbcf6	-0.09996979
150	0x3e10751a	0.1410717
151	0x3c2f3611	0.010694043
152	0x3dcafece	0.099118814
153	0x3d4ebfa6	0.05047574
154	0xbdb18008	-0.08666998
155	0x3ce882b8	0.028382644
156	0x3cfdc1a8	0.030976132
157	0x3d598b78	0.053111523
158	0x3e1ae274	0.15125448
159	0x3e188de9	0.14897884
160	0xbd96b09f	-0.073579066
161	0x3e09a15a	0.13440457
162	0x3ca04843	0.019565707
163	0xbda71184	-0.08157638
164	0x3cf9aed6	0.030478876
165	0x3d839010	0.06423962
166	0x3d4fc3db	0.05072389
167	0x3d478abe	0.0487163
168	0x3b5de62e	0.0033859122
169	0x3d80b9e4	0.06285456
170	0x3cc4e96c	0.024037085
171	0xbda15fae	-0.078795776
172	0x3d93674b	0.07197436
173	0x3d6248be	0.055245154
174	0x3e1f6fcd	0.15569992
175	0x3dc68c0f	0.09694683
176	0x3d27f491	0.04100472
177	0x3da34328	0.079717934
178	0x3d29fe24	0.041502133
179	0xbb731b9a	-0.003709531
180	0xbcf423cd	-0.029802227
181	0xbc65b2e3	-0.014019701
182	0xbd85e4f8	-0.06537813
183	0x3df2e35b	0.11859771
184	0x3ce206d9	0.027591156
185	0xbb897f80	-0.0041961074
186	0x3db061b5	0.08612386
187	0xbdeb9498	-0.115029514
188	0x3da1a20e	0.078922376
189	0xbe05aa55	-0.13053258
190	0x3cb2284b	0.021747729
191	0xbd5e614b	-0.054292005
192	0xbd90e8c8	-0.070756495
193	0x3a6cbb08	0.00090305554
194	0x3d0a9102	0.033829696
195	0xbd89cfb1	-0.06729067
196	0x3da276ff	0.07932853
197	0x3e5fb371	0.21845795
198	0xbd589eb0	-0.05288571
199	0x3e3851d5	0.17999966
200	0xbcf0983e	-0.02936947
201	0xbbab34b7	-0.00522479
202	0x3d12a451	0.035801236
203	0xbd3bd73a	-0.045859553
204	0xbc62b7d2	-0.0138377715
205	0xbc4fe4cc	-0.012688827
206	0x3c889e4c	0.016677044
207	0xbdb096a6	-0.08622484
208	0xbe664d49	-0.2249042
209	0xbc851e23	-0.016249722
210	0xbcfbe3ec	-0.03074833
211	0xbb5afbbd	-0.0033414208
212	0x3d8bfe77	0.06835645
213	0xbd946d25	-0.0724738
214	0x3d3ab811	0.045585696
215	0x3db4225e	0.087956175
216	0x3cdee716	0.0272098
217	0xbdcac724	-0.09901264
218	0x3ddc5c2e	0.107597694
219	0x3dbd13d2	0.09232296
220	0xbcb9366f	-0.022608964
221	0x3d4bf9f4	0.04979892
222	0xbcbdd193	-0.023171222
223	0x3da053f1	0.078285106
224	0x3c3e1458	0.01160153
225	0x3d96fb35	0.07372133
226	0xbd6b5fa1	-0.057464246
227	0x3d18e139	0.037324164
228	0x3ce138da	0.02749293
229	0x3de7ca5b	0.11317893
230	0xbcaa00b9	-0.020752298
231	0xbd89e03c	-0.067322224
232	0xbd9ad9d2	-0.07561077
233	0x3e6c11b8	0.23053634
234	0xbe1ffdfb	-0.1562423
235	0x3da82c72	0.08211602
236	0x3dc8e0c9	0.09808499
237	0x3d092e56	0.033491455
238	0xbbc0f239	-0.00588825
239	0xbc501392	-0.012699978
240	0xbe0ae054	-0.13562137
241	0x3deae111	0.11468709
242	0xbde3c784	-0.11122039
243	0xbd252aec	-0.040324137
244	0xbd3fb89d	-0.04680692
245	0x3d63ed78	0.05564639
246	0x3dadf2ad	0.08493552
247	0x3da59e6a	0.08086856
248	0xbdae4914	-0.08510032
249	0x3c8a0c80	0.016851664
250	0x3d430f75	0.047622163
251	0xbd619d60	-0.055081725
252	0xbe1550f8	-0.14581668
253	0x3dfb94c4	0.12284234
254	0x3e132dee	0.1437299
255	0xbd8acdcd	-0.06777535

network.9.bias f4 [64]
0	0xbda77049	-0.081757136
1	0x3ddb496c	0.107073635
2	0xbd23726f	-0.039904054
3	0x3ba8cde5	0.0051514977
4	0x3d2905a7	0.041265156
5	0xbce55e6b	-0.027999124
6	0x3dde67d5	0.10859648
7	0xbd49dadf	-0.049280997
8	0xbd4b6539	-0.04965708
9	0x3ada482d	0.001665359
10	0x3dbe0349	0.0927797
11	0x3d1e6718	0.038672537
12	0xbd13c6a6	-0.036078118
13	0x3c390ec4	0.011295024
14	0x3c0dbb89	0.008650669
15	0x3c73e38c	0.014885794
16	0xbd8d04d1	-0.06885684
17	0xbd953c4d	-0.07286892
18	0x3be4c6f2	0.006981724
19	0x3cb60598	0.022219464
20	0x3d28b135	0.041184623
21	0x3c848ad5	0.016179482
22	0xbcd5a8e4	-0.02608151
23	0xbc57818d	-0.013153446
24	0x3c89c6d8	0.016818449
25	0x3e0ee245	0.13953502
26	0x3ded1d2c	0.1157783
27	0x3ddff3ec	0.10935196
28	0x3ca22546	0.019793164
29	0xbda2a558	-0.07941693
30	0xbd0f4cd6	-0.034985386
31	0x3da8dfa6	0.082457826
32	0x3e1cad5d	0.15300508
33	0x3d2921d8	0.04129204
34	0x3d67db00	0.05660534
35	0xbdbe33fb	-0.09287258
36	0x3d5c3945	0.053765554
37	0x3c7f2754	0.015573341
38	0x3bc4f72b	0.00601091
39	0xbdbf6be9	-0.09346754
40	0xbc8be550	-0.017077118
41	0x3d967f6b	0.07348522
42	0x3d3551b5	0.044267375
43	0xbc9e9643	-0.01935876
44	0x3d0b6704	0.03403379
45	0x3d6afb65	0.057368655
46	0x3dff54ef	0.12467372
47	0xbd07ada8	-0.033124596
48	0xbdc8ba6d	-0.09801183
49	0x3b5f5a46	0.0034080907
50	0x3cb8fd4e	0.022581723
51	0x3d6c65b0	0.057714164
52	0x3cae381f	0.021266995
53	0x3e0df629	0.13863434
54	0xbdcda64f	-0.100414865
55	0xbd8c2448	-0.068428576
56	0xbd6e0876	-0.058113538
57	0x3e25e1c1	0.161994
58	0x3d37c5b4	0.04486628
59	0x3c82ad46	0.015951764
60	0xbc0e91a1	-0.008701713
61	0xba1265ad	-0.0005584609
62	0x3c3e8a51	0.011629657
63	0x3d2fb57a	0.04289768
